{
    "format": "graph-model",
    "generatedBy": "2.13.0",
    "convertedBy": "TensorFlow.js Converter v4.10.0",
    "signature": {
        "inputs": {
            "input": {
                "name": "input:0",
                "dtype": "DT_FLOAT",
                "tensorShape": {
                    "dim": [
                        { "size": "1" },
                        { "size": "448" },
                        { "size": "448" },
                        { "size": "3" }
                    ]
                }
            }
        },
        "outputs": {
            "Identity_1:0": {
                "name": "Identity_1:0",
                "dtype": "DT_FLOAT",
                "tensorShape": {
                    "dim": [{ "size": "1" }, { "size": "1" }, { "size": "1" }]
                }
            },
            "bboxes": {
                "name": "Identity:0",
                "dtype": "DT_FLOAT",
                "tensorShape": {
                    "dim": [{ "size": "1" }, { "size": "1" }, { "size": "4" }]
                }
            },
            "Identity_2:0": {
                "name": "Identity_2:0",
                "dtype": "DT_FLOAT",
                "tensorShape": {
                    "dim": [{ "size": "1" }, { "size": "1" }, { "size": "1" }]
                }
            }
        }
    },
    "modelTopology": {
        "node": [
            {
                "name": "StatefulPartitionedCall/SelectV2_9",
                "op": "Const",
                "attr": {
                    "dtype": { "type": "DT_INT64" },
                    "value": {
                        "tensor": {
                            "dtype": "DT_INT64",
                            "tensorShape": { "dim": [{ "size": "1" }] }
                        }
                    }
                }
            },
            {
                "name": "StatefulPartitionedCall/zeros_8",
                "op": "Const",
                "attr": {
                    "dtype": { "type": "DT_INT64" },
                    "value": {
                        "tensor": { "dtype": "DT_INT64", "tensorShape": {} }
                    }
                }
            },
            {
                "name": "StatefulPartitionedCall/Const_37",
                "op": "Const",
                "attr": {
                    "value": {
                        "tensor": { "dtype": "DT_INT64", "tensorShape": {} }
                    },
                    "dtype": { "type": "DT_INT64" }
                }
            },
            {
                "name": "StatefulPartitionedCall/Shape_16",
                "op": "Const",
                "attr": {
                    "dtype": { "type": "DT_INT64" },
                    "value": {
                        "tensor": {
                            "dtype": "DT_INT64",
                            "tensorShape": { "dim": [{ "size": "3" }] }
                        }
                    }
                }
            },
            {
                "name": "StatefulPartitionedCall/SelectV2_10",
                "op": "Const",
                "attr": {
                    "value": {
                        "tensor": {
                            "dtype": "DT_INT64",
                            "tensorShape": { "dim": [{ "size": "1" }] }
                        }
                    },
                    "dtype": { "type": "DT_INT64" }
                }
            },
            {
                "name": "StatefulPartitionedCall/Const_36",
                "op": "Const",
                "attr": {
                    "value": {
                        "tensor": { "dtype": "DT_INT64", "tensorShape": {} }
                    },
                    "dtype": { "type": "DT_INT64" }
                }
            },
            {
                "name": "StatefulPartitionedCall/ExpandDims_2",
                "op": "Const",
                "attr": {
                    "value": {
                        "tensor": {
                            "dtype": "DT_INT64",
                            "tensorShape": {
                                "dim": [{ "size": "1" }, { "size": "1" }]
                            }
                        }
                    },
                    "dtype": { "type": "DT_INT64" }
                }
            },
            {
                "name": "StatefulPartitionedCall/Cast_35",
                "op": "Const",
                "attr": {
                    "value": {
                        "tensor": {
                            "dtype": "DT_INT64",
                            "tensorShape": { "dim": [{ "size": "1" }] }
                        }
                    },
                    "dtype": { "type": "DT_INT64" }
                }
            },
            {
                "name": "StatefulPartitionedCall/Const_38",
                "op": "Const",
                "attr": {
                    "value": {
                        "tensor": { "dtype": "DT_INT64", "tensorShape": {} }
                    },
                    "dtype": { "type": "DT_INT64" }
                }
            },
            {
                "name": "StatefulPartitionedCall/SelectV2_13",
                "op": "Const",
                "attr": {
                    "value": {
                        "tensor": {
                            "dtype": "DT_INT64",
                            "tensorShape": { "dim": [{ "size": "1" }] }
                        }
                    },
                    "dtype": { "type": "DT_INT64" }
                }
            },
            {
                "name": "StatefulPartitionedCall/zeros_9",
                "op": "Const",
                "attr": {
                    "value": {
                        "tensor": { "dtype": "DT_INT64", "tensorShape": {} }
                    },
                    "dtype": { "type": "DT_INT64" }
                }
            },
            {
                "name": "StatefulPartitionedCall/Const_40",
                "op": "Const",
                "attr": {
                    "value": {
                        "tensor": { "dtype": "DT_INT64", "tensorShape": {} }
                    },
                    "dtype": { "type": "DT_INT64" }
                }
            },
            {
                "name": "StatefulPartitionedCall/Shape_17",
                "op": "Const",
                "attr": {
                    "dtype": { "type": "DT_INT64" },
                    "value": {
                        "tensor": {
                            "dtype": "DT_INT64",
                            "tensorShape": { "dim": [{ "size": "3" }] }
                        }
                    }
                }
            },
            {
                "name": "StatefulPartitionedCall/SelectV2_14",
                "op": "Const",
                "attr": {
                    "value": {
                        "tensor": {
                            "dtype": "DT_INT64",
                            "tensorShape": { "dim": [{ "size": "1" }] }
                        }
                    },
                    "dtype": { "type": "DT_INT64" }
                }
            },
            {
                "name": "StatefulPartitionedCall/Const_39",
                "op": "Const",
                "attr": {
                    "value": {
                        "tensor": { "dtype": "DT_INT64", "tensorShape": {} }
                    },
                    "dtype": { "type": "DT_INT64" }
                }
            },
            {
                "name": "StatefulPartitionedCall/ExpandDims_3",
                "op": "Const",
                "attr": {
                    "value": {
                        "tensor": {
                            "dtype": "DT_INT64",
                            "tensorShape": {
                                "dim": [{ "size": "1" }, { "size": "1" }]
                            }
                        }
                    },
                    "dtype": { "type": "DT_INT64" }
                }
            },
            {
                "name": "StatefulPartitionedCall/Cast_37",
                "op": "Const",
                "attr": {
                    "value": {
                        "tensor": {
                            "dtype": "DT_INT64",
                            "tensorShape": { "dim": [{ "size": "1" }] }
                        }
                    },
                    "dtype": { "type": "DT_INT64" }
                }
            },
            {
                "name": "StatefulPartitionedCall/Const_41",
                "op": "Const",
                "attr": {
                    "value": {
                        "tensor": { "dtype": "DT_INT64", "tensorShape": {} }
                    },
                    "dtype": { "type": "DT_INT64" }
                }
            },
            {
                "name": "StatefulPartitionedCall/SelectV2_17",
                "op": "Const",
                "attr": {
                    "value": {
                        "tensor": {
                            "dtype": "DT_INT64",
                            "tensorShape": { "dim": [{ "size": "1" }] }
                        }
                    },
                    "dtype": { "type": "DT_INT64" }
                }
            },
            {
                "name": "StatefulPartitionedCall/zeros_10",
                "op": "Const",
                "attr": {
                    "value": {
                        "tensor": { "dtype": "DT_INT64", "tensorShape": {} }
                    },
                    "dtype": { "type": "DT_INT64" }
                }
            },
            {
                "name": "StatefulPartitionedCall/Const_43",
                "op": "Const",
                "attr": {
                    "value": {
                        "tensor": { "dtype": "DT_INT64", "tensorShape": {} }
                    },
                    "dtype": { "type": "DT_INT64" }
                }
            },
            {
                "name": "StatefulPartitionedCall/Shape_18",
                "op": "Const",
                "attr": {
                    "dtype": { "type": "DT_INT64" },
                    "value": {
                        "tensor": {
                            "dtype": "DT_INT64",
                            "tensorShape": { "dim": [{ "size": "3" }] }
                        }
                    }
                }
            },
            {
                "name": "StatefulPartitionedCall/SelectV2_18",
                "op": "Const",
                "attr": {
                    "value": {
                        "tensor": {
                            "dtype": "DT_INT64",
                            "tensorShape": { "dim": [{ "size": "1" }] }
                        }
                    },
                    "dtype": { "type": "DT_INT64" }
                }
            },
            {
                "name": "StatefulPartitionedCall/Const_42",
                "op": "Const",
                "attr": {
                    "value": {
                        "tensor": { "dtype": "DT_INT64", "tensorShape": {} }
                    },
                    "dtype": { "type": "DT_INT64" }
                }
            },
            {
                "name": "StatefulPartitionedCall/ExpandDims_4",
                "op": "Const",
                "attr": {
                    "dtype": { "type": "DT_INT64" },
                    "value": {
                        "tensor": {
                            "dtype": "DT_INT64",
                            "tensorShape": {
                                "dim": [{ "size": "1" }, { "size": "1" }]
                            }
                        }
                    }
                }
            },
            {
                "name": "StatefulPartitionedCall/Cast_39",
                "op": "Const",
                "attr": {
                    "value": {
                        "tensor": {
                            "dtype": "DT_INT64",
                            "tensorShape": { "dim": [{ "size": "1" }] }
                        }
                    },
                    "dtype": { "type": "DT_INT64" }
                }
            },
            {
                "name": "StatefulPartitionedCall/Const_44",
                "op": "Const",
                "attr": {
                    "dtype": { "type": "DT_INT64" },
                    "value": {
                        "tensor": { "dtype": "DT_INT64", "tensorShape": {} }
                    }
                }
            },
            {
                "name": "StatefulPartitionedCall/onnx_tf_prefix_/_auxnet/Unsqueeze_2/dim",
                "op": "Const",
                "attr": {
                    "value": {
                        "tensor": { "dtype": "DT_INT32", "tensorShape": {} }
                    },
                    "dtype": { "type": "DT_INT32" }
                }
            },
            {
                "name": "StatefulPartitionedCall/onnx_tf_prefix_/_auxnet/Unsqueeze_3/dim",
                "op": "Const",
                "attr": {
                    "value": {
                        "tensor": { "dtype": "DT_INT32", "tensorShape": {} }
                    },
                    "dtype": { "type": "DT_INT32" }
                }
            },
            {
                "name": "ConstantFolding/StatefulPartitionedCall/onnx_tf_prefix_/_auxnet/Div_2_recip",
                "op": "Const",
                "attr": {
                    "dtype": { "type": "DT_FLOAT" },
                    "value": {
                        "tensor": { "dtype": "DT_FLOAT", "tensorShape": {} }
                    }
                }
            },
            {
                "name": "StatefulPartitionedCall/onnx_tf_prefix_/_auxnet/Unsqueeze_4/dim",
                "op": "Const",
                "attr": {
                    "dtype": { "type": "DT_INT32" },
                    "value": {
                        "tensor": { "dtype": "DT_INT32", "tensorShape": {} }
                    }
                }
            },
            {
                "name": "unknown_164",
                "op": "Const",
                "attr": {
                    "value": {
                        "tensor": { "dtype": "DT_INT64", "tensorShape": {} }
                    },
                    "dtype": { "type": "DT_INT64" }
                }
            },
            {
                "name": "ConstantFolding/StatefulPartitionedCall/onnx_tf_prefix_/_auxnet/Div_1_recip",
                "op": "Const",
                "attr": {
                    "value": {
                        "tensor": { "dtype": "DT_DOUBLE", "tensorShape": {} }
                    },
                    "dtype": { "type": "DT_DOUBLE" }
                }
            },
            {
                "name": "StatefulPartitionedCall/Const_19",
                "op": "Const",
                "attr": {
                    "value": {
                        "tensor": {
                            "dtype": "DT_INT32",
                            "tensorShape": {
                                "dim": [{ "size": "4" }, { "size": "2" }]
                            }
                        }
                    },
                    "dtype": { "type": "DT_INT32" }
                }
            },
            {
                "name": "StatefulPartitionedCall/transpose_184/perm",
                "op": "Const",
                "attr": {
                    "value": {
                        "tensor": {
                            "dtype": "DT_INT32",
                            "tensorShape": { "dim": [{ "size": "4" }] }
                        }
                    },
                    "dtype": { "type": "DT_INT32" }
                }
            },
            {
                "name": "StatefulPartitionedCall/split_59",
                "op": "Const",
                "attr": {
                    "dtype": { "type": "DT_FLOAT" },
                    "value": {
                        "tensor": {
                            "dtype": "DT_FLOAT",
                            "tensorShape": {
                                "dim": [
                                    { "size": "3" },
                                    { "size": "3" },
                                    { "size": "64" },
                                    { "size": "32" }
                                ]
                            }
                        }
                    }
                }
            },
            {
                "name": "unknown_145",
                "op": "Const",
                "attr": {
                    "value": {
                        "tensor": {
                            "dtype": "DT_FLOAT",
                            "tensorShape": { "dim": [{ "size": "32" }] }
                        }
                    },
                    "dtype": { "type": "DT_FLOAT" }
                }
            },
            {
                "name": "StatefulPartitionedCall/transpose_185/perm",
                "op": "Const",
                "attr": {
                    "value": {
                        "tensor": {
                            "dtype": "DT_INT32",
                            "tensorShape": { "dim": [{ "size": "4" }] }
                        }
                    },
                    "dtype": { "type": "DT_INT32" }
                }
            },
            {
                "name": "StatefulPartitionedCall/transpose_193/perm",
                "op": "Const",
                "attr": {
                    "value": {
                        "tensor": {
                            "dtype": "DT_INT32",
                            "tensorShape": { "dim": [{ "size": "4" }] }
                        }
                    },
                    "dtype": { "type": "DT_INT32" }
                }
            },
            {
                "name": "StatefulPartitionedCall/split_62",
                "op": "Const",
                "attr": {
                    "value": {
                        "tensor": {
                            "dtype": "DT_FLOAT",
                            "tensorShape": {
                                "dim": [
                                    { "size": "1" },
                                    { "size": "1" },
                                    { "size": "32" },
                                    { "size": "12" }
                                ]
                            }
                        }
                    },
                    "dtype": { "type": "DT_FLOAT" }
                }
            },
            {
                "name": "unknown_151",
                "op": "Const",
                "attr": {
                    "value": {
                        "tensor": {
                            "dtype": "DT_FLOAT",
                            "tensorShape": { "dim": [{ "size": "12" }] }
                        }
                    },
                    "dtype": { "type": "DT_FLOAT" }
                }
            },
            {
                "name": "StatefulPartitionedCall/transpose_194/perm",
                "op": "Const",
                "attr": {
                    "dtype": { "type": "DT_INT32" },
                    "value": {
                        "tensor": {
                            "dtype": "DT_INT32",
                            "tensorShape": { "dim": [{ "size": "4" }] }
                        }
                    }
                }
            },
            {
                "name": "StatefulPartitionedCall/SelectV2_1",
                "op": "Const",
                "attr": {
                    "dtype": { "type": "DT_INT64" },
                    "value": {
                        "tensor": {
                            "dtype": "DT_INT64",
                            "tensorShape": { "dim": [{ "size": "1" }] }
                        }
                    }
                }
            },
            {
                "name": "StatefulPartitionedCall/zeros_3",
                "op": "Const",
                "attr": {
                    "value": {
                        "tensor": { "dtype": "DT_INT64", "tensorShape": {} }
                    },
                    "dtype": { "type": "DT_INT64" }
                }
            },
            {
                "name": "StatefulPartitionedCall/Const_22",
                "op": "Const",
                "attr": {
                    "value": {
                        "tensor": { "dtype": "DT_INT64", "tensorShape": {} }
                    },
                    "dtype": { "type": "DT_INT64" }
                }
            },
            {
                "name": "StatefulPartitionedCall/Shape_6",
                "op": "Const",
                "attr": {
                    "dtype": { "type": "DT_INT64" },
                    "value": {
                        "tensor": {
                            "dtype": "DT_INT64",
                            "tensorShape": { "dim": [{ "size": "4" }] }
                        }
                    }
                }
            },
            {
                "name": "StatefulPartitionedCall/SelectV2_2",
                "op": "Const",
                "attr": {
                    "dtype": { "type": "DT_INT64" },
                    "value": {
                        "tensor": {
                            "dtype": "DT_INT64",
                            "tensorShape": { "dim": [{ "size": "1" }] }
                        }
                    }
                }
            },
            {
                "name": "StatefulPartitionedCall/Const_21",
                "op": "Const",
                "attr": {
                    "value": {
                        "tensor": { "dtype": "DT_INT64", "tensorShape": {} }
                    },
                    "dtype": { "type": "DT_INT64" }
                }
            },
            {
                "name": "StatefulPartitionedCall/ExpandDims",
                "op": "Const",
                "attr": {
                    "dtype": { "type": "DT_INT64" },
                    "value": {
                        "tensor": {
                            "dtype": "DT_INT64",
                            "tensorShape": {
                                "dim": [{ "size": "1" }, { "size": "1" }]
                            }
                        }
                    }
                }
            },
            {
                "name": "StatefulPartitionedCall/Cast_4",
                "op": "Const",
                "attr": {
                    "value": {
                        "tensor": {
                            "dtype": "DT_INT64",
                            "tensorShape": { "dim": [{ "size": "1" }] }
                        }
                    },
                    "dtype": { "type": "DT_INT64" }
                }
            },
            {
                "name": "StatefulPartitionedCall/Const_23",
                "op": "Const",
                "attr": {
                    "dtype": { "type": "DT_INT64" },
                    "value": {
                        "tensor": { "dtype": "DT_INT64", "tensorShape": {} }
                    }
                }
            },
            {
                "name": "StatefulPartitionedCall/onnx_tf_prefix_/_auxnet/Transpose/perm",
                "op": "Const",
                "attr": {
                    "value": {
                        "tensor": {
                            "dtype": "DT_INT32",
                            "tensorShape": { "dim": [{ "size": "4" }] }
                        }
                    },
                    "dtype": { "type": "DT_INT32" }
                }
            },
            {
                "name": "StatefulPartitionedCall/Reshape_38/shape",
                "op": "Const",
                "attr": {
                    "value": {
                        "tensor": {
                            "dtype": "DT_INT32",
                            "tensorShape": { "dim": [{ "size": "2" }] }
                        }
                    },
                    "dtype": { "type": "DT_INT32" }
                }
            },
            {
                "name": "StatefulPartitionedCall/Const_20",
                "op": "Const",
                "attr": {
                    "value": {
                        "tensor": {
                            "dtype": "DT_INT32",
                            "tensorShape": {
                                "dim": [{ "size": "4" }, { "size": "2" }]
                            }
                        }
                    },
                    "dtype": { "type": "DT_INT32" }
                }
            },
            {
                "name": "StatefulPartitionedCall/transpose_187/perm",
                "op": "Const",
                "attr": {
                    "dtype": { "type": "DT_INT32" },
                    "value": {
                        "tensor": {
                            "dtype": "DT_INT32",
                            "tensorShape": { "dim": [{ "size": "4" }] }
                        }
                    }
                }
            },
            {
                "name": "StatefulPartitionedCall/split_60",
                "op": "Const",
                "attr": {
                    "dtype": { "type": "DT_FLOAT" },
                    "value": {
                        "tensor": {
                            "dtype": "DT_FLOAT",
                            "tensorShape": {
                                "dim": [
                                    { "size": "3" },
                                    { "size": "3" },
                                    { "size": "64" },
                                    { "size": "32" }
                                ]
                            }
                        }
                    }
                }
            },
            {
                "name": "unknown_147",
                "op": "Const",
                "attr": {
                    "dtype": { "type": "DT_FLOAT" },
                    "value": {
                        "tensor": {
                            "dtype": "DT_FLOAT",
                            "tensorShape": { "dim": [{ "size": "32" }] }
                        }
                    }
                }
            },
            {
                "name": "StatefulPartitionedCall/transpose_188/perm",
                "op": "Const",
                "attr": {
                    "dtype": { "type": "DT_INT32" },
                    "value": {
                        "tensor": {
                            "dtype": "DT_INT32",
                            "tensorShape": { "dim": [{ "size": "4" }] }
                        }
                    }
                }
            },
            {
                "name": "StatefulPartitionedCall/transpose_196/perm",
                "op": "Const",
                "attr": {
                    "value": {
                        "tensor": {
                            "dtype": "DT_INT32",
                            "tensorShape": { "dim": [{ "size": "4" }] }
                        }
                    },
                    "dtype": { "type": "DT_INT32" }
                }
            },
            {
                "name": "StatefulPartitionedCall/split_63",
                "op": "Const",
                "attr": {
                    "value": {
                        "tensor": {
                            "dtype": "DT_FLOAT",
                            "tensorShape": {
                                "dim": [
                                    { "size": "1" },
                                    { "size": "1" },
                                    { "size": "32" },
                                    { "size": "2" }
                                ]
                            }
                        }
                    },
                    "dtype": { "type": "DT_FLOAT" }
                }
            },
            {
                "name": "unknown_153",
                "op": "Const",
                "attr": {
                    "dtype": { "type": "DT_FLOAT" },
                    "value": {
                        "tensor": {
                            "dtype": "DT_FLOAT",
                            "tensorShape": { "dim": [{ "size": "2" }] }
                        }
                    }
                }
            },
            {
                "name": "StatefulPartitionedCall/Reshape_37/shape",
                "op": "Const",
                "attr": {
                    "dtype": { "type": "DT_INT32" },
                    "value": {
                        "tensor": {
                            "dtype": "DT_INT32",
                            "tensorShape": { "dim": [{ "size": "2" }] }
                        }
                    }
                }
            },
            {
                "name": "ConstantFolding/StatefulPartitionedCall/onnx_tf_prefix_/_auxnet/Div_3_recip",
                "op": "Const",
                "attr": {
                    "dtype": { "type": "DT_FLOAT" },
                    "value": {
                        "tensor": { "dtype": "DT_FLOAT", "tensorShape": {} }
                    }
                }
            },
            {
                "name": "StatefulPartitionedCall/onnx_tf_prefix_/_auxnet/Unsqueeze_5/dim",
                "op": "Const",
                "attr": {
                    "dtype": { "type": "DT_INT32" },
                    "value": {
                        "tensor": { "dtype": "DT_INT32", "tensorShape": {} }
                    }
                }
            },
            {
                "name": "StatefulPartitionedCall/onnx_tf_prefix_/_auxnet/Concat_6/axis",
                "op": "Const",
                "attr": {
                    "dtype": { "type": "DT_INT32" },
                    "value": {
                        "tensor": { "dtype": "DT_INT32", "tensorShape": {} }
                    }
                }
            },
            {
                "name": "StatefulPartitionedCall/SelectV2_21",
                "op": "Const",
                "attr": {
                    "dtype": { "type": "DT_INT64" },
                    "value": {
                        "tensor": {
                            "dtype": "DT_INT64",
                            "tensorShape": { "dim": [{ "size": "1" }] }
                        }
                    }
                }
            },
            {
                "name": "StatefulPartitionedCall/zeros_11",
                "op": "Const",
                "attr": {
                    "value": {
                        "tensor": { "dtype": "DT_INT64", "tensorShape": {} }
                    },
                    "dtype": { "type": "DT_INT64" }
                }
            },
            {
                "name": "StatefulPartitionedCall/Const_46",
                "op": "Const",
                "attr": {
                    "dtype": { "type": "DT_INT64" },
                    "value": {
                        "tensor": { "dtype": "DT_INT64", "tensorShape": {} }
                    }
                }
            },
            {
                "name": "StatefulPartitionedCall/Shape_19",
                "op": "Const",
                "attr": {
                    "dtype": { "type": "DT_INT64" },
                    "value": {
                        "tensor": {
                            "dtype": "DT_INT64",
                            "tensorShape": { "dim": [{ "size": "3" }] }
                        }
                    }
                }
            },
            {
                "name": "StatefulPartitionedCall/SelectV2_22",
                "op": "Const",
                "attr": {
                    "value": {
                        "tensor": {
                            "dtype": "DT_INT64",
                            "tensorShape": { "dim": [{ "size": "1" }] }
                        }
                    },
                    "dtype": { "type": "DT_INT64" }
                }
            },
            {
                "name": "StatefulPartitionedCall/Const_45",
                "op": "Const",
                "attr": {
                    "dtype": { "type": "DT_INT64" },
                    "value": {
                        "tensor": { "dtype": "DT_INT64", "tensorShape": {} }
                    }
                }
            },
            {
                "name": "StatefulPartitionedCall/ExpandDims_5",
                "op": "Const",
                "attr": {
                    "dtype": { "type": "DT_INT64" },
                    "value": {
                        "tensor": {
                            "dtype": "DT_INT64",
                            "tensorShape": {
                                "dim": [{ "size": "1" }, { "size": "1" }]
                            }
                        }
                    }
                }
            },
            {
                "name": "StatefulPartitionedCall/Cast_41",
                "op": "Const",
                "attr": {
                    "dtype": { "type": "DT_INT64" },
                    "value": {
                        "tensor": {
                            "dtype": "DT_INT64",
                            "tensorShape": { "dim": [{ "size": "1" }] }
                        }
                    }
                }
            },
            {
                "name": "StatefulPartitionedCall/Const_47",
                "op": "Const",
                "attr": {
                    "value": {
                        "tensor": { "dtype": "DT_INT64", "tensorShape": {} }
                    },
                    "dtype": { "type": "DT_INT64" }
                }
            },
            {
                "name": "unknown_173",
                "op": "Const",
                "attr": {
                    "value": {
                        "tensor": { "dtype": "DT_FLOAT", "tensorShape": {} }
                    },
                    "dtype": { "type": "DT_FLOAT" }
                }
            },
            {
                "name": "StatefulPartitionedCall/onnx_tf_prefix_/_auxnet/Concat_7/axis",
                "op": "Const",
                "attr": {
                    "value": {
                        "tensor": { "dtype": "DT_INT32", "tensorShape": {} }
                    },
                    "dtype": { "type": "DT_INT32" }
                }
            },
            {
                "name": "unknown_174",
                "op": "Const",
                "attr": {
                    "dtype": { "type": "DT_FLOAT" },
                    "value": {
                        "tensor": { "dtype": "DT_FLOAT", "tensorShape": {} }
                    }
                }
            },
            {
                "name": "unknown_162",
                "op": "Const",
                "attr": {
                    "value": {
                        "tensor": { "dtype": "DT_BOOL", "tensorShape": {} }
                    },
                    "dtype": { "type": "DT_BOOL" }
                }
            },
            {
                "name": "unknown_160",
                "op": "Const",
                "attr": {
                    "value": {
                        "tensor": { "dtype": "DT_INT64", "tensorShape": {} }
                    },
                    "dtype": { "type": "DT_INT64" }
                }
            },
            {
                "name": "unknown_163",
                "op": "Const",
                "attr": {
                    "dtype": { "type": "DT_INT64" },
                    "value": {
                        "tensor": { "dtype": "DT_INT64", "tensorShape": {} }
                    }
                }
            },
            {
                "name": "ConstantFolding/StatefulPartitionedCall/onnx_tf_prefix_/_auxnet/Div_recip",
                "op": "Const",
                "attr": {
                    "dtype": { "type": "DT_DOUBLE" },
                    "value": {
                        "tensor": { "dtype": "DT_DOUBLE", "tensorShape": {} }
                    }
                }
            },
            {
                "name": "StatefulPartitionedCall/onnx_tf_prefix_/_auxnet/Unsqueeze_1/dim",
                "op": "Const",
                "attr": {
                    "value": {
                        "tensor": { "dtype": "DT_INT32", "tensorShape": {} }
                    },
                    "dtype": { "type": "DT_INT32" }
                }
            },
            {
                "name": "unknown_161",
                "op": "Const",
                "attr": {
                    "value": {
                        "tensor": { "dtype": "DT_FLOAT", "tensorShape": {} }
                    },
                    "dtype": { "type": "DT_FLOAT" }
                }
            },
            {
                "name": "StatefulPartitionedCall/onnx_tf_prefix_/_auxnet/Unsqueeze/dim",
                "op": "Const",
                "attr": {
                    "value": {
                        "tensor": { "dtype": "DT_INT32", "tensorShape": {} }
                    },
                    "dtype": { "type": "DT_INT32" }
                }
            },
            {
                "name": "unknown_167",
                "op": "Const",
                "attr": {
                    "value": {
                        "tensor": {
                            "dtype": "DT_FLOAT",
                            "tensorShape": {
                                "dim": [
                                    { "size": "1" },
                                    { "size": "1" },
                                    { "size": "1" }
                                ]
                            }
                        }
                    },
                    "dtype": { "type": "DT_FLOAT" }
                }
            },
            {
                "name": "StatefulPartitionedCall/Neg_9",
                "op": "Const",
                "attr": {
                    "dtype": { "type": "DT_INT64" },
                    "value": {
                        "tensor": { "dtype": "DT_INT64", "tensorShape": {} }
                    }
                }
            },
            {
                "name": "StatefulPartitionedCall/strided_slice_14",
                "op": "Const",
                "attr": {
                    "dtype": { "type": "DT_INT64" },
                    "value": {
                        "tensor": { "dtype": "DT_INT64", "tensorShape": {} }
                    }
                }
            },
            {
                "name": "StatefulPartitionedCall/assert_equal_19/y",
                "op": "Const",
                "attr": {
                    "value": {
                        "tensor": { "dtype": "DT_BOOL", "tensorShape": {} }
                    },
                    "dtype": { "type": "DT_BOOL" }
                }
            },
            {
                "name": "StatefulPartitionedCall/assert_equal_19/Const",
                "op": "Const",
                "attr": {
                    "value": {
                        "tensor": {
                            "dtype": "DT_INT32",
                            "tensorShape": { "dim": [{ "size": "1" }] }
                        }
                    },
                    "dtype": { "type": "DT_INT32" }
                }
            },
            {
                "name": "StatefulPartitionedCall/Neg_8",
                "op": "Const",
                "attr": {
                    "value": {
                        "tensor": { "dtype": "DT_INT64", "tensorShape": {} }
                    },
                    "dtype": { "type": "DT_INT64" }
                }
            },
            {
                "name": "StatefulPartitionedCall/strided_slice_13",
                "op": "Const",
                "attr": {
                    "dtype": { "type": "DT_INT64" },
                    "value": {
                        "tensor": { "dtype": "DT_INT64", "tensorShape": {} }
                    }
                }
            },
            {
                "name": "StatefulPartitionedCall/assert_equal_17/y",
                "op": "Const",
                "attr": {
                    "value": {
                        "tensor": { "dtype": "DT_BOOL", "tensorShape": {} }
                    },
                    "dtype": { "type": "DT_BOOL" }
                }
            },
            {
                "name": "StatefulPartitionedCall/assert_equal_17/Const",
                "op": "Const",
                "attr": {
                    "value": {
                        "tensor": {
                            "dtype": "DT_INT32",
                            "tensorShape": { "dim": [{ "size": "1" }] }
                        }
                    },
                    "dtype": { "type": "DT_INT32" }
                }
            },
            {
                "name": "StatefulPartitionedCall/Neg_7",
                "op": "Const",
                "attr": {
                    "value": {
                        "tensor": { "dtype": "DT_INT64", "tensorShape": {} }
                    },
                    "dtype": { "type": "DT_INT64" }
                }
            },
            {
                "name": "unknown_166",
                "op": "Const",
                "attr": {
                    "dtype": { "type": "DT_INT64" },
                    "value": {
                        "tensor": {
                            "dtype": "DT_INT64",
                            "tensorShape": {
                                "dim": [{ "size": "1" }, { "size": "1" }]
                            }
                        }
                    }
                }
            },
            {
                "name": "StatefulPartitionedCall/onnx_tf_prefix_/_auxnet/Concat_1/axis",
                "op": "Const",
                "attr": {
                    "value": {
                        "tensor": { "dtype": "DT_INT32", "tensorShape": {} }
                    },
                    "dtype": { "type": "DT_INT32" }
                }
            },
            {
                "name": "StatefulPartitionedCall/strided_slice_12",
                "op": "Const",
                "attr": {
                    "dtype": { "type": "DT_INT64" },
                    "value": {
                        "tensor": { "dtype": "DT_INT64", "tensorShape": {} }
                    }
                }
            },
            {
                "name": "StatefulPartitionedCall/assert_equal_15/y",
                "op": "Const",
                "attr": {
                    "value": {
                        "tensor": { "dtype": "DT_BOOL", "tensorShape": {} }
                    },
                    "dtype": { "type": "DT_BOOL" }
                }
            },
            {
                "name": "StatefulPartitionedCall/assert_equal_15/Const",
                "op": "Const",
                "attr": {
                    "dtype": { "type": "DT_INT32" },
                    "value": {
                        "tensor": {
                            "dtype": "DT_INT32",
                            "tensorShape": { "dim": [{ "size": "1" }] }
                        }
                    }
                }
            },
            {
                "name": "StatefulPartitionedCall/Neg_6",
                "op": "Const",
                "attr": {
                    "dtype": { "type": "DT_INT64" },
                    "value": {
                        "tensor": { "dtype": "DT_INT64", "tensorShape": {} }
                    }
                }
            },
            {
                "name": "unknown_156",
                "op": "Const",
                "attr": {
                    "dtype": { "type": "DT_INT64" },
                    "value": {
                        "tensor": {
                            "dtype": "DT_INT64",
                            "tensorShape": { "dim": [{ "size": "1" }] }
                        }
                    }
                }
            },
            {
                "name": "StatefulPartitionedCall/transpose_198/perm",
                "op": "Const",
                "attr": {
                    "dtype": { "type": "DT_INT32" },
                    "value": {
                        "tensor": {
                            "dtype": "DT_INT32",
                            "tensorShape": { "dim": [{ "size": "4" }] }
                        }
                    }
                }
            },
            {
                "name": "StatefulPartitionedCall/transpose_199/perm",
                "op": "Const",
                "attr": {
                    "value": {
                        "tensor": {
                            "dtype": "DT_INT32",
                            "tensorShape": { "dim": [{ "size": "4" }] }
                        }
                    },
                    "dtype": { "type": "DT_INT32" }
                }
            },
            {
                "name": "StatefulPartitionedCall/conv2d_transpose_2/input_sizes",
                "op": "Const",
                "attr": {
                    "dtype": { "type": "DT_INT32" },
                    "value": {
                        "tensor": {
                            "dtype": "DT_INT32",
                            "tensorShape": { "dim": [{ "size": "4" }] }
                        }
                    }
                }
            },
            {
                "name": "StatefulPartitionedCall/split_57",
                "op": "Const",
                "attr": {
                    "dtype": { "type": "DT_FLOAT" },
                    "value": {
                        "tensor": {
                            "dtype": "DT_FLOAT",
                            "tensorShape": {
                                "dim": [
                                    { "size": "4" },
                                    { "size": "4" },
                                    { "size": "32" },
                                    { "size": "32" }
                                ]
                            }
                        }
                    }
                }
            },
            {
                "name": "StatefulPartitionedCall/conv2d_transpose_1/input_sizes",
                "op": "Const",
                "attr": {
                    "dtype": { "type": "DT_INT32" },
                    "value": {
                        "tensor": {
                            "dtype": "DT_INT32",
                            "tensorShape": { "dim": [{ "size": "4" }] }
                        }
                    }
                }
            },
            {
                "name": "StatefulPartitionedCall/split_55",
                "op": "Const",
                "attr": {
                    "dtype": { "type": "DT_FLOAT" },
                    "value": {
                        "tensor": {
                            "dtype": "DT_FLOAT",
                            "tensorShape": {
                                "dim": [
                                    { "size": "4" },
                                    { "size": "4" },
                                    { "size": "48" },
                                    { "size": "48" }
                                ]
                            }
                        }
                    }
                }
            },
            {
                "name": "StatefulPartitionedCall/conv2d_transpose/input_sizes",
                "op": "Const",
                "attr": {
                    "value": {
                        "tensor": {
                            "dtype": "DT_INT32",
                            "tensorShape": { "dim": [{ "size": "4" }] }
                        }
                    },
                    "dtype": { "type": "DT_INT32" }
                }
            },
            {
                "name": "StatefulPartitionedCall/split_53",
                "op": "Const",
                "attr": {
                    "value": {
                        "tensor": {
                            "dtype": "DT_FLOAT",
                            "tensorShape": {
                                "dim": [
                                    { "size": "4" },
                                    { "size": "4" },
                                    { "size": "72" },
                                    { "size": "72" }
                                ]
                            }
                        }
                    },
                    "dtype": { "type": "DT_FLOAT" }
                }
            },
            {
                "name": "ConstantFolding/StatefulPartitionedCall/onnx_tf_prefix_/_net/_base_network/_mobilenet/11/Div_2_recip",
                "op": "Const",
                "attr": {
                    "dtype": { "type": "DT_FLOAT" },
                    "value": {
                        "tensor": { "dtype": "DT_FLOAT", "tensorShape": {} }
                    }
                }
            },
            {
                "name": "ConstantFolding/StatefulPartitionedCall/split_48-folded-1",
                "op": "Const",
                "attr": {
                    "value": {
                        "tensor": {
                            "dtype": "DT_INT32",
                            "tensorShape": { "dim": [{ "size": "2" }] }
                        }
                    },
                    "dtype": { "type": "DT_INT32" }
                }
            },
            {
                "name": "StatefulPartitionedCall/transpose_154/perm",
                "op": "Const",
                "attr": {
                    "value": {
                        "tensor": {
                            "dtype": "DT_INT32",
                            "tensorShape": { "dim": [{ "size": "4" }] }
                        }
                    },
                    "dtype": { "type": "DT_INT32" }
                }
            },
            {
                "name": "StatefulPartitionedCall/split_49",
                "op": "Const",
                "attr": {
                    "dtype": { "type": "DT_FLOAT" },
                    "value": {
                        "tensor": {
                            "dtype": "DT_FLOAT",
                            "tensorShape": {
                                "dim": [
                                    { "size": "1" },
                                    { "size": "1" },
                                    { "size": "576" },
                                    { "size": "144" }
                                ]
                            }
                        }
                    }
                }
            },
            {
                "name": "unknown_116",
                "op": "Const",
                "attr": {
                    "value": {
                        "tensor": {
                            "dtype": "DT_FLOAT",
                            "tensorShape": { "dim": [{ "size": "144" }] }
                        }
                    },
                    "dtype": { "type": "DT_FLOAT" }
                }
            },
            {
                "name": "StatefulPartitionedCall/transpose_155/perm",
                "op": "Const",
                "attr": {
                    "value": {
                        "tensor": {
                            "dtype": "DT_INT32",
                            "tensorShape": { "dim": [{ "size": "4" }] }
                        }
                    },
                    "dtype": { "type": "DT_INT32" }
                }
            },
            {
                "name": "StatefulPartitionedCall/transpose_157/perm",
                "op": "Const",
                "attr": {
                    "dtype": { "type": "DT_INT32" },
                    "value": {
                        "tensor": {
                            "dtype": "DT_INT32",
                            "tensorShape": { "dim": [{ "size": "4" }] }
                        }
                    }
                }
            },
            {
                "name": "StatefulPartitionedCall/split_50",
                "op": "Const",
                "attr": {
                    "dtype": { "type": "DT_FLOAT" },
                    "value": {
                        "tensor": {
                            "dtype": "DT_FLOAT",
                            "tensorShape": {
                                "dim": [
                                    { "size": "1" },
                                    { "size": "1" },
                                    { "size": "144" },
                                    { "size": "576" }
                                ]
                            }
                        }
                    }
                }
            },
            {
                "name": "unknown_118",
                "op": "Const",
                "attr": {
                    "value": {
                        "tensor": {
                            "dtype": "DT_FLOAT",
                            "tensorShape": { "dim": [{ "size": "576" }] }
                        }
                    },
                    "dtype": { "type": "DT_FLOAT" }
                }
            },
            {
                "name": "StatefulPartitionedCall/transpose_158/perm",
                "op": "Const",
                "attr": {
                    "dtype": { "type": "DT_INT32" },
                    "value": {
                        "tensor": {
                            "dtype": "DT_INT32",
                            "tensorShape": { "dim": [{ "size": "4" }] }
                        }
                    }
                }
            },
            {
                "name": "ConstantFolding/StatefulPartitionedCall/onnx_tf_prefix_/_net/_base_network/_mobilenet/11/Div_1_recip",
                "op": "Const",
                "attr": {
                    "dtype": { "type": "DT_FLOAT" },
                    "value": {
                        "tensor": { "dtype": "DT_FLOAT", "tensorShape": {} }
                    }
                }
            },
            {
                "name": "ConstantFolding/StatefulPartitionedCall/onnx_tf_prefix_/_net/_base_network/_mobilenet/11/Div_recip",
                "op": "Const",
                "attr": {
                    "value": {
                        "tensor": { "dtype": "DT_FLOAT", "tensorShape": {} }
                    },
                    "dtype": { "type": "DT_FLOAT" }
                }
            },
            {
                "name": "StatefulPartitionedCall/transpose_148/perm",
                "op": "Const",
                "attr": {
                    "value": {
                        "tensor": {
                            "dtype": "DT_INT32",
                            "tensorShape": { "dim": [{ "size": "4" }] }
                        }
                    },
                    "dtype": { "type": "DT_INT32" }
                }
            },
            {
                "name": "StatefulPartitionedCall/split_47",
                "op": "Const",
                "attr": {
                    "value": {
                        "tensor": {
                            "dtype": "DT_FLOAT",
                            "tensorShape": {
                                "dim": [
                                    { "size": "1" },
                                    { "size": "1" },
                                    { "size": "96" },
                                    { "size": "576" }
                                ]
                            }
                        }
                    },
                    "dtype": { "type": "DT_FLOAT" }
                }
            },
            {
                "name": "unknown_112",
                "op": "Const",
                "attr": {
                    "value": {
                        "tensor": {
                            "dtype": "DT_FLOAT",
                            "tensorShape": { "dim": [{ "size": "576" }] }
                        }
                    },
                    "dtype": { "type": "DT_FLOAT" }
                }
            },
            {
                "name": "StatefulPartitionedCall/transpose_149/perm",
                "op": "Const",
                "attr": {
                    "value": {
                        "tensor": {
                            "dtype": "DT_INT32",
                            "tensorShape": { "dim": [{ "size": "4" }] }
                        }
                    },
                    "dtype": { "type": "DT_INT32" }
                }
            },
            {
                "name": "StatefulPartitionedCall/Const_14",
                "op": "Const",
                "attr": {
                    "dtype": { "type": "DT_INT32" },
                    "value": {
                        "tensor": {
                            "dtype": "DT_INT32",
                            "tensorShape": {
                                "dim": [{ "size": "4" }, { "size": "2" }]
                            }
                        }
                    }
                }
            },
            {
                "name": "StatefulPartitionedCall/transpose_151/perm",
                "op": "Const",
                "attr": {
                    "value": {
                        "tensor": {
                            "dtype": "DT_INT32",
                            "tensorShape": { "dim": [{ "size": "4" }] }
                        }
                    },
                    "dtype": { "type": "DT_INT32" }
                }
            },
            {
                "name": "StatefulPartitionedCall/Reshape_22",
                "op": "Const",
                "attr": {
                    "dtype": { "type": "DT_FLOAT" },
                    "value": {
                        "tensor": {
                            "dtype": "DT_FLOAT",
                            "tensorShape": {
                                "dim": [
                                    { "size": "5" },
                                    { "size": "5" },
                                    { "size": "576" },
                                    { "size": "1" }
                                ]
                            }
                        }
                    }
                }
            },
            {
                "name": "unknown_114",
                "op": "Const",
                "attr": {
                    "dtype": { "type": "DT_FLOAT" },
                    "value": {
                        "tensor": {
                            "dtype": "DT_FLOAT",
                            "tensorShape": { "dim": [{ "size": "576" }] }
                        }
                    }
                }
            },
            {
                "name": "StatefulPartitionedCall/transpose_152/perm",
                "op": "Const",
                "attr": {
                    "value": {
                        "tensor": {
                            "dtype": "DT_INT32",
                            "tensorShape": { "dim": [{ "size": "4" }] }
                        }
                    },
                    "dtype": { "type": "DT_INT32" }
                }
            },
            {
                "name": "StatefulPartitionedCall/transpose_160/perm",
                "op": "Const",
                "attr": {
                    "value": {
                        "tensor": {
                            "dtype": "DT_INT32",
                            "tensorShape": { "dim": [{ "size": "4" }] }
                        }
                    },
                    "dtype": { "type": "DT_INT32" }
                }
            },
            {
                "name": "StatefulPartitionedCall/split_51",
                "op": "Const",
                "attr": {
                    "value": {
                        "tensor": {
                            "dtype": "DT_FLOAT",
                            "tensorShape": {
                                "dim": [
                                    { "size": "1" },
                                    { "size": "1" },
                                    { "size": "576" },
                                    { "size": "96" }
                                ]
                            }
                        }
                    },
                    "dtype": { "type": "DT_FLOAT" }
                }
            },
            {
                "name": "unknown_120",
                "op": "Const",
                "attr": {
                    "dtype": { "type": "DT_FLOAT" },
                    "value": {
                        "tensor": {
                            "dtype": "DT_FLOAT",
                            "tensorShape": { "dim": [{ "size": "96" }] }
                        }
                    }
                }
            },
            {
                "name": "StatefulPartitionedCall/transpose_161/perm",
                "op": "Const",
                "attr": {
                    "dtype": { "type": "DT_INT32" },
                    "value": {
                        "tensor": {
                            "dtype": "DT_INT32",
                            "tensorShape": { "dim": [{ "size": "4" }] }
                        }
                    }
                }
            },
            {
                "name": "ConstantFolding/StatefulPartitionedCall/onnx_tf_prefix_/_net/_base_network/_mobilenet/10/block/2/scale_activation/Div_recip",
                "op": "Const",
                "attr": {
                    "value": {
                        "tensor": { "dtype": "DT_FLOAT", "tensorShape": {} }
                    },
                    "dtype": { "type": "DT_FLOAT" }
                }
            },
            {
                "name": "ConstantFolding/StatefulPartitionedCall/split_43-folded-1",
                "op": "Const",
                "attr": {
                    "dtype": { "type": "DT_INT32" },
                    "value": {
                        "tensor": {
                            "dtype": "DT_INT32",
                            "tensorShape": { "dim": [{ "size": "2" }] }
                        }
                    }
                }
            },
            {
                "name": "StatefulPartitionedCall/transpose_139/perm",
                "op": "Const",
                "attr": {
                    "value": {
                        "tensor": {
                            "dtype": "DT_INT32",
                            "tensorShape": { "dim": [{ "size": "4" }] }
                        }
                    },
                    "dtype": { "type": "DT_INT32" }
                }
            },
            {
                "name": "StatefulPartitionedCall/split_44",
                "op": "Const",
                "attr": {
                    "dtype": { "type": "DT_FLOAT" },
                    "value": {
                        "tensor": {
                            "dtype": "DT_FLOAT",
                            "tensorShape": {
                                "dim": [
                                    { "size": "1" },
                                    { "size": "1" },
                                    { "size": "576" },
                                    { "size": "144" }
                                ]
                            }
                        }
                    }
                }
            },
            {
                "name": "unknown_106",
                "op": "Const",
                "attr": {
                    "value": {
                        "tensor": {
                            "dtype": "DT_FLOAT",
                            "tensorShape": { "dim": [{ "size": "144" }] }
                        }
                    },
                    "dtype": { "type": "DT_FLOAT" }
                }
            },
            {
                "name": "StatefulPartitionedCall/transpose_140/perm",
                "op": "Const",
                "attr": {
                    "dtype": { "type": "DT_INT32" },
                    "value": {
                        "tensor": {
                            "dtype": "DT_INT32",
                            "tensorShape": { "dim": [{ "size": "4" }] }
                        }
                    }
                }
            },
            {
                "name": "StatefulPartitionedCall/transpose_142/perm",
                "op": "Const",
                "attr": {
                    "dtype": { "type": "DT_INT32" },
                    "value": {
                        "tensor": {
                            "dtype": "DT_INT32",
                            "tensorShape": { "dim": [{ "size": "4" }] }
                        }
                    }
                }
            },
            {
                "name": "StatefulPartitionedCall/split_45",
                "op": "Const",
                "attr": {
                    "value": {
                        "tensor": {
                            "dtype": "DT_FLOAT",
                            "tensorShape": {
                                "dim": [
                                    { "size": "1" },
                                    { "size": "1" },
                                    { "size": "144" },
                                    { "size": "576" }
                                ]
                            }
                        }
                    },
                    "dtype": { "type": "DT_FLOAT" }
                }
            },
            {
                "name": "unknown_108",
                "op": "Const",
                "attr": {
                    "value": {
                        "tensor": {
                            "dtype": "DT_FLOAT",
                            "tensorShape": { "dim": [{ "size": "576" }] }
                        }
                    },
                    "dtype": { "type": "DT_FLOAT" }
                }
            },
            {
                "name": "StatefulPartitionedCall/transpose_143/perm",
                "op": "Const",
                "attr": {
                    "dtype": { "type": "DT_INT32" },
                    "value": {
                        "tensor": {
                            "dtype": "DT_INT32",
                            "tensorShape": { "dim": [{ "size": "4" }] }
                        }
                    }
                }
            },
            {
                "name": "ConstantFolding/StatefulPartitionedCall/onnx_tf_prefix_/_net/_base_network/_mobilenet/10/block/1/2/Div_recip",
                "op": "Const",
                "attr": {
                    "value": {
                        "tensor": { "dtype": "DT_FLOAT", "tensorShape": {} }
                    },
                    "dtype": { "type": "DT_FLOAT" }
                }
            },
            {
                "name": "ConstantFolding/StatefulPartitionedCall/onnx_tf_prefix_/_net/_base_network/_mobilenet/10/block/0/2/Div_recip",
                "op": "Const",
                "attr": {
                    "value": {
                        "tensor": { "dtype": "DT_FLOAT", "tensorShape": {} }
                    },
                    "dtype": { "type": "DT_FLOAT" }
                }
            },
            {
                "name": "StatefulPartitionedCall/split_42",
                "op": "Const",
                "attr": {
                    "dtype": { "type": "DT_FLOAT" },
                    "value": {
                        "tensor": {
                            "dtype": "DT_FLOAT",
                            "tensorShape": {
                                "dim": [
                                    { "size": "1" },
                                    { "size": "1" },
                                    { "size": "96" },
                                    { "size": "576" }
                                ]
                            }
                        }
                    }
                }
            },
            {
                "name": "unknown_102",
                "op": "Const",
                "attr": {
                    "dtype": { "type": "DT_FLOAT" },
                    "value": {
                        "tensor": {
                            "dtype": "DT_FLOAT",
                            "tensorShape": { "dim": [{ "size": "576" }] }
                        }
                    }
                }
            },
            {
                "name": "StatefulPartitionedCall/transpose_134/perm",
                "op": "Const",
                "attr": {
                    "dtype": { "type": "DT_INT32" },
                    "value": {
                        "tensor": {
                            "dtype": "DT_INT32",
                            "tensorShape": { "dim": [{ "size": "4" }] }
                        }
                    }
                }
            },
            {
                "name": "StatefulPartitionedCall/Const_13",
                "op": "Const",
                "attr": {
                    "dtype": { "type": "DT_INT32" },
                    "value": {
                        "tensor": {
                            "dtype": "DT_INT32",
                            "tensorShape": {
                                "dim": [{ "size": "4" }, { "size": "2" }]
                            }
                        }
                    }
                }
            },
            {
                "name": "StatefulPartitionedCall/transpose_136/perm",
                "op": "Const",
                "attr": {
                    "value": {
                        "tensor": {
                            "dtype": "DT_INT32",
                            "tensorShape": { "dim": [{ "size": "4" }] }
                        }
                    },
                    "dtype": { "type": "DT_INT32" }
                }
            },
            {
                "name": "StatefulPartitionedCall/Reshape_21",
                "op": "Const",
                "attr": {
                    "dtype": { "type": "DT_FLOAT" },
                    "value": {
                        "tensor": {
                            "dtype": "DT_FLOAT",
                            "tensorShape": {
                                "dim": [
                                    { "size": "5" },
                                    { "size": "5" },
                                    { "size": "576" },
                                    { "size": "1" }
                                ]
                            }
                        }
                    }
                }
            },
            {
                "name": "unknown_104",
                "op": "Const",
                "attr": {
                    "value": {
                        "tensor": {
                            "dtype": "DT_FLOAT",
                            "tensorShape": { "dim": [{ "size": "576" }] }
                        }
                    },
                    "dtype": { "type": "DT_FLOAT" }
                }
            },
            {
                "name": "StatefulPartitionedCall/transpose_137/perm",
                "op": "Const",
                "attr": {
                    "value": {
                        "tensor": {
                            "dtype": "DT_INT32",
                            "tensorShape": { "dim": [{ "size": "4" }] }
                        }
                    },
                    "dtype": { "type": "DT_INT32" }
                }
            },
            {
                "name": "StatefulPartitionedCall/transpose_145/perm",
                "op": "Const",
                "attr": {
                    "value": {
                        "tensor": {
                            "dtype": "DT_INT32",
                            "tensorShape": { "dim": [{ "size": "4" }] }
                        }
                    },
                    "dtype": { "type": "DT_INT32" }
                }
            },
            {
                "name": "StatefulPartitionedCall/split_46",
                "op": "Const",
                "attr": {
                    "dtype": { "type": "DT_FLOAT" },
                    "value": {
                        "tensor": {
                            "dtype": "DT_FLOAT",
                            "tensorShape": {
                                "dim": [
                                    { "size": "1" },
                                    { "size": "1" },
                                    { "size": "576" },
                                    { "size": "96" }
                                ]
                            }
                        }
                    }
                }
            },
            {
                "name": "unknown_110",
                "op": "Const",
                "attr": {
                    "value": {
                        "tensor": {
                            "dtype": "DT_FLOAT",
                            "tensorShape": { "dim": [{ "size": "96" }] }
                        }
                    },
                    "dtype": { "type": "DT_FLOAT" }
                }
            },
            {
                "name": "StatefulPartitionedCall/transpose_146/perm",
                "op": "Const",
                "attr": {
                    "value": {
                        "tensor": {
                            "dtype": "DT_INT32",
                            "tensorShape": { "dim": [{ "size": "4" }] }
                        }
                    },
                    "dtype": { "type": "DT_INT32" }
                }
            },
            {
                "name": "ConstantFolding/StatefulPartitionedCall/onnx_tf_prefix_/_net/_base_network/_mobilenet/9/block/2/scale_activation/Div_recip",
                "op": "Const",
                "attr": {
                    "value": {
                        "tensor": { "dtype": "DT_FLOAT", "tensorShape": {} }
                    },
                    "dtype": { "type": "DT_FLOAT" }
                }
            },
            {
                "name": "ConstantFolding/StatefulPartitionedCall/split_38-folded-1",
                "op": "Const",
                "attr": {
                    "value": {
                        "tensor": {
                            "dtype": "DT_INT32",
                            "tensorShape": { "dim": [{ "size": "2" }] }
                        }
                    },
                    "dtype": { "type": "DT_INT32" }
                }
            },
            {
                "name": "StatefulPartitionedCall/transpose_124/perm",
                "op": "Const",
                "attr": {
                    "dtype": { "type": "DT_INT32" },
                    "value": {
                        "tensor": {
                            "dtype": "DT_INT32",
                            "tensorShape": { "dim": [{ "size": "4" }] }
                        }
                    }
                }
            },
            {
                "name": "StatefulPartitionedCall/split_39",
                "op": "Const",
                "attr": {
                    "value": {
                        "tensor": {
                            "dtype": "DT_FLOAT",
                            "tensorShape": {
                                "dim": [
                                    { "size": "1" },
                                    { "size": "1" },
                                    { "size": "288" },
                                    { "size": "72" }
                                ]
                            }
                        }
                    },
                    "dtype": { "type": "DT_FLOAT" }
                }
            },
            {
                "name": "unknown_96",
                "op": "Const",
                "attr": {
                    "dtype": { "type": "DT_FLOAT" },
                    "value": {
                        "tensor": {
                            "dtype": "DT_FLOAT",
                            "tensorShape": { "dim": [{ "size": "72" }] }
                        }
                    }
                }
            },
            {
                "name": "StatefulPartitionedCall/transpose_125/perm",
                "op": "Const",
                "attr": {
                    "value": {
                        "tensor": {
                            "dtype": "DT_INT32",
                            "tensorShape": { "dim": [{ "size": "4" }] }
                        }
                    },
                    "dtype": { "type": "DT_INT32" }
                }
            },
            {
                "name": "StatefulPartitionedCall/transpose_127/perm",
                "op": "Const",
                "attr": {
                    "value": {
                        "tensor": {
                            "dtype": "DT_INT32",
                            "tensorShape": { "dim": [{ "size": "4" }] }
                        }
                    },
                    "dtype": { "type": "DT_INT32" }
                }
            },
            {
                "name": "StatefulPartitionedCall/split_40",
                "op": "Const",
                "attr": {
                    "value": {
                        "tensor": {
                            "dtype": "DT_FLOAT",
                            "tensorShape": {
                                "dim": [
                                    { "size": "1" },
                                    { "size": "1" },
                                    { "size": "72" },
                                    { "size": "288" }
                                ]
                            }
                        }
                    },
                    "dtype": { "type": "DT_FLOAT" }
                }
            },
            {
                "name": "unknown_98",
                "op": "Const",
                "attr": {
                    "value": {
                        "tensor": {
                            "dtype": "DT_FLOAT",
                            "tensorShape": { "dim": [{ "size": "288" }] }
                        }
                    },
                    "dtype": { "type": "DT_FLOAT" }
                }
            },
            {
                "name": "StatefulPartitionedCall/transpose_128/perm",
                "op": "Const",
                "attr": {
                    "dtype": { "type": "DT_INT32" },
                    "value": {
                        "tensor": {
                            "dtype": "DT_INT32",
                            "tensorShape": { "dim": [{ "size": "4" }] }
                        }
                    }
                }
            },
            {
                "name": "ConstantFolding/StatefulPartitionedCall/onnx_tf_prefix_/_net/_base_network/_mobilenet/9/block/1/2/Div_recip",
                "op": "Const",
                "attr": {
                    "dtype": { "type": "DT_FLOAT" },
                    "value": {
                        "tensor": { "dtype": "DT_FLOAT", "tensorShape": {} }
                    }
                }
            },
            {
                "name": "ConstantFolding/StatefulPartitionedCall/onnx_tf_prefix_/_net/_base_network/_mobilenet/9/block/0/2/Div_recip",
                "op": "Const",
                "attr": {
                    "value": {
                        "tensor": { "dtype": "DT_FLOAT", "tensorShape": {} }
                    },
                    "dtype": { "type": "DT_FLOAT" }
                }
            },
            {
                "name": "StatefulPartitionedCall/transpose_115/perm",
                "op": "Const",
                "attr": {
                    "dtype": { "type": "DT_INT32" },
                    "value": {
                        "tensor": {
                            "dtype": "DT_INT32",
                            "tensorShape": { "dim": [{ "size": "4" }] }
                        }
                    }
                }
            },
            {
                "name": "StatefulPartitionedCall/split_36",
                "op": "Const",
                "attr": {
                    "dtype": { "type": "DT_FLOAT" },
                    "value": {
                        "tensor": {
                            "dtype": "DT_FLOAT",
                            "tensorShape": {
                                "dim": [
                                    { "size": "1" },
                                    { "size": "1" },
                                    { "size": "48" },
                                    { "size": "288" }
                                ]
                            }
                        }
                    }
                }
            },
            {
                "name": "unknown_87",
                "op": "Const",
                "attr": {
                    "dtype": { "type": "DT_FLOAT" },
                    "value": {
                        "tensor": {
                            "dtype": "DT_FLOAT",
                            "tensorShape": { "dim": [{ "size": "288" }] }
                        }
                    }
                }
            },
            {
                "name": "StatefulPartitionedCall/transpose_116/perm",
                "op": "Const",
                "attr": {
                    "dtype": { "type": "DT_INT32" },
                    "value": {
                        "tensor": {
                            "dtype": "DT_INT32",
                            "tensorShape": { "dim": [{ "size": "4" }] }
                        }
                    }
                }
            },
            {
                "name": "StatefulPartitionedCall/Const_12",
                "op": "Const",
                "attr": {
                    "value": {
                        "tensor": {
                            "dtype": "DT_INT32",
                            "tensorShape": {
                                "dim": [{ "size": "4" }, { "size": "2" }]
                            }
                        }
                    },
                    "dtype": { "type": "DT_INT32" }
                }
            },
            {
                "name": "StatefulPartitionedCall/transpose_121/perm",
                "op": "Const",
                "attr": {
                    "value": {
                        "tensor": {
                            "dtype": "DT_INT32",
                            "tensorShape": { "dim": [{ "size": "4" }] }
                        }
                    },
                    "dtype": { "type": "DT_INT32" }
                }
            },
            {
                "name": "StatefulPartitionedCall/Reshape_16",
                "op": "Const",
                "attr": {
                    "dtype": { "type": "DT_FLOAT" },
                    "value": {
                        "tensor": {
                            "dtype": "DT_FLOAT",
                            "tensorShape": {
                                "dim": [
                                    { "size": "5" },
                                    { "size": "5" },
                                    { "size": "288" },
                                    { "size": "1" }
                                ]
                            }
                        }
                    }
                }
            },
            {
                "name": "unknown_92",
                "op": "Const",
                "attr": {
                    "dtype": { "type": "DT_FLOAT" },
                    "value": {
                        "tensor": {
                            "dtype": "DT_FLOAT",
                            "tensorShape": { "dim": [{ "size": "288" }] }
                        }
                    }
                }
            },
            {
                "name": "StatefulPartitionedCall/transpose_122/perm",
                "op": "Const",
                "attr": {
                    "value": {
                        "tensor": {
                            "dtype": "DT_INT32",
                            "tensorShape": { "dim": [{ "size": "4" }] }
                        }
                    },
                    "dtype": { "type": "DT_INT32" }
                }
            },
            {
                "name": "StatefulPartitionedCall/transpose_130/perm",
                "op": "Const",
                "attr": {
                    "value": {
                        "tensor": {
                            "dtype": "DT_INT32",
                            "tensorShape": { "dim": [{ "size": "4" }] }
                        }
                    },
                    "dtype": { "type": "DT_INT32" }
                }
            },
            {
                "name": "StatefulPartitionedCall/split_41",
                "op": "Const",
                "attr": {
                    "dtype": { "type": "DT_FLOAT" },
                    "value": {
                        "tensor": {
                            "dtype": "DT_FLOAT",
                            "tensorShape": {
                                "dim": [
                                    { "size": "1" },
                                    { "size": "1" },
                                    { "size": "288" },
                                    { "size": "96" }
                                ]
                            }
                        }
                    }
                }
            },
            {
                "name": "unknown_100",
                "op": "Const",
                "attr": {
                    "dtype": { "type": "DT_FLOAT" },
                    "value": {
                        "tensor": {
                            "dtype": "DT_FLOAT",
                            "tensorShape": { "dim": [{ "size": "96" }] }
                        }
                    }
                }
            },
            {
                "name": "StatefulPartitionedCall/transpose_131/perm",
                "op": "Const",
                "attr": {
                    "value": {
                        "tensor": {
                            "dtype": "DT_INT32",
                            "tensorShape": { "dim": [{ "size": "4" }] }
                        }
                    },
                    "dtype": { "type": "DT_INT32" }
                }
            },
            {
                "name": "StatefulPartitionedCall/Const_15",
                "op": "Const",
                "attr": {
                    "dtype": { "type": "DT_INT32" },
                    "value": {
                        "tensor": {
                            "dtype": "DT_INT32",
                            "tensorShape": {
                                "dim": [{ "size": "4" }, { "size": "2" }]
                            }
                        }
                    }
                }
            },
            {
                "name": "StatefulPartitionedCall/transpose_163/perm",
                "op": "Const",
                "attr": {
                    "dtype": { "type": "DT_INT32" },
                    "value": {
                        "tensor": {
                            "dtype": "DT_INT32",
                            "tensorShape": { "dim": [{ "size": "4" }] }
                        }
                    }
                }
            },
            {
                "name": "StatefulPartitionedCall/split_52",
                "op": "Const",
                "attr": {
                    "value": {
                        "tensor": {
                            "dtype": "DT_FLOAT",
                            "tensorShape": {
                                "dim": [
                                    { "size": "3" },
                                    { "size": "3" },
                                    { "size": "96" },
                                    { "size": "72" }
                                ]
                            }
                        }
                    },
                    "dtype": { "type": "DT_FLOAT" }
                }
            },
            {
                "name": "unknown_122",
                "op": "Const",
                "attr": {
                    "dtype": { "type": "DT_FLOAT" },
                    "value": {
                        "tensor": {
                            "dtype": "DT_FLOAT",
                            "tensorShape": { "dim": [{ "size": "72" }] }
                        }
                    }
                }
            },
            {
                "name": "StatefulPartitionedCall/transpose_164/perm",
                "op": "Const",
                "attr": {
                    "value": {
                        "tensor": {
                            "dtype": "DT_INT32",
                            "tensorShape": { "dim": [{ "size": "4" }] }
                        }
                    },
                    "dtype": { "type": "DT_INT32" }
                }
            },
            {
                "name": "StatefulPartitionedCall/transpose_166/perm",
                "op": "Const",
                "attr": {
                    "value": {
                        "tensor": {
                            "dtype": "DT_INT32",
                            "tensorShape": { "dim": [{ "size": "4" }] }
                        }
                    },
                    "dtype": { "type": "DT_INT32" }
                }
            },
            {
                "name": "StatefulPartitionedCall/Slice/begin",
                "op": "Const",
                "attr": {
                    "dtype": { "type": "DT_INT32" },
                    "value": {
                        "tensor": {
                            "dtype": "DT_INT32",
                            "tensorShape": { "dim": [{ "size": "4" }] }
                        }
                    }
                }
            },
            {
                "name": "StatefulPartitionedCall/Slice/size",
                "op": "Const",
                "attr": {
                    "dtype": { "type": "DT_INT32" },
                    "value": {
                        "tensor": {
                            "dtype": "DT_INT32",
                            "tensorShape": { "dim": [{ "size": "4" }] }
                        }
                    }
                }
            },
            {
                "name": "StatefulPartitionedCall/transpose_167/perm",
                "op": "Const",
                "attr": {
                    "value": {
                        "tensor": {
                            "dtype": "DT_INT32",
                            "tensorShape": { "dim": [{ "size": "4" }] }
                        }
                    },
                    "dtype": { "type": "DT_INT32" }
                }
            },
            {
                "name": "StatefulPartitionedCall/onnx_tf_prefix_/_net/_base_network/_upconv1/4/BatchNormalization/mul",
                "op": "Const",
                "attr": {
                    "value": {
                        "tensor": {
                            "dtype": "DT_FLOAT",
                            "tensorShape": {
                                "dim": [
                                    { "size": "1" },
                                    { "size": "72" },
                                    { "size": "1" },
                                    { "size": "1" }
                                ]
                            }
                        }
                    },
                    "dtype": { "type": "DT_FLOAT" }
                }
            },
            {
                "name": "StatefulPartitionedCall/onnx_tf_prefix_/_net/_base_network/_upconv1/4/BatchNormalization/sub",
                "op": "Const",
                "attr": {
                    "dtype": { "type": "DT_FLOAT" },
                    "value": {
                        "tensor": {
                            "dtype": "DT_FLOAT",
                            "tensorShape": {
                                "dim": [
                                    { "size": "1" },
                                    { "size": "72" },
                                    { "size": "1" },
                                    { "size": "1" }
                                ]
                            }
                        }
                    }
                }
            },
            {
                "name": "StatefulPartitionedCall/Reshape_18",
                "op": "Const",
                "attr": {
                    "value": {
                        "tensor": {
                            "dtype": "DT_FLOAT",
                            "tensorShape": {
                                "dim": [
                                    { "size": "1" },
                                    { "size": "72" },
                                    { "size": "1" },
                                    { "size": "1" }
                                ]
                            }
                        }
                    },
                    "dtype": { "type": "DT_FLOAT" }
                }
            },
            {
                "name": "StatefulPartitionedCall/onnx_tf_prefix_/_net/_base_network/_transition_conv1/1/ReduceMean/reduction_indices",
                "op": "Const",
                "attr": {
                    "value": {
                        "tensor": {
                            "dtype": "DT_INT32",
                            "tensorShape": { "dim": [{ "size": "2" }] }
                        }
                    },
                    "dtype": { "type": "DT_INT32" }
                }
            },
            {
                "name": "StatefulPartitionedCall/Reshape_19/shape",
                "op": "Const",
                "attr": {
                    "value": {
                        "tensor": {
                            "dtype": "DT_INT32",
                            "tensorShape": { "dim": [{ "size": "4" }] }
                        }
                    },
                    "dtype": { "type": "DT_INT32" }
                }
            },
            {
                "name": "ConstantFolding/StatefulPartitionedCall/onnx_tf_prefix_/_net/_base_network/_mobilenet/8/block/2/scale_activation/Div_recip",
                "op": "Const",
                "attr": {
                    "dtype": { "type": "DT_FLOAT" },
                    "value": {
                        "tensor": { "dtype": "DT_FLOAT", "tensorShape": {} }
                    }
                }
            },
            {
                "name": "ConstantFolding/StatefulPartitionedCall/split_32-folded-1",
                "op": "Const",
                "attr": {
                    "value": {
                        "tensor": {
                            "dtype": "DT_INT32",
                            "tensorShape": { "dim": [{ "size": "2" }] }
                        }
                    },
                    "dtype": { "type": "DT_INT32" }
                }
            },
            {
                "name": "StatefulPartitionedCall/transpose_106/perm",
                "op": "Const",
                "attr": {
                    "dtype": { "type": "DT_INT32" },
                    "value": {
                        "tensor": {
                            "dtype": "DT_INT32",
                            "tensorShape": { "dim": [{ "size": "4" }] }
                        }
                    }
                }
            },
            {
                "name": "StatefulPartitionedCall/split_33",
                "op": "Const",
                "attr": {
                    "value": {
                        "tensor": {
                            "dtype": "DT_FLOAT",
                            "tensorShape": {
                                "dim": [
                                    { "size": "1" },
                                    { "size": "1" },
                                    { "size": "144" },
                                    { "size": "40" }
                                ]
                            }
                        }
                    },
                    "dtype": { "type": "DT_FLOAT" }
                }
            },
            {
                "name": "unknown_81",
                "op": "Const",
                "attr": {
                    "dtype": { "type": "DT_FLOAT" },
                    "value": {
                        "tensor": {
                            "dtype": "DT_FLOAT",
                            "tensorShape": { "dim": [{ "size": "40" }] }
                        }
                    }
                }
            },
            {
                "name": "StatefulPartitionedCall/transpose_107/perm",
                "op": "Const",
                "attr": {
                    "dtype": { "type": "DT_INT32" },
                    "value": {
                        "tensor": {
                            "dtype": "DT_INT32",
                            "tensorShape": { "dim": [{ "size": "4" }] }
                        }
                    }
                }
            },
            {
                "name": "StatefulPartitionedCall/transpose_109/perm",
                "op": "Const",
                "attr": {
                    "dtype": { "type": "DT_INT32" },
                    "value": {
                        "tensor": {
                            "dtype": "DT_INT32",
                            "tensorShape": { "dim": [{ "size": "4" }] }
                        }
                    }
                }
            },
            {
                "name": "StatefulPartitionedCall/split_34",
                "op": "Const",
                "attr": {
                    "value": {
                        "tensor": {
                            "dtype": "DT_FLOAT",
                            "tensorShape": {
                                "dim": [
                                    { "size": "1" },
                                    { "size": "1" },
                                    { "size": "40" },
                                    { "size": "144" }
                                ]
                            }
                        }
                    },
                    "dtype": { "type": "DT_FLOAT" }
                }
            },
            {
                "name": "unknown_83",
                "op": "Const",
                "attr": {
                    "value": {
                        "tensor": {
                            "dtype": "DT_FLOAT",
                            "tensorShape": { "dim": [{ "size": "144" }] }
                        }
                    },
                    "dtype": { "type": "DT_FLOAT" }
                }
            },
            {
                "name": "StatefulPartitionedCall/transpose_110/perm",
                "op": "Const",
                "attr": {
                    "value": {
                        "tensor": {
                            "dtype": "DT_INT32",
                            "tensorShape": { "dim": [{ "size": "4" }] }
                        }
                    },
                    "dtype": { "type": "DT_INT32" }
                }
            },
            {
                "name": "ConstantFolding/StatefulPartitionedCall/onnx_tf_prefix_/_net/_base_network/_mobilenet/8/block/1/2/Div_recip",
                "op": "Const",
                "attr": {
                    "dtype": { "type": "DT_FLOAT" },
                    "value": {
                        "tensor": { "dtype": "DT_FLOAT", "tensorShape": {} }
                    }
                }
            },
            {
                "name": "ConstantFolding/StatefulPartitionedCall/onnx_tf_prefix_/_net/_base_network/_mobilenet/8/block/0/2/Div_recip",
                "op": "Const",
                "attr": {
                    "dtype": { "type": "DT_FLOAT" },
                    "value": {
                        "tensor": { "dtype": "DT_FLOAT", "tensorShape": {} }
                    }
                }
            },
            {
                "name": "StatefulPartitionedCall/split_31",
                "op": "Const",
                "attr": {
                    "value": {
                        "tensor": {
                            "dtype": "DT_FLOAT",
                            "tensorShape": {
                                "dim": [
                                    { "size": "1" },
                                    { "size": "1" },
                                    { "size": "48" },
                                    { "size": "144" }
                                ]
                            }
                        }
                    },
                    "dtype": { "type": "DT_FLOAT" }
                }
            },
            {
                "name": "unknown_77",
                "op": "Const",
                "attr": {
                    "dtype": { "type": "DT_FLOAT" },
                    "value": {
                        "tensor": {
                            "dtype": "DT_FLOAT",
                            "tensorShape": { "dim": [{ "size": "144" }] }
                        }
                    }
                }
            },
            {
                "name": "StatefulPartitionedCall/transpose_101/perm",
                "op": "Const",
                "attr": {
                    "value": {
                        "tensor": {
                            "dtype": "DT_INT32",
                            "tensorShape": { "dim": [{ "size": "4" }] }
                        }
                    },
                    "dtype": { "type": "DT_INT32" }
                }
            },
            {
                "name": "StatefulPartitionedCall/Const_10",
                "op": "Const",
                "attr": {
                    "value": {
                        "tensor": {
                            "dtype": "DT_INT32",
                            "tensorShape": {
                                "dim": [{ "size": "4" }, { "size": "2" }]
                            }
                        }
                    },
                    "dtype": { "type": "DT_INT32" }
                }
            },
            {
                "name": "StatefulPartitionedCall/transpose_103/perm",
                "op": "Const",
                "attr": {
                    "value": {
                        "tensor": {
                            "dtype": "DT_INT32",
                            "tensorShape": { "dim": [{ "size": "4" }] }
                        }
                    },
                    "dtype": { "type": "DT_INT32" }
                }
            },
            {
                "name": "StatefulPartitionedCall/Reshape_15",
                "op": "Const",
                "attr": {
                    "dtype": { "type": "DT_FLOAT" },
                    "value": {
                        "tensor": {
                            "dtype": "DT_FLOAT",
                            "tensorShape": {
                                "dim": [
                                    { "size": "5" },
                                    { "size": "5" },
                                    { "size": "144" },
                                    { "size": "1" }
                                ]
                            }
                        }
                    }
                }
            },
            {
                "name": "unknown_79",
                "op": "Const",
                "attr": {
                    "dtype": { "type": "DT_FLOAT" },
                    "value": {
                        "tensor": {
                            "dtype": "DT_FLOAT",
                            "tensorShape": { "dim": [{ "size": "144" }] }
                        }
                    }
                }
            },
            {
                "name": "StatefulPartitionedCall/transpose_104/perm",
                "op": "Const",
                "attr": {
                    "dtype": { "type": "DT_INT32" },
                    "value": {
                        "tensor": {
                            "dtype": "DT_INT32",
                            "tensorShape": { "dim": [{ "size": "4" }] }
                        }
                    }
                }
            },
            {
                "name": "StatefulPartitionedCall/transpose_112/perm",
                "op": "Const",
                "attr": {
                    "value": {
                        "tensor": {
                            "dtype": "DT_INT32",
                            "tensorShape": { "dim": [{ "size": "4" }] }
                        }
                    },
                    "dtype": { "type": "DT_INT32" }
                }
            },
            {
                "name": "StatefulPartitionedCall/split_35",
                "op": "Const",
                "attr": {
                    "value": {
                        "tensor": {
                            "dtype": "DT_FLOAT",
                            "tensorShape": {
                                "dim": [
                                    { "size": "1" },
                                    { "size": "1" },
                                    { "size": "144" },
                                    { "size": "48" }
                                ]
                            }
                        }
                    },
                    "dtype": { "type": "DT_FLOAT" }
                }
            },
            {
                "name": "unknown_85",
                "op": "Const",
                "attr": {
                    "dtype": { "type": "DT_FLOAT" },
                    "value": {
                        "tensor": {
                            "dtype": "DT_FLOAT",
                            "tensorShape": { "dim": [{ "size": "48" }] }
                        }
                    }
                }
            },
            {
                "name": "StatefulPartitionedCall/transpose_113/perm",
                "op": "Const",
                "attr": {
                    "dtype": { "type": "DT_INT32" },
                    "value": {
                        "tensor": {
                            "dtype": "DT_INT32",
                            "tensorShape": { "dim": [{ "size": "4" }] }
                        }
                    }
                }
            },
            {
                "name": "ConstantFolding/StatefulPartitionedCall/onnx_tf_prefix_/_net/_base_network/_mobilenet/7/block/2/scale_activation/Div_recip",
                "op": "Const",
                "attr": {
                    "dtype": { "type": "DT_FLOAT" },
                    "value": {
                        "tensor": { "dtype": "DT_FLOAT", "tensorShape": {} }
                    }
                }
            },
            {
                "name": "ConstantFolding/StatefulPartitionedCall/split_27-folded-1",
                "op": "Const",
                "attr": {
                    "dtype": { "type": "DT_INT32" },
                    "value": {
                        "tensor": {
                            "dtype": "DT_INT32",
                            "tensorShape": { "dim": [{ "size": "2" }] }
                        }
                    }
                }
            },
            {
                "name": "StatefulPartitionedCall/transpose_91/perm",
                "op": "Const",
                "attr": {
                    "value": {
                        "tensor": {
                            "dtype": "DT_INT32",
                            "tensorShape": { "dim": [{ "size": "4" }] }
                        }
                    },
                    "dtype": { "type": "DT_INT32" }
                }
            },
            {
                "name": "StatefulPartitionedCall/split_28",
                "op": "Const",
                "attr": {
                    "value": {
                        "tensor": {
                            "dtype": "DT_FLOAT",
                            "tensorShape": {
                                "dim": [
                                    { "size": "1" },
                                    { "size": "1" },
                                    { "size": "120" },
                                    { "size": "32" }
                                ]
                            }
                        }
                    },
                    "dtype": { "type": "DT_FLOAT" }
                }
            },
            {
                "name": "unknown_71",
                "op": "Const",
                "attr": {
                    "value": {
                        "tensor": {
                            "dtype": "DT_FLOAT",
                            "tensorShape": { "dim": [{ "size": "32" }] }
                        }
                    },
                    "dtype": { "type": "DT_FLOAT" }
                }
            },
            {
                "name": "StatefulPartitionedCall/transpose_92/perm",
                "op": "Const",
                "attr": {
                    "dtype": { "type": "DT_INT32" },
                    "value": {
                        "tensor": {
                            "dtype": "DT_INT32",
                            "tensorShape": { "dim": [{ "size": "4" }] }
                        }
                    }
                }
            },
            {
                "name": "StatefulPartitionedCall/transpose_94/perm",
                "op": "Const",
                "attr": {
                    "dtype": { "type": "DT_INT32" },
                    "value": {
                        "tensor": {
                            "dtype": "DT_INT32",
                            "tensorShape": { "dim": [{ "size": "4" }] }
                        }
                    }
                }
            },
            {
                "name": "StatefulPartitionedCall/split_29",
                "op": "Const",
                "attr": {
                    "value": {
                        "tensor": {
                            "dtype": "DT_FLOAT",
                            "tensorShape": {
                                "dim": [
                                    { "size": "1" },
                                    { "size": "1" },
                                    { "size": "32" },
                                    { "size": "120" }
                                ]
                            }
                        }
                    },
                    "dtype": { "type": "DT_FLOAT" }
                }
            },
            {
                "name": "unknown_73",
                "op": "Const",
                "attr": {
                    "value": {
                        "tensor": {
                            "dtype": "DT_FLOAT",
                            "tensorShape": { "dim": [{ "size": "120" }] }
                        }
                    },
                    "dtype": { "type": "DT_FLOAT" }
                }
            },
            {
                "name": "StatefulPartitionedCall/transpose_95/perm",
                "op": "Const",
                "attr": {
                    "value": {
                        "tensor": {
                            "dtype": "DT_INT32",
                            "tensorShape": { "dim": [{ "size": "4" }] }
                        }
                    },
                    "dtype": { "type": "DT_INT32" }
                }
            },
            {
                "name": "ConstantFolding/StatefulPartitionedCall/onnx_tf_prefix_/_net/_base_network/_mobilenet/7/block/1/2/Div_recip",
                "op": "Const",
                "attr": {
                    "dtype": { "type": "DT_FLOAT" },
                    "value": {
                        "tensor": { "dtype": "DT_FLOAT", "tensorShape": {} }
                    }
                }
            },
            {
                "name": "ConstantFolding/StatefulPartitionedCall/onnx_tf_prefix_/_net/_base_network/_mobilenet/7/block/0/2/Div_recip",
                "op": "Const",
                "attr": {
                    "value": {
                        "tensor": { "dtype": "DT_FLOAT", "tensorShape": {} }
                    },
                    "dtype": { "type": "DT_FLOAT" }
                }
            },
            {
                "name": "ConstantFolding/StatefulPartitionedCall/onnx_tf_prefix_/_net/_base_network/_mobilenet/6/Div_2_recip",
                "op": "Const",
                "attr": {
                    "value": {
                        "tensor": { "dtype": "DT_FLOAT", "tensorShape": {} }
                    },
                    "dtype": { "type": "DT_FLOAT" }
                }
            },
            {
                "name": "ConstantFolding/StatefulPartitionedCall/split_22-folded-1",
                "op": "Const",
                "attr": {
                    "dtype": { "type": "DT_INT32" },
                    "value": {
                        "tensor": {
                            "dtype": "DT_INT32",
                            "tensorShape": { "dim": [{ "size": "2" }] }
                        }
                    }
                }
            },
            {
                "name": "StatefulPartitionedCall/transpose_76/perm",
                "op": "Const",
                "attr": {
                    "dtype": { "type": "DT_INT32" },
                    "value": {
                        "tensor": {
                            "dtype": "DT_INT32",
                            "tensorShape": { "dim": [{ "size": "4" }] }
                        }
                    }
                }
            },
            {
                "name": "StatefulPartitionedCall/split_23",
                "op": "Const",
                "attr": {
                    "dtype": { "type": "DT_FLOAT" },
                    "value": {
                        "tensor": {
                            "dtype": "DT_FLOAT",
                            "tensorShape": {
                                "dim": [
                                    { "size": "1" },
                                    { "size": "1" },
                                    { "size": "240" },
                                    { "size": "64" }
                                ]
                            }
                        }
                    }
                }
            },
            {
                "name": "unknown_61",
                "op": "Const",
                "attr": {
                    "value": {
                        "tensor": {
                            "dtype": "DT_FLOAT",
                            "tensorShape": { "dim": [{ "size": "64" }] }
                        }
                    },
                    "dtype": { "type": "DT_FLOAT" }
                }
            },
            {
                "name": "StatefulPartitionedCall/transpose_77/perm",
                "op": "Const",
                "attr": {
                    "value": {
                        "tensor": {
                            "dtype": "DT_INT32",
                            "tensorShape": { "dim": [{ "size": "4" }] }
                        }
                    },
                    "dtype": { "type": "DT_INT32" }
                }
            },
            {
                "name": "StatefulPartitionedCall/transpose_79/perm",
                "op": "Const",
                "attr": {
                    "dtype": { "type": "DT_INT32" },
                    "value": {
                        "tensor": {
                            "dtype": "DT_INT32",
                            "tensorShape": { "dim": [{ "size": "4" }] }
                        }
                    }
                }
            },
            {
                "name": "StatefulPartitionedCall/split_24",
                "op": "Const",
                "attr": {
                    "dtype": { "type": "DT_FLOAT" },
                    "value": {
                        "tensor": {
                            "dtype": "DT_FLOAT",
                            "tensorShape": {
                                "dim": [
                                    { "size": "1" },
                                    { "size": "1" },
                                    { "size": "64" },
                                    { "size": "240" }
                                ]
                            }
                        }
                    }
                }
            },
            {
                "name": "unknown_63",
                "op": "Const",
                "attr": {
                    "dtype": { "type": "DT_FLOAT" },
                    "value": {
                        "tensor": {
                            "dtype": "DT_FLOAT",
                            "tensorShape": { "dim": [{ "size": "240" }] }
                        }
                    }
                }
            },
            {
                "name": "StatefulPartitionedCall/transpose_80/perm",
                "op": "Const",
                "attr": {
                    "value": {
                        "tensor": {
                            "dtype": "DT_INT32",
                            "tensorShape": { "dim": [{ "size": "4" }] }
                        }
                    },
                    "dtype": { "type": "DT_INT32" }
                }
            },
            {
                "name": "ConstantFolding/StatefulPartitionedCall/onnx_tf_prefix_/_net/_base_network/_mobilenet/6/Div_1_recip",
                "op": "Const",
                "attr": {
                    "dtype": { "type": "DT_FLOAT" },
                    "value": {
                        "tensor": { "dtype": "DT_FLOAT", "tensorShape": {} }
                    }
                }
            },
            {
                "name": "ConstantFolding/StatefulPartitionedCall/onnx_tf_prefix_/_net/_base_network/_mobilenet/6/Div_recip",
                "op": "Const",
                "attr": {
                    "value": {
                        "tensor": { "dtype": "DT_FLOAT", "tensorShape": {} }
                    },
                    "dtype": { "type": "DT_FLOAT" }
                }
            },
            {
                "name": "StatefulPartitionedCall/transpose_70/perm",
                "op": "Const",
                "attr": {
                    "value": {
                        "tensor": {
                            "dtype": "DT_INT32",
                            "tensorShape": { "dim": [{ "size": "4" }] }
                        }
                    },
                    "dtype": { "type": "DT_INT32" }
                }
            },
            {
                "name": "StatefulPartitionedCall/split_21",
                "op": "Const",
                "attr": {
                    "value": {
                        "tensor": {
                            "dtype": "DT_FLOAT",
                            "tensorShape": {
                                "dim": [
                                    { "size": "1" },
                                    { "size": "1" },
                                    { "size": "40" },
                                    { "size": "240" }
                                ]
                            }
                        }
                    },
                    "dtype": { "type": "DT_FLOAT" }
                }
            },
            {
                "name": "unknown_57",
                "op": "Const",
                "attr": {
                    "value": {
                        "tensor": {
                            "dtype": "DT_FLOAT",
                            "tensorShape": { "dim": [{ "size": "240" }] }
                        }
                    },
                    "dtype": { "type": "DT_FLOAT" }
                }
            },
            {
                "name": "StatefulPartitionedCall/transpose_71/perm",
                "op": "Const",
                "attr": {
                    "value": {
                        "tensor": {
                            "dtype": "DT_INT32",
                            "tensorShape": { "dim": [{ "size": "4" }] }
                        }
                    },
                    "dtype": { "type": "DT_INT32" }
                }
            },
            {
                "name": "StatefulPartitionedCall/Const_8",
                "op": "Const",
                "attr": {
                    "value": {
                        "tensor": {
                            "dtype": "DT_INT32",
                            "tensorShape": {
                                "dim": [{ "size": "4" }, { "size": "2" }]
                            }
                        }
                    },
                    "dtype": { "type": "DT_INT32" }
                }
            },
            {
                "name": "StatefulPartitionedCall/transpose_73/perm",
                "op": "Const",
                "attr": {
                    "value": {
                        "tensor": {
                            "dtype": "DT_INT32",
                            "tensorShape": { "dim": [{ "size": "4" }] }
                        }
                    },
                    "dtype": { "type": "DT_INT32" }
                }
            },
            {
                "name": "StatefulPartitionedCall/Reshape_13",
                "op": "Const",
                "attr": {
                    "value": {
                        "tensor": {
                            "dtype": "DT_FLOAT",
                            "tensorShape": {
                                "dim": [
                                    { "size": "5" },
                                    { "size": "5" },
                                    { "size": "240" },
                                    { "size": "1" }
                                ]
                            }
                        }
                    },
                    "dtype": { "type": "DT_FLOAT" }
                }
            },
            {
                "name": "unknown_59",
                "op": "Const",
                "attr": {
                    "value": {
                        "tensor": {
                            "dtype": "DT_FLOAT",
                            "tensorShape": { "dim": [{ "size": "240" }] }
                        }
                    },
                    "dtype": { "type": "DT_FLOAT" }
                }
            },
            {
                "name": "StatefulPartitionedCall/transpose_74/perm",
                "op": "Const",
                "attr": {
                    "value": {
                        "tensor": {
                            "dtype": "DT_INT32",
                            "tensorShape": { "dim": [{ "size": "4" }] }
                        }
                    },
                    "dtype": { "type": "DT_INT32" }
                }
            },
            {
                "name": "StatefulPartitionedCall/transpose_82/perm",
                "op": "Const",
                "attr": {
                    "dtype": { "type": "DT_INT32" },
                    "value": {
                        "tensor": {
                            "dtype": "DT_INT32",
                            "tensorShape": { "dim": [{ "size": "4" }] }
                        }
                    }
                }
            },
            {
                "name": "StatefulPartitionedCall/split_25",
                "op": "Const",
                "attr": {
                    "value": {
                        "tensor": {
                            "dtype": "DT_FLOAT",
                            "tensorShape": {
                                "dim": [
                                    { "size": "1" },
                                    { "size": "1" },
                                    { "size": "240" },
                                    { "size": "40" }
                                ]
                            }
                        }
                    },
                    "dtype": { "type": "DT_FLOAT" }
                }
            },
            {
                "name": "unknown_65",
                "op": "Const",
                "attr": {
                    "value": {
                        "tensor": {
                            "dtype": "DT_FLOAT",
                            "tensorShape": { "dim": [{ "size": "40" }] }
                        }
                    },
                    "dtype": { "type": "DT_FLOAT" }
                }
            },
            {
                "name": "StatefulPartitionedCall/transpose_83/perm",
                "op": "Const",
                "attr": {
                    "value": {
                        "tensor": {
                            "dtype": "DT_INT32",
                            "tensorShape": { "dim": [{ "size": "4" }] }
                        }
                    },
                    "dtype": { "type": "DT_INT32" }
                }
            },
            {
                "name": "ConstantFolding/StatefulPartitionedCall/onnx_tf_prefix_/_net/_base_network/_mobilenet/5/block/2/scale_activation/Div_recip",
                "op": "Const",
                "attr": {
                    "dtype": { "type": "DT_FLOAT" },
                    "value": {
                        "tensor": { "dtype": "DT_FLOAT", "tensorShape": {} }
                    }
                }
            },
            {
                "name": "ConstantFolding/StatefulPartitionedCall/split_17-folded-1",
                "op": "Const",
                "attr": {
                    "dtype": { "type": "DT_INT32" },
                    "value": {
                        "tensor": {
                            "dtype": "DT_INT32",
                            "tensorShape": { "dim": [{ "size": "2" }] }
                        }
                    }
                }
            },
            {
                "name": "StatefulPartitionedCall/transpose_61/perm",
                "op": "Const",
                "attr": {
                    "dtype": { "type": "DT_INT32" },
                    "value": {
                        "tensor": {
                            "dtype": "DT_INT32",
                            "tensorShape": { "dim": [{ "size": "4" }] }
                        }
                    }
                }
            },
            {
                "name": "StatefulPartitionedCall/split_18",
                "op": "Const",
                "attr": {
                    "dtype": { "type": "DT_FLOAT" },
                    "value": {
                        "tensor": {
                            "dtype": "DT_FLOAT",
                            "tensorShape": {
                                "dim": [
                                    { "size": "1" },
                                    { "size": "1" },
                                    { "size": "240" },
                                    { "size": "64" }
                                ]
                            }
                        }
                    }
                }
            },
            {
                "name": "unknown_51",
                "op": "Const",
                "attr": {
                    "value": {
                        "tensor": {
                            "dtype": "DT_FLOAT",
                            "tensorShape": { "dim": [{ "size": "64" }] }
                        }
                    },
                    "dtype": { "type": "DT_FLOAT" }
                }
            },
            {
                "name": "StatefulPartitionedCall/transpose_62/perm",
                "op": "Const",
                "attr": {
                    "value": {
                        "tensor": {
                            "dtype": "DT_INT32",
                            "tensorShape": { "dim": [{ "size": "4" }] }
                        }
                    },
                    "dtype": { "type": "DT_INT32" }
                }
            },
            {
                "name": "StatefulPartitionedCall/transpose_64/perm",
                "op": "Const",
                "attr": {
                    "dtype": { "type": "DT_INT32" },
                    "value": {
                        "tensor": {
                            "dtype": "DT_INT32",
                            "tensorShape": { "dim": [{ "size": "4" }] }
                        }
                    }
                }
            },
            {
                "name": "StatefulPartitionedCall/split_19",
                "op": "Const",
                "attr": {
                    "dtype": { "type": "DT_FLOAT" },
                    "value": {
                        "tensor": {
                            "dtype": "DT_FLOAT",
                            "tensorShape": {
                                "dim": [
                                    { "size": "1" },
                                    { "size": "1" },
                                    { "size": "64" },
                                    { "size": "240" }
                                ]
                            }
                        }
                    }
                }
            },
            {
                "name": "unknown_53",
                "op": "Const",
                "attr": {
                    "value": {
                        "tensor": {
                            "dtype": "DT_FLOAT",
                            "tensorShape": { "dim": [{ "size": "240" }] }
                        }
                    },
                    "dtype": { "type": "DT_FLOAT" }
                }
            },
            {
                "name": "StatefulPartitionedCall/transpose_65/perm",
                "op": "Const",
                "attr": {
                    "value": {
                        "tensor": {
                            "dtype": "DT_INT32",
                            "tensorShape": { "dim": [{ "size": "4" }] }
                        }
                    },
                    "dtype": { "type": "DT_INT32" }
                }
            },
            {
                "name": "ConstantFolding/StatefulPartitionedCall/onnx_tf_prefix_/_net/_base_network/_mobilenet/5/block/1/2/Div_recip",
                "op": "Const",
                "attr": {
                    "value": {
                        "tensor": { "dtype": "DT_FLOAT", "tensorShape": {} }
                    },
                    "dtype": { "type": "DT_FLOAT" }
                }
            },
            {
                "name": "ConstantFolding/StatefulPartitionedCall/onnx_tf_prefix_/_net/_base_network/_mobilenet/5/block/0/2/Div_recip",
                "op": "Const",
                "attr": {
                    "value": {
                        "tensor": { "dtype": "DT_FLOAT", "tensorShape": {} }
                    },
                    "dtype": { "type": "DT_FLOAT" }
                }
            },
            {
                "name": "StatefulPartitionedCall/split_16",
                "op": "Const",
                "attr": {
                    "value": {
                        "tensor": {
                            "dtype": "DT_FLOAT",
                            "tensorShape": {
                                "dim": [
                                    { "size": "1" },
                                    { "size": "1" },
                                    { "size": "40" },
                                    { "size": "240" }
                                ]
                            }
                        }
                    },
                    "dtype": { "type": "DT_FLOAT" }
                }
            },
            {
                "name": "unknown_47",
                "op": "Const",
                "attr": {
                    "value": {
                        "tensor": {
                            "dtype": "DT_FLOAT",
                            "tensorShape": { "dim": [{ "size": "240" }] }
                        }
                    },
                    "dtype": { "type": "DT_FLOAT" }
                }
            },
            {
                "name": "StatefulPartitionedCall/transpose_56/perm",
                "op": "Const",
                "attr": {
                    "value": {
                        "tensor": {
                            "dtype": "DT_INT32",
                            "tensorShape": { "dim": [{ "size": "4" }] }
                        }
                    },
                    "dtype": { "type": "DT_INT32" }
                }
            },
            {
                "name": "StatefulPartitionedCall/Const_7",
                "op": "Const",
                "attr": {
                    "value": {
                        "tensor": {
                            "dtype": "DT_INT32",
                            "tensorShape": {
                                "dim": [{ "size": "4" }, { "size": "2" }]
                            }
                        }
                    },
                    "dtype": { "type": "DT_INT32" }
                }
            },
            {
                "name": "StatefulPartitionedCall/transpose_58/perm",
                "op": "Const",
                "attr": {
                    "dtype": { "type": "DT_INT32" },
                    "value": {
                        "tensor": {
                            "dtype": "DT_INT32",
                            "tensorShape": { "dim": [{ "size": "4" }] }
                        }
                    }
                }
            },
            {
                "name": "StatefulPartitionedCall/Reshape_12",
                "op": "Const",
                "attr": {
                    "dtype": { "type": "DT_FLOAT" },
                    "value": {
                        "tensor": {
                            "dtype": "DT_FLOAT",
                            "tensorShape": {
                                "dim": [
                                    { "size": "5" },
                                    { "size": "5" },
                                    { "size": "240" },
                                    { "size": "1" }
                                ]
                            }
                        }
                    }
                }
            },
            {
                "name": "unknown_49",
                "op": "Const",
                "attr": {
                    "value": {
                        "tensor": {
                            "dtype": "DT_FLOAT",
                            "tensorShape": { "dim": [{ "size": "240" }] }
                        }
                    },
                    "dtype": { "type": "DT_FLOAT" }
                }
            },
            {
                "name": "StatefulPartitionedCall/transpose_59/perm",
                "op": "Const",
                "attr": {
                    "value": {
                        "tensor": {
                            "dtype": "DT_INT32",
                            "tensorShape": { "dim": [{ "size": "4" }] }
                        }
                    },
                    "dtype": { "type": "DT_INT32" }
                }
            },
            {
                "name": "StatefulPartitionedCall/transpose_67/perm",
                "op": "Const",
                "attr": {
                    "dtype": { "type": "DT_INT32" },
                    "value": {
                        "tensor": {
                            "dtype": "DT_INT32",
                            "tensorShape": { "dim": [{ "size": "4" }] }
                        }
                    }
                }
            },
            {
                "name": "StatefulPartitionedCall/split_20",
                "op": "Const",
                "attr": {
                    "value": {
                        "tensor": {
                            "dtype": "DT_FLOAT",
                            "tensorShape": {
                                "dim": [
                                    { "size": "1" },
                                    { "size": "1" },
                                    { "size": "240" },
                                    { "size": "40" }
                                ]
                            }
                        }
                    },
                    "dtype": { "type": "DT_FLOAT" }
                }
            },
            {
                "name": "unknown_55",
                "op": "Const",
                "attr": {
                    "dtype": { "type": "DT_FLOAT" },
                    "value": {
                        "tensor": {
                            "dtype": "DT_FLOAT",
                            "tensorShape": { "dim": [{ "size": "40" }] }
                        }
                    }
                }
            },
            {
                "name": "StatefulPartitionedCall/transpose_68/perm",
                "op": "Const",
                "attr": {
                    "dtype": { "type": "DT_INT32" },
                    "value": {
                        "tensor": {
                            "dtype": "DT_INT32",
                            "tensorShape": { "dim": [{ "size": "4" }] }
                        }
                    }
                }
            },
            {
                "name": "ConstantFolding/StatefulPartitionedCall/onnx_tf_prefix_/_net/_base_network/_mobilenet/4/block/2/scale_activation/Div_recip",
                "op": "Const",
                "attr": {
                    "value": {
                        "tensor": { "dtype": "DT_FLOAT", "tensorShape": {} }
                    },
                    "dtype": { "type": "DT_FLOAT" }
                }
            },
            {
                "name": "ConstantFolding/StatefulPartitionedCall/split_12-folded-1",
                "op": "Const",
                "attr": {
                    "dtype": { "type": "DT_INT32" },
                    "value": {
                        "tensor": {
                            "dtype": "DT_INT32",
                            "tensorShape": { "dim": [{ "size": "2" }] }
                        }
                    }
                }
            },
            {
                "name": "StatefulPartitionedCall/transpose_46/perm",
                "op": "Const",
                "attr": {
                    "value": {
                        "tensor": {
                            "dtype": "DT_INT32",
                            "tensorShape": { "dim": [{ "size": "4" }] }
                        }
                    },
                    "dtype": { "type": "DT_INT32" }
                }
            },
            {
                "name": "StatefulPartitionedCall/split_13",
                "op": "Const",
                "attr": {
                    "dtype": { "type": "DT_FLOAT" },
                    "value": {
                        "tensor": {
                            "dtype": "DT_FLOAT",
                            "tensorShape": {
                                "dim": [
                                    { "size": "1" },
                                    { "size": "1" },
                                    { "size": "96" },
                                    { "size": "24" }
                                ]
                            }
                        }
                    }
                }
            },
            {
                "name": "unknown_41",
                "op": "Const",
                "attr": {
                    "value": {
                        "tensor": {
                            "dtype": "DT_FLOAT",
                            "tensorShape": { "dim": [{ "size": "24" }] }
                        }
                    },
                    "dtype": { "type": "DT_FLOAT" }
                }
            },
            {
                "name": "StatefulPartitionedCall/transpose_47/perm",
                "op": "Const",
                "attr": {
                    "value": {
                        "tensor": {
                            "dtype": "DT_INT32",
                            "tensorShape": { "dim": [{ "size": "4" }] }
                        }
                    },
                    "dtype": { "type": "DT_INT32" }
                }
            },
            {
                "name": "StatefulPartitionedCall/transpose_49/perm",
                "op": "Const",
                "attr": {
                    "dtype": { "type": "DT_INT32" },
                    "value": {
                        "tensor": {
                            "dtype": "DT_INT32",
                            "tensorShape": { "dim": [{ "size": "4" }] }
                        }
                    }
                }
            },
            {
                "name": "StatefulPartitionedCall/split_14",
                "op": "Const",
                "attr": {
                    "value": {
                        "tensor": {
                            "dtype": "DT_FLOAT",
                            "tensorShape": {
                                "dim": [
                                    { "size": "1" },
                                    { "size": "1" },
                                    { "size": "24" },
                                    { "size": "96" }
                                ]
                            }
                        }
                    },
                    "dtype": { "type": "DT_FLOAT" }
                }
            },
            {
                "name": "unknown_43",
                "op": "Const",
                "attr": {
                    "dtype": { "type": "DT_FLOAT" },
                    "value": {
                        "tensor": {
                            "dtype": "DT_FLOAT",
                            "tensorShape": { "dim": [{ "size": "96" }] }
                        }
                    }
                }
            },
            {
                "name": "StatefulPartitionedCall/transpose_50/perm",
                "op": "Const",
                "attr": {
                    "value": {
                        "tensor": {
                            "dtype": "DT_INT32",
                            "tensorShape": { "dim": [{ "size": "4" }] }
                        }
                    },
                    "dtype": { "type": "DT_INT32" }
                }
            },
            {
                "name": "ConstantFolding/StatefulPartitionedCall/onnx_tf_prefix_/_net/_base_network/_mobilenet/4/block/1/2/Div_recip",
                "op": "Const",
                "attr": {
                    "value": {
                        "tensor": { "dtype": "DT_FLOAT", "tensorShape": {} }
                    },
                    "dtype": { "type": "DT_FLOAT" }
                }
            },
            {
                "name": "ConstantFolding/StatefulPartitionedCall/onnx_tf_prefix_/_net/_base_network/_mobilenet/4/block/0/2/Div_recip",
                "op": "Const",
                "attr": {
                    "dtype": { "type": "DT_FLOAT" },
                    "value": {
                        "tensor": { "dtype": "DT_FLOAT", "tensorShape": {} }
                    }
                }
            },
            {
                "name": "StatefulPartitionedCall/transpose_37/perm",
                "op": "Const",
                "attr": {
                    "value": {
                        "tensor": {
                            "dtype": "DT_INT32",
                            "tensorShape": { "dim": [{ "size": "4" }] }
                        }
                    },
                    "dtype": { "type": "DT_INT32" }
                }
            },
            {
                "name": "StatefulPartitionedCall/split_10",
                "op": "Const",
                "attr": {
                    "dtype": { "type": "DT_FLOAT" },
                    "value": {
                        "tensor": {
                            "dtype": "DT_FLOAT",
                            "tensorShape": {
                                "dim": [
                                    { "size": "1" },
                                    { "size": "1" },
                                    { "size": "24" },
                                    { "size": "96" }
                                ]
                            }
                        }
                    }
                }
            },
            {
                "name": "unknown_32",
                "op": "Const",
                "attr": {
                    "value": {
                        "tensor": {
                            "dtype": "DT_FLOAT",
                            "tensorShape": { "dim": [{ "size": "96" }] }
                        }
                    },
                    "dtype": { "type": "DT_FLOAT" }
                }
            },
            {
                "name": "StatefulPartitionedCall/transpose_38/perm",
                "op": "Const",
                "attr": {
                    "value": {
                        "tensor": {
                            "dtype": "DT_INT32",
                            "tensorShape": { "dim": [{ "size": "4" }] }
                        }
                    },
                    "dtype": { "type": "DT_INT32" }
                }
            },
            {
                "name": "StatefulPartitionedCall/Const_6",
                "op": "Const",
                "attr": {
                    "value": {
                        "tensor": {
                            "dtype": "DT_INT32",
                            "tensorShape": {
                                "dim": [{ "size": "4" }, { "size": "2" }]
                            }
                        }
                    },
                    "dtype": { "type": "DT_INT32" }
                }
            },
            {
                "name": "StatefulPartitionedCall/transpose_43/perm",
                "op": "Const",
                "attr": {
                    "value": {
                        "tensor": {
                            "dtype": "DT_INT32",
                            "tensorShape": { "dim": [{ "size": "4" }] }
                        }
                    },
                    "dtype": { "type": "DT_INT32" }
                }
            },
            {
                "name": "StatefulPartitionedCall/Reshape_7",
                "op": "Const",
                "attr": {
                    "dtype": { "type": "DT_FLOAT" },
                    "value": {
                        "tensor": {
                            "dtype": "DT_FLOAT",
                            "tensorShape": {
                                "dim": [
                                    { "size": "5" },
                                    { "size": "5" },
                                    { "size": "96" },
                                    { "size": "1" }
                                ]
                            }
                        }
                    }
                }
            },
            {
                "name": "unknown_37",
                "op": "Const",
                "attr": {
                    "dtype": { "type": "DT_FLOAT" },
                    "value": {
                        "tensor": {
                            "dtype": "DT_FLOAT",
                            "tensorShape": { "dim": [{ "size": "96" }] }
                        }
                    }
                }
            },
            {
                "name": "StatefulPartitionedCall/transpose_44/perm",
                "op": "Const",
                "attr": {
                    "dtype": { "type": "DT_INT32" },
                    "value": {
                        "tensor": {
                            "dtype": "DT_INT32",
                            "tensorShape": { "dim": [{ "size": "4" }] }
                        }
                    }
                }
            },
            {
                "name": "StatefulPartitionedCall/transpose_52/perm",
                "op": "Const",
                "attr": {
                    "value": {
                        "tensor": {
                            "dtype": "DT_INT32",
                            "tensorShape": { "dim": [{ "size": "4" }] }
                        }
                    },
                    "dtype": { "type": "DT_INT32" }
                }
            },
            {
                "name": "StatefulPartitionedCall/split_15",
                "op": "Const",
                "attr": {
                    "dtype": { "type": "DT_FLOAT" },
                    "value": {
                        "tensor": {
                            "dtype": "DT_FLOAT",
                            "tensorShape": {
                                "dim": [
                                    { "size": "1" },
                                    { "size": "1" },
                                    { "size": "96" },
                                    { "size": "40" }
                                ]
                            }
                        }
                    }
                }
            },
            {
                "name": "unknown_45",
                "op": "Const",
                "attr": {
                    "value": {
…
                {
                    "name": "unknown_89",
                    "shape": [72],
                    "dtype": "float32",
                    "quantization": {
                        "dtype": "float16",
                        "original_dtype": "float32"
                    }
                },
                {
                    "name": "StatefulPartitionedCall/transpose_119/perm",
                    "shape": [4],
                    "dtype": "int32"
                },
                { "name": "unknown_90", "shape": [3], "dtype": "int32" },
                {
                    "name": "StatefulPartitionedCall/Where_2",
                    "shape": [0, 1],
                    "dtype": "int32"
                },
                {
                    "name": "StatefulPartitionedCall/Cast_2",
                    "shape": [1],
                    "dtype": "int32"
                },
                {
                    "name": "StatefulPartitionedCall/GatherV2_2",
                    "shape": [0],
                    "dtype": "int32"
                },
                {
                    "name": "StatefulPartitionedCall/zeros_2",
                    "shape": [],
                    "dtype": "int32"
                },
                {
                    "name": "StatefulPartitionedCall/onnx_tf_prefix_/_net/_base_network/_transition_conv1/1/Transpose/perm",
                    "shape": [3],
                    "dtype": "int32"
                },
                {
                    "name": "StatefulPartitionedCall/onnx_tf_prefix_/_net/_base_network/_transition_conv1/1/ReduceMean_1/reduction_indices",
                    "shape": [2],
                    "dtype": "int32"
                },
                {
                    "name": "StatefulPartitionedCall/onnx_tf_prefix_/_net/_base_network/_transition_conv1/1/ReduceMean_2/reduction_indices",
                    "shape": [2],
                    "dtype": "int32"
                },
                {
                    "name": "StatefulPartitionedCall/Reshape_20/shape",
                    "shape": [4],
                    "dtype": "int32"
                },
                {
                    "name": "StatefulPartitionedCall/onnx_tf_prefix_/_net/_base_network/_transition_conv1/1/BatchNormalization/add/y",
                    "shape": [],
                    "dtype": "float32",
                    "quantization": {
                        "dtype": "float16",
                        "original_dtype": "float32"
                    }
                },
                {
                    "name": "StatefulPartitionedCall/Reshape_17",
                    "shape": [1, 72, 1, 1],
                    "dtype": "float32",
                    "quantization": {
                        "dtype": "float16",
                        "original_dtype": "float32"
                    }
                },
                {
                    "name": "StatefulPartitionedCall/onnx_tf_prefix_/_net/_base_network/Concat/axis",
                    "shape": [],
                    "dtype": "int32"
                },
                {
                    "name": "StatefulPartitionedCall/Const_16",
                    "shape": [4, 2],
                    "dtype": "int32"
                },
                {
                    "name": "StatefulPartitionedCall/transpose_169/perm",
                    "shape": [4],
                    "dtype": "int32"
                },
                {
                    "name": "StatefulPartitionedCall/split_54",
                    "shape": [3, 3, 144, 48],
                    "dtype": "float32",
                    "quantization": {
                        "dtype": "float16",
                        "original_dtype": "float32"
                    }
                },
                {
                    "name": "unknown_129",
                    "shape": [48],
                    "dtype": "float32",
                    "quantization": {
                        "dtype": "float16",
                        "original_dtype": "float32"
                    }
                },
                {
                    "name": "StatefulPartitionedCall/transpose_170/perm",
                    "shape": [4],
                    "dtype": "int32"
                },
                {
                    "name": "StatefulPartitionedCall/transpose_172/perm",
                    "shape": [4],
                    "dtype": "int32"
                },
                {
                    "name": "StatefulPartitionedCall/Slice_1/begin",
                    "shape": [4],
                    "dtype": "int32"
                },
                {
                    "name": "StatefulPartitionedCall/Slice_1/size",
                    "shape": [4],
                    "dtype": "int32"
                },
                {
                    "name": "StatefulPartitionedCall/transpose_173/perm",
                    "shape": [4],
                    "dtype": "int32"
                },
                {
                    "name": "StatefulPartitionedCall/onnx_tf_prefix_/_net/_base_network/_upconv2/4/BatchNormalization/mul",
                    "shape": [1, 48, 1, 1],
                    "dtype": "float32",
                    "quantization": {
                        "dtype": "float16",
                        "original_dtype": "float32"
                    }
                },
                {
                    "name": "StatefulPartitionedCall/onnx_tf_prefix_/_net/_base_network/_upconv2/4/BatchNormalization/sub",
                    "shape": [1, 48, 1, 1],
                    "dtype": "float32",
                    "quantization": {
                        "dtype": "float16",
                        "original_dtype": "float32"
                    }
                },
                {
                    "name": "StatefulPartitionedCall/Reshape_9",
                    "shape": [1, 48, 1, 1],
                    "dtype": "float32",
                    "quantization": {
                        "dtype": "float16",
                        "original_dtype": "float32"
                    }
                },
                {
                    "name": "StatefulPartitionedCall/onnx_tf_prefix_/_net/_base_network/_transition_conv2/1/ReduceMean/reduction_indices",
                    "shape": [2],
                    "dtype": "int32"
                },
                {
                    "name": "StatefulPartitionedCall/Reshape_10/shape",
                    "shape": [4],
                    "dtype": "int32"
                },
                {
                    "name": "StatefulPartitionedCall/split_8",
                    "shape": [1, 1, 24, 88],
                    "dtype": "float32",
                    "quantization": {
                        "dtype": "float16",
                        "original_dtype": "float32"
                    }
                },
                {
                    "name": "unknown_24",
                    "shape": [88],
                    "dtype": "float32",
                    "quantization": {
                        "dtype": "float16",
                        "original_dtype": "float32"
                    }
                },
                {
                    "name": "StatefulPartitionedCall/transpose_29/perm",
                    "shape": [4],
                    "dtype": "int32"
                },
                {
                    "name": "StatefulPartitionedCall/Const_4",
                    "shape": [4, 2],
                    "dtype": "int32"
                },
                {
                    "name": "StatefulPartitionedCall/transpose_31/perm",
                    "shape": [4],
                    "dtype": "int32"
                },
                {
                    "name": "StatefulPartitionedCall/Reshape_2",
                    "shape": [3, 3, 88, 1],
                    "dtype": "float32",
                    "quantization": {
                        "dtype": "float16",
                        "original_dtype": "float32"
                    }
                },
                {
                    "name": "unknown_26",
                    "shape": [88],
                    "dtype": "float32",
                    "quantization": {
                        "dtype": "float16",
                        "original_dtype": "float32"
                    }
                },
                {
                    "name": "StatefulPartitionedCall/transpose_32/perm",
                    "shape": [4],
                    "dtype": "int32"
                },
                {
                    "name": "StatefulPartitionedCall/transpose_34/perm",
                    "shape": [4],
                    "dtype": "int32"
                },
                {
                    "name": "StatefulPartitionedCall/split_9",
                    "shape": [1, 1, 88, 24],
                    "dtype": "float32",
                    "quantization": {
                        "dtype": "float16",
                        "original_dtype": "float32"
                    }
                },
                {
                    "name": "unknown_30",
                    "shape": [24],
                    "dtype": "float32",
                    "quantization": {
                        "dtype": "float16",
                        "original_dtype": "float32"
                    }
                },
                {
                    "name": "StatefulPartitionedCall/transpose_35/perm",
                    "shape": [4],
                    "dtype": "int32"
                },
                {
                    "name": "StatefulPartitionedCall/split_5",
                    "shape": [1, 1, 16, 72],
                    "dtype": "float32",
                    "quantization": {
                        "dtype": "float16",
                        "original_dtype": "float32"
                    }
                },
                {
                    "name": "unknown_15",
                    "shape": [72],
                    "dtype": "float32",
                    "quantization": {
                        "dtype": "float16",
                        "original_dtype": "float32"
                    }
                },
                {
                    "name": "StatefulPartitionedCall/transpose_17/perm",
                    "shape": [4],
                    "dtype": "int32"
                },
                {
                    "name": "StatefulPartitionedCall/Const_3",
                    "shape": [4, 2],
                    "dtype": "int32"
                },
                {
                    "name": "StatefulPartitionedCall/transpose_22/perm",
                    "shape": [4],
                    "dtype": "int32"
                },
                {
                    "name": "StatefulPartitionedCall/Reshape_1",
                    "shape": [3, 3, 72, 1],
                    "dtype": "float32",
                    "quantization": {
                        "dtype": "float16",
                        "original_dtype": "float32"
                    }
                },
                {
                    "name": "unknown_20",
                    "shape": [72],
                    "dtype": "float32",
                    "quantization": {
                        "dtype": "float16",
                        "original_dtype": "float32"
                    }
                },
                {
                    "name": "StatefulPartitionedCall/transpose_23/perm",
                    "shape": [4],
                    "dtype": "int32"
                },
                {
                    "name": "StatefulPartitionedCall/transpose_25/perm",
                    "shape": [4],
                    "dtype": "int32"
                },
                {
                    "name": "StatefulPartitionedCall/split_7",
                    "shape": [1, 1, 72, 24],
                    "dtype": "float32",
                    "quantization": {
                        "dtype": "float16",
                        "original_dtype": "float32"
                    }
                },
                {
                    "name": "unknown_22",
                    "shape": [24],
                    "dtype": "float32",
                    "quantization": {
                        "dtype": "float16",
                        "original_dtype": "float32"
                    }
                },
                {
                    "name": "StatefulPartitionedCall/transpose_26/perm",
                    "shape": [4],
                    "dtype": "int32"
                },
                {
                    "name": "StatefulPartitionedCall/transpose_40/perm",
                    "shape": [4],
                    "dtype": "int32"
                },
                {
                    "name": "StatefulPartitionedCall/split_11",
                    "shape": [1, 1, 24, 48],
                    "dtype": "float32",
                    "quantization": {
                        "dtype": "float16",
                        "original_dtype": "float32"
                    }
                },
                {
                    "name": "unknown_34",
                    "shape": [48],
                    "dtype": "float32",
                    "quantization": {
                        "dtype": "float16",
                        "original_dtype": "float32"
                    }
                },
                {
                    "name": "StatefulPartitionedCall/transpose_41/perm",
                    "shape": [4],
                    "dtype": "int32"
                },
                { "name": "unknown_35", "shape": [3], "dtype": "int32" },
                {
                    "name": "StatefulPartitionedCall/Where_1",
                    "shape": [0, 1],
                    "dtype": "int32"
                },
                {
                    "name": "StatefulPartitionedCall/Cast_1",
                    "shape": [1],
                    "dtype": "int32"
                },
                {
                    "name": "StatefulPartitionedCall/GatherV2_1",
                    "shape": [0],
                    "dtype": "int32"
                },
                {
                    "name": "StatefulPartitionedCall/zeros_1",
                    "shape": [],
                    "dtype": "int32"
                },
                {
                    "name": "StatefulPartitionedCall/onnx_tf_prefix_/_net/_base_network/_transition_conv2/1/Transpose/perm",
                    "shape": [3],
                    "dtype": "int32"
                },
                {
                    "name": "StatefulPartitionedCall/onnx_tf_prefix_/_net/_base_network/_transition_conv2/1/ReduceMean_1/reduction_indices",
                    "shape": [2],
                    "dtype": "int32"
                },
                {
                    "name": "StatefulPartitionedCall/onnx_tf_prefix_/_net/_base_network/_transition_conv2/1/ReduceMean_2/reduction_indices",
                    "shape": [2],
                    "dtype": "int32"
                },
                {
                    "name": "StatefulPartitionedCall/Reshape_11/shape",
                    "shape": [4],
                    "dtype": "int32"
                },
                {
                    "name": "StatefulPartitionedCall/onnx_tf_prefix_/_net/_base_network/_transition_conv2/1/BatchNormalization/add/y",
                    "shape": [],
                    "dtype": "float32",
                    "quantization": {
                        "dtype": "float16",
                        "original_dtype": "float32"
                    }
                },
                {
                    "name": "StatefulPartitionedCall/Reshape_8",
                    "shape": [1, 48, 1, 1],
                    "dtype": "float32",
                    "quantization": {
                        "dtype": "float16",
                        "original_dtype": "float32"
                    }
                },
                {
                    "name": "StatefulPartitionedCall/onnx_tf_prefix_/_net/_base_network/Concat_1/axis",
                    "shape": [],
                    "dtype": "int32"
                },
                {
                    "name": "StatefulPartitionedCall/Const_17",
                    "shape": [4, 2],
                    "dtype": "int32"
                },
                {
                    "name": "StatefulPartitionedCall/transpose_175/perm",
                    "shape": [4],
                    "dtype": "int32"
                },
                {
                    "name": "StatefulPartitionedCall/split_56",
                    "shape": [3, 3, 96, 32],
                    "dtype": "float32",
                    "quantization": {
                        "dtype": "float16",
                        "original_dtype": "float32"
                    }
                },
                {
                    "name": "unknown_136",
                    "shape": [32],
                    "dtype": "float32",
                    "quantization": {
                        "dtype": "float16",
                        "original_dtype": "float32"
                    }
                },
                {
                    "name": "StatefulPartitionedCall/transpose_176/perm",
                    "shape": [4],
                    "dtype": "int32"
                },
                {
                    "name": "StatefulPartitionedCall/transpose_178/perm",
                    "shape": [4],
                    "dtype": "int32"
                },
                {
                    "name": "StatefulPartitionedCall/Slice_2/begin",
                    "shape": [4],
                    "dtype": "int32"
                },
                {
                    "name": "StatefulPartitionedCall/Slice_2/size",
                    "shape": [4],
                    "dtype": "int32"
                },
                {
                    "name": "StatefulPartitionedCall/transpose_179/perm",
                    "shape": [4],
                    "dtype": "int32"
                },
                {
                    "name": "StatefulPartitionedCall/onnx_tf_prefix_/_net/_base_network/_upconv3/4/BatchNormalization/mul",
                    "shape": [1, 32, 1, 1],
                    "dtype": "float32",
                    "quantization": {
                        "dtype": "float16",
                        "original_dtype": "float32"
                    }
                },
                {
                    "name": "StatefulPartitionedCall/onnx_tf_prefix_/_net/_base_network/_upconv3/4/BatchNormalization/sub",
                    "shape": [1, 32, 1, 1],
                    "dtype": "float32",
                    "quantization": {
                        "dtype": "float16",
                        "original_dtype": "float32"
                    }
                },
                {
                    "name": "StatefulPartitionedCall/Reshape_4",
                    "shape": [1, 32, 1, 1],
                    "dtype": "float32",
                    "quantization": {
                        "dtype": "float16",
                        "original_dtype": "float32"
                    }
                },
                {
                    "name": "StatefulPartitionedCall/onnx_tf_prefix_/_net/_base_network/_transition_conv3/1/ReduceMean/reduction_indices",
                    "shape": [2],
                    "dtype": "int32"
                },
                {
                    "name": "StatefulPartitionedCall/Reshape_5/shape",
                    "shape": [4],
                    "dtype": "int32"
                },
                {
                    "name": "ConstantFolding/StatefulPartitionedCall/onnx_tf_prefix_/_net/_base_network/_mobilenet/1/block/1/scale_activation/Div_recip",
                    "shape": [],
                    "dtype": "float32",
                    "quantization": {
                        "dtype": "float16",
                        "original_dtype": "float32"
                    }
                },
                {
                    "name": "ConstantFolding/StatefulPartitionedCall/split_1-folded-1",
                    "shape": [2],
                    "dtype": "int32"
                },
                {
                    "name": "StatefulPartitionedCall/transpose_7/perm",
                    "shape": [4],
                    "dtype": "int32"
                },
                {
                    "name": "StatefulPartitionedCall/split_2",
                    "shape": [1, 1, 16, 8],
                    "dtype": "float32",
                    "quantization": {
                        "dtype": "float16",
                        "original_dtype": "float32"
                    }
                },
                {
                    "name": "unknown_9",
                    "shape": [8],
                    "dtype": "float32",
                    "quantization": {
                        "dtype": "float16",
                        "original_dtype": "float32"
                    }
                },
                {
                    "name": "StatefulPartitionedCall/transpose_8/perm",
                    "shape": [4],
                    "dtype": "int32"
                },
                {
                    "name": "StatefulPartitionedCall/transpose_10/perm",
                    "shape": [4],
                    "dtype": "int32"
                },
                {
                    "name": "StatefulPartitionedCall/split_3",
                    "shape": [1, 1, 8, 16],
                    "dtype": "float32",
                    "quantization": {
                        "dtype": "float16",
                        "original_dtype": "float32"
                    }
                },
                {
                    "name": "unknown_11",
                    "shape": [16],
                    "dtype": "float32",
                    "quantization": {
                        "dtype": "float16",
                        "original_dtype": "float32"
                    }
                },
                {
                    "name": "StatefulPartitionedCall/transpose_11/perm",
                    "shape": [4],
                    "dtype": "int32"
                },
                {
                    "name": "ConstantFolding/StatefulPartitionedCall/onnx_tf_prefix_/_net/_base_network/_mobilenet/0/2/Div_recip",
                    "shape": [],
                    "dtype": "float32",
                    "quantization": {
                        "dtype": "float16",
                        "original_dtype": "float32"
                    }
                },
                {
                    "name": "StatefulPartitionedCall/onnx_tf_prefix_input_order_convert_transpose_0/perm",
                    "shape": [4],
                    "dtype": "int32"
                },
                {
                    "name": "unknown",
                    "shape": [1, 3, 1, 1],
                    "dtype": "float32",
                    "quantization": {
                        "dtype": "float16",
                        "original_dtype": "float32"
                    }
                },
                {
                    "name": "ConstantFolding/StatefulPartitionedCall/onnx_tf_prefix_/Div_recip",
                    "shape": [1, 3, 1, 1],
                    "dtype": "float32",
                    "quantization": {
                        "dtype": "float16",
                        "original_dtype": "float32"
                    }
                },
                {
                    "name": "StatefulPartitionedCall/Const",
                    "shape": [4, 2],
                    "dtype": "int32"
                },
                {
                    "name": "StatefulPartitionedCall/transpose_1/perm",
                    "shape": [4],
                    "dtype": "int32"
                },
                {
                    "name": "StatefulPartitionedCall/split",
                    "shape": [3, 3, 3, 16],
                    "dtype": "float32",
                    "quantization": {
                        "dtype": "float16",
                        "original_dtype": "float32"
                    }
                },
                {
                    "name": "unknown_2",
                    "shape": [16],
                    "dtype": "float32",
                    "quantization": {
                        "dtype": "float16",
                        "original_dtype": "float32"
                    }
                },
                {
                    "name": "StatefulPartitionedCall/transpose_2/perm",
                    "shape": [4],
                    "dtype": "int32"
                },
                {
                    "name": "unknown_3",
                    "shape": [],
                    "dtype": "float32",
                    "quantization": {
                        "dtype": "float16",
                        "original_dtype": "float32"
                    }
                },
                {
                    "name": "unknown_4",
                    "shape": [],
                    "dtype": "float32",
                    "quantization": {
                        "dtype": "float16",
                        "original_dtype": "float32"
                    }
                },
                {
                    "name": "unknown_5",
                    "shape": [],
                    "dtype": "float32",
                    "quantization": {
                        "dtype": "float16",
                        "original_dtype": "float32"
                    }
                },
                {
                    "name": "StatefulPartitionedCall/Const_1",
                    "shape": [4, 2],
                    "dtype": "int32"
                },
                {
                    "name": "StatefulPartitionedCall/transpose_4/perm",
                    "shape": [4],
                    "dtype": "int32"
                },
                {
                    "name": "StatefulPartitionedCall/Reshape",
                    "shape": [3, 3, 16, 1],
                    "dtype": "float32",
                    "quantization": {
                        "dtype": "float16",
                        "original_dtype": "float32"
                    }
                },
                {
                    "name": "unknown_7",
                    "shape": [16],
                    "dtype": "float32",
                    "quantization": {
                        "dtype": "float16",
                        "original_dtype": "float32"
                    }
                },
                {
                    "name": "StatefulPartitionedCall/transpose_5/perm",
                    "shape": [4],
                    "dtype": "int32"
                },
                {
                    "name": "StatefulPartitionedCall/transpose_13/perm",
                    "shape": [4],
                    "dtype": "int32"
                },
                {
                    "name": "StatefulPartitionedCall/split_4",
                    "shape": [1, 1, 16, 16],
                    "dtype": "float32",
                    "quantization": {
                        "dtype": "float16",
                        "original_dtype": "float32"
                    }
                },
                {
                    "name": "unknown_13",
                    "shape": [16],
                    "dtype": "float32",
                    "quantization": {
                        "dtype": "float16",
                        "original_dtype": "float32"
                    }
                },
                {
                    "name": "StatefulPartitionedCall/split_6",
                    "shape": [1, 1, 16, 32],
                    "dtype": "float32",
                    "quantization": {
                        "dtype": "float16",
                        "original_dtype": "float32"
                    }
                },
                {
                    "name": "unknown_17",
                    "shape": [32],
                    "dtype": "float32",
                    "quantization": {
                        "dtype": "float16",
                        "original_dtype": "float32"
                    }
                },
                {
                    "name": "StatefulPartitionedCall/transpose_20/perm",
                    "shape": [4],
                    "dtype": "int32"
                },
                { "name": "unknown_18", "shape": [3], "dtype": "int32" },
                {
                    "name": "StatefulPartitionedCall/Where",
                    "shape": [0, 1],
                    "dtype": "int32"
                },
                {
                    "name": "StatefulPartitionedCall/Cast",
                    "shape": [1],
                    "dtype": "int32"
                },
                {
                    "name": "StatefulPartitionedCall/GatherV2",
                    "shape": [0],
                    "dtype": "int32"
                },
                {
                    "name": "StatefulPartitionedCall/zeros",
                    "shape": [],
                    "dtype": "int32"
                },
                {
                    "name": "StatefulPartitionedCall/onnx_tf_prefix_/_net/_base_network/_transition_conv3/1/Transpose/perm",
                    "shape": [3],
                    "dtype": "int32"
                },
                {
                    "name": "StatefulPartitionedCall/onnx_tf_prefix_/_net/_base_network/_transition_conv3/1/ReduceMean_1/reduction_indices",
                    "shape": [2],
                    "dtype": "int32"
                },
                {
                    "name": "StatefulPartitionedCall/onnx_tf_prefix_/_net/_base_network/_transition_conv3/1/ReduceMean_2/reduction_indices",
                    "shape": [2],
                    "dtype": "int32"
                },
                {
                    "name": "StatefulPartitionedCall/Reshape_6/shape",
                    "shape": [4],
                    "dtype": "int32"
                },
                {
                    "name": "StatefulPartitionedCall/onnx_tf_prefix_/_net/_base_network/_transition_conv3/1/BatchNormalization/add/y",
                    "shape": [],
                    "dtype": "float32",
                    "quantization": {
                        "dtype": "float16",
                        "original_dtype": "float32"
                    }
                },
                {
                    "name": "StatefulPartitionedCall/Reshape_3",
                    "shape": [1, 32, 1, 1],
                    "dtype": "float32",
                    "quantization": {
                        "dtype": "float16",
                        "original_dtype": "float32"
                    }
                },
                {
                    "name": "StatefulPartitionedCall/onnx_tf_prefix_/_net/_base_network/Concat_2/axis",
                    "shape": [],
                    "dtype": "int32"
                },
                {
                    "name": "StatefulPartitionedCall/Const_18",
                    "shape": [4, 2],
                    "dtype": "int32"
                },
                {
                    "name": "StatefulPartitionedCall/transpose_181/perm",
                    "shape": [4],
                    "dtype": "int32"
                },
                {
                    "name": "StatefulPartitionedCall/split_58",
                    "shape": [3, 3, 64, 32],
                    "dtype": "float32",
                    "quantization": {
                        "dtype": "float16",
                        "original_dtype": "float32"
                    }
                },
                {
                    "name": "unknown_143",
                    "shape": [32],
                    "dtype": "float32",
                    "quantization": {
                        "dtype": "float16",
                        "original_dtype": "float32"
                    }
                },
                {
                    "name": "StatefulPartitionedCall/transpose_182/perm",
                    "shape": [4],
                    "dtype": "int32"
                },
                {
                    "name": "StatefulPartitionedCall/transpose_190/perm",
                    "shape": [4],
                    "dtype": "int32"
                },
                {
                    "name": "StatefulPartitionedCall/split_61",
                    "shape": [1, 1, 32, 6],
                    "dtype": "float32",
                    "quantization": {
                        "dtype": "float16",
                        "original_dtype": "float32"
                    }
                },
                {
                    "name": "unknown_149",
                    "shape": [6],
                    "dtype": "float32",
                    "quantization": {
                        "dtype": "float16",
                        "original_dtype": "float32"
                    }
                },
                {
                    "name": "StatefulPartitionedCall/transpose_191/perm",
                    "shape": [4],
                    "dtype": "int32"
                },
                {
                    "name": "StatefulPartitionedCall/SelectV2_5",
                    "shape": [1],
                    "dtype": "int32"
                },
                {
                    "name": "StatefulPartitionedCall/zeros_4",
                    "shape": [],
                    "dtype": "int32"
                },
                {
                    "name": "StatefulPartitionedCall/Const_25",
                    "shape": [],
                    "dtype": "int32"
                },
                {
                    "name": "StatefulPartitionedCall/Shape_7",
                    "shape": [4],
                    "dtype": "int32"
                },
                {
                    "name": "StatefulPartitionedCall/SelectV2_6",
                    "shape": [1],
                    "dtype": "int32"
                },
                {
                    "name": "StatefulPartitionedCall/Const_24",
                    "shape": [],
                    "dtype": "int32"
                },
                {
                    "name": "StatefulPartitionedCall/ExpandDims_1",
                    "shape": [1, 1],
                    "dtype": "int32"
                },
                {
                    "name": "StatefulPartitionedCall/Cast_6",
                    "shape": [1],
                    "dtype": "int32"
                },
                { "name": "unknown_154", "shape": [1], "dtype": "int32" },
                {
                    "name": "StatefulPartitionedCall/Const_26",
                    "shape": [],
                    "dtype": "int32"
                },
                { "name": "unknown_158", "shape": [2], "dtype": "int32" },
                {
                    "name": "StatefulPartitionedCall/Where_5",
                    "shape": [0, 1],
                    "dtype": "int32"
                },
                {
                    "name": "StatefulPartitionedCall/Cast_9",
                    "shape": [1],
                    "dtype": "int32"
                },
                {
                    "name": "StatefulPartitionedCall/GatherV2_5",
                    "shape": [0],
                    "dtype": "int32"
                },
                {
                    "name": "StatefulPartitionedCall/zeros_7",
                    "shape": [],
                    "dtype": "int32"
                },
                {
                    "name": "StatefulPartitionedCall/Cast_10",
                    "shape": [],
                    "dtype": "int32"
                },
                { "name": "unknown_159", "shape": [], "dtype": "int32" },
                { "name": "unknown_165", "shape": [1, 1], "dtype": "int32" },
                {
                    "name": "StatefulPartitionedCall/onnx_tf_prefix_/_auxnet/Concat/axis",
                    "shape": [],
                    "dtype": "int32"
                },
                {
                    "name": "Func/StatefulPartitionedCall/assert_equal_1/Assert/AssertGuard/then/_181/output/_285",
                    "shape": [],
                    "dtype": "bool"
                },
                { "name": "unknown_169", "shape": [1], "dtype": "int32" },
                {
                    "name": "StatefulPartitionedCall/strided_slice_11",
                    "shape": [],
                    "dtype": "int32"
                },
                {
                    "name": "StatefulPartitionedCall/assert_equal_13/y",
                    "shape": [],
                    "dtype": "bool"
                },
                {
                    "name": "StatefulPartitionedCall/assert_equal_13/Const",
                    "shape": [1],
                    "dtype": "int32"
                },
                {
                    "name": "StatefulPartitionedCall/LogicalAnd_7",
                    "shape": [],
                    "dtype": "bool"
                },
                {
                    "name": "StatefulPartitionedCall/assert_equal_11/y",
                    "shape": [],
                    "dtype": "bool"
                },
                {
                    "name": "StatefulPartitionedCall/assert_equal_11/All",
                    "shape": [],
                    "dtype": "bool"
                },
                {
                    "name": "StatefulPartitionedCall/LogicalAnd_6",
                    "shape": [],
                    "dtype": "bool"
                },
                {
                    "name": "StatefulPartitionedCall/assert_equal_9/y",
                    "shape": [],
                    "dtype": "bool"
                },
                {
                    "name": "StatefulPartitionedCall/assert_equal_9/All",
                    "shape": [],
                    "dtype": "bool"
                },
                {
                    "name": "StatefulPartitionedCall/LogicalAnd_5",
                    "shape": [],
                    "dtype": "bool"
                },
                {
                    "name": "StatefulPartitionedCall/assert_equal_7/y",
                    "shape": [],
                    "dtype": "bool"
                },
                {
                    "name": "StatefulPartitionedCall/assert_equal_7/All",
                    "shape": [],
                    "dtype": "bool"
                },
                {
                    "name": "StatefulPartitionedCall/LogicalAnd_4",
                    "shape": [],
                    "dtype": "bool"
                },
                {
                    "name": "StatefulPartitionedCall/assert_equal_5/y",
                    "shape": [],
                    "dtype": "bool"
                },
                {
                    "name": "StatefulPartitionedCall/assert_equal_5/All",
                    "shape": [],
                    "dtype": "bool"
                },
                {
                    "name": "StatefulPartitionedCall/LogicalAnd_3",
                    "shape": [],
                    "dtype": "bool"
                },
                {
                    "name": "StatefulPartitionedCall/assert_equal_3/y",
                    "shape": [],
                    "dtype": "bool"
                },
                {
                    "name": "StatefulPartitionedCall/assert_equal_3/All",
                    "shape": [],
                    "dtype": "bool"
                },
                {
                    "name": "StatefulPartitionedCall/assert_equal_1/Assert/AssertGuard/pivot_t/_185",
                    "shape": [],
                    "dtype": "bool"
                },
                {
                    "name": "StatefulPartitionedCall/LogicalAnd_2",
                    "shape": [],
                    "dtype": "bool"
                },
                {
                    "name": "StatefulPartitionedCall/assert_equal_1/y",
                    "shape": [],
                    "dtype": "bool"
                },
                {
                    "name": "StatefulPartitionedCall/assert_equal_1/All",
                    "shape": [],
                    "dtype": "bool"
                },
                {
                    "name": "StatefulPartitionedCall/assert_equal_3/Assert/AssertGuard/pivot_t/_195",
                    "shape": [],
                    "dtype": "bool"
                },
                {
                    "name": "StatefulPartitionedCall/FloorMod",
                    "shape": [],
                    "dtype": "int32"
                },
                {
                    "name": "StatefulPartitionedCall/onnx_tf_prefix_/_auxnet/Gather/axis",
                    "shape": [],
                    "dtype": "int32"
                },
                {
                    "name": "Func/StatefulPartitionedCall/assert_equal_3/Assert/AssertGuard/then/_191/output/_297",
                    "shape": [],
                    "dtype": "bool"
                },
                {
                    "name": "StatefulPartitionedCall/assert_equal_5/Assert/AssertGuard/pivot_t/_205",
                    "shape": [],
                    "dtype": "bool"
                },
                {
                    "name": "StatefulPartitionedCall/FloorMod_1",
                    "shape": [],
                    "dtype": "int32"
                },
                {
                    "name": "StatefulPartitionedCall/onnx_tf_prefix_/_auxnet/Gather_1/axis",
                    "shape": [],
                    "dtype": "int32"
                },
                {
                    "name": "Func/StatefulPartitionedCall/assert_equal_5/Assert/AssertGuard/then/_201/output/_309",
                    "shape": [],
                    "dtype": "bool"
                },
                {
                    "name": "StatefulPartitionedCall/assert_equal_7/Assert/AssertGuard/pivot_t/_215",
                    "shape": [],
                    "dtype": "bool"
                },
                {
                    "name": "StatefulPartitionedCall/FloorMod_2",
                    "shape": [],
                    "dtype": "int32"
                },
                {
                    "name": "StatefulPartitionedCall/onnx_tf_prefix_/_auxnet/Gather_2/axis",
                    "shape": [],
                    "dtype": "int32"
                },
                {
                    "name": "Func/StatefulPartitionedCall/assert_equal_7/Assert/AssertGuard/then/_211/output/_321",
                    "shape": [],
                    "dtype": "bool"
                },
                {
                    "name": "StatefulPartitionedCall/assert_equal_9/Assert/AssertGuard/pivot_t/_225",
                    "shape": [],
                    "dtype": "bool"
                },
                {
                    "name": "StatefulPartitionedCall/FloorMod_3",
                    "shape": [],
                    "dtype": "int32"
                },
                {
                    "name": "StatefulPartitionedCall/onnx_tf_prefix_/_auxnet/Gather_6/axis",
                    "shape": [],
                    "dtype": "int32"
                },
                {
                    "name": "Func/StatefulPartitionedCall/assert_equal_9/Assert/AssertGuard/then/_221/output/_333",
                    "shape": [],
                    "dtype": "bool"
                },
                {
                    "name": "StatefulPartitionedCall/assert_equal_11/Assert/AssertGuard/pivot_t/_235",
                    "shape": [],
                    "dtype": "bool"
                },
                {
                    "name": "StatefulPartitionedCall/FloorMod_4",
                    "shape": [],
                    "dtype": "int32"
                },
                {
                    "name": "StatefulPartitionedCall/onnx_tf_prefix_/_auxnet/Gather_7/axis",
                    "shape": [],
                    "dtype": "int32"
                },
                {
                    "name": "Func/StatefulPartitionedCall/assert_equal_11/Assert/AssertGuard/then/_231/output/_345",
                    "shape": [],
                    "dtype": "bool"
                },
                {
                    "name": "StatefulPartitionedCall/FloorMod_5",
                    "shape": [],
                    "dtype": "int32"
                },
                {
                    "name": "StatefulPartitionedCall/onnx_tf_prefix_/_auxnet/Gather_8/axis",
                    "shape": [],
                    "dtype": "int32"
                },
                {
                    "name": "StatefulPartitionedCall/assert_equal_13/Assert/AssertGuard/pivot_f/_244",
                    "shape": [],
                    "dtype": "bool"
                },
                {
                    "name": "StatefulPartitionedCall/assert_equal_13/Assert/AssertGuard/pivot_t/_245",
                    "shape": [],
                    "dtype": "bool"
                },
                {
                    "name": "Func/StatefulPartitionedCall/assert_equal_13/Assert/AssertGuard/then/_241/output/_357",
                    "shape": [],
                    "dtype": "bool"
                },
                {
                    "name": "Func/StatefulPartitionedCall/assert_equal_13/Assert/AssertGuard/else/_242/output/_363",
                    "shape": [],
                    "dtype": "bool"
                },
                {
                    "name": "StatefulPartitionedCall/Cast_27/x",
                    "shape": [],
                    "dtype": "int32"
                },
                {
                    "name": "StatefulPartitionedCall/onnx_tf_prefix_/_auxnet/Gather_5/axis",
                    "shape": [],
                    "dtype": "int32"
                },
                {
                    "name": "StatefulPartitionedCall/assert_equal_15/Assert/AssertGuard/pivot_f/_254",
                    "shape": [],
                    "dtype": "bool"
                },
                {
                    "name": "StatefulPartitionedCall/assert_equal_15/Assert/AssertGuard/pivot_t/_255",
                    "shape": [],
                    "dtype": "bool"
                },
                {
                    "name": "Func/StatefulPartitionedCall/assert_equal_15/Assert/AssertGuard/then/_251/output/_369",
                    "shape": [],
                    "dtype": "bool"
                },
                {
                    "name": "Func/StatefulPartitionedCall/assert_equal_15/Assert/AssertGuard/else/_252/output/_375",
                    "shape": [],
                    "dtype": "bool"
                },
                {
                    "name": "StatefulPartitionedCall/Cast_29/x",
                    "shape": [],
                    "dtype": "int32"
                },
                {
                    "name": "StatefulPartitionedCall/onnx_tf_prefix_/_auxnet/Gather_11/axis",
                    "shape": [],
                    "dtype": "int32"
                },
                {
                    "name": "StatefulPartitionedCall/assert_equal_17/Assert/AssertGuard/pivot_f/_264",
                    "shape": [],
                    "dtype": "bool"
                },
                {
                    "name": "StatefulPartitionedCall/assert_equal_17/Assert/AssertGuard/pivot_t/_265",
                    "shape": [],
                    "dtype": "bool"
                },
                {
                    "name": "Func/StatefulPartitionedCall/assert_equal_17/Assert/AssertGuard/then/_261/output/_381",
                    "shape": [],
                    "dtype": "bool"
                },
                {
                    "name": "Func/StatefulPartitionedCall/assert_equal_17/Assert/AssertGuard/else/_262/output/_387",
                    "shape": [],
                    "dtype": "bool"
                },
                {
                    "name": "StatefulPartitionedCall/Cast_31/x",
                    "shape": [],
                    "dtype": "int32"
                },
                {
                    "name": "StatefulPartitionedCall/onnx_tf_prefix_/_auxnet/Gather_14/axis",
                    "shape": [],
                    "dtype": "int32"
                },
                {
                    "name": "StatefulPartitionedCall/assert_equal_19/Assert/AssertGuard/pivot_f/_274",
                    "shape": [],
                    "dtype": "bool"
                },
                {
                    "name": "StatefulPartitionedCall/assert_equal_19/Assert/AssertGuard/pivot_t/_275",
                    "shape": [],
                    "dtype": "bool"
                },
                {
                    "name": "Func/StatefulPartitionedCall/assert_equal_19/Assert/AssertGuard/then/_271/output/_393",
                    "shape": [],
                    "dtype": "bool"
                },
                {
                    "name": "Func/StatefulPartitionedCall/assert_equal_19/Assert/AssertGuard/else/_272/output/_399",
                    "shape": [],
                    "dtype": "bool"
                },
                {
                    "name": "StatefulPartitionedCall/Cast_33/x",
                    "shape": [],
                    "dtype": "int32"
                },
                {
                    "name": "StatefulPartitionedCall/onnx_tf_prefix_/_auxnet/Gather_17/axis",
                    "shape": [],
                    "dtype": "int32"
                }
            ]
        }
    ]
}
