{
    "format": "graph-model",
    "generatedBy": "2.13.0",
    "convertedBy": "TensorFlow.js Converter v4.10.0",
    "signature": {
        "inputs": {
            "hi4": {
                "name": "hi4:0",
                "dtype": "DT_FLOAT",
                "tensorShape": {
                    "dim": [
                        { "size": "1" },
                        { "size": "10" },
                        { "size": "192" },
                        { "size": "192" }
                    ]
                }
            },
            "hi2": {
                "name": "hi2:0",
                "dtype": "DT_FLOAT",
                "tensorShape": {
                    "dim": [
                        { "size": "1" },
                        { "size": "16" },
                        { "size": "48" },
                        { "size": "48" }
                    ]
                }
            },
            "hi1": {
                "name": "hi1:0",
                "dtype": "DT_FLOAT",
                "tensorShape": {
                    "dim": [
                        { "size": "1" },
                        { "size": "20" },
                        { "size": "24" },
                        { "size": "24" }
                    ]
                }
            },
            "input": {
                "name": "input:0",
                "dtype": "DT_FLOAT",
                "tensorShape": {
                    "dim": [
                        { "size": "1" },
                        { "size": "384" },
                        { "size": "384" },
                        { "size": "3" }
                    ]
                }
            },
            "hi3": {
                "name": "hi3:0",
                "dtype": "DT_FLOAT",
                "tensorShape": {
                    "dim": [
                        { "size": "1" },
                        { "size": "12" },
                        { "size": "96" },
                        { "size": "96" }
                    ]
                }
            }
        },
        "outputs": {
            "ho1": {
                "name": "Identity:0",
                "dtype": "DT_FLOAT",
                "tensorShape": {
                    "dim": [
                        { "size": "1" },
                        { "size": "20" },
                        { "size": "24" },
                        { "size": "24" }
                    ]
                }
            },
            "output": {
                "name": "Identity_4:0",
                "dtype": "DT_FLOAT",
                "tensorShape": {
                    "dim": [
                        { "size": "1" },
                        { "size": "1" },
                        { "size": "384" },
                        { "size": "384" }
                    ]
                }
            },
            "ho3": {
                "name": "Identity_2:0",
                "dtype": "DT_FLOAT",
                "tensorShape": {
                    "dim": [
                        { "size": "1" },
                        { "size": "12" },
                        { "size": "96" },
                        { "size": "96" }
                    ]
                }
            },
            "ho2": {
                "name": "Identity_1:0",
                "dtype": "DT_FLOAT",
                "tensorShape": {
                    "dim": [
                        { "size": "1" },
                        { "size": "16" },
                        { "size": "48" },
                        { "size": "48" }
                    ]
                }
            },
            "ho4": {
                "name": "Identity_3:0",
                "dtype": "DT_FLOAT",
                "tensorShape": {
                    "dim": [
                        { "size": "1" },
                        { "size": "10" },
                        { "size": "192" },
                        { "size": "192" }
                    ]
                }
            }
        }
    },
    "modelTopology": {
        "node": [
            {
                "name": "PartitionedCall/SelectV2_17",
                "op": "Const",
                "attr": {
                    "value": {
                        "tensor": {
                            "dtype": "DT_INT64",
                            "tensorShape": { "dim": [{ "size": "1" }] }
                        }
                    },
                    "dtype": { "type": "DT_INT64" }
                }
            },
            {
                "name": "PartitionedCall/zeros_4",
                "op": "Const",
                "attr": {
                    "dtype": { "type": "DT_INT64" },
                    "value": {
                        "tensor": { "dtype": "DT_INT64", "tensorShape": {} }
                    }
                }
            },
            {
                "name": "PartitionedCall/Const_44",
                "op": "Const",
                "attr": {
                    "dtype": { "type": "DT_INT64" },
                    "value": {
                        "tensor": { "dtype": "DT_INT64", "tensorShape": {} }
                    }
                }
            },
            {
                "name": "PartitionedCall/Shape_4",
                "op": "Const",
                "attr": {
                    "value": {
                        "tensor": {
                            "dtype": "DT_INT64",
                            "tensorShape": { "dim": [{ "size": "4" }] }
                        }
                    },
                    "dtype": { "type": "DT_INT64" }
                }
            },
            {
                "name": "PartitionedCall/SelectV2_18",
                "op": "Const",
                "attr": {
                    "value": {
                        "tensor": {
                            "dtype": "DT_INT64",
                            "tensorShape": { "dim": [{ "size": "1" }] }
                        }
                    },
                    "dtype": { "type": "DT_INT64" }
                }
            },
            {
                "name": "PartitionedCall/Const_43",
                "op": "Const",
                "attr": {
                    "dtype": { "type": "DT_INT64" },
                    "value": {
                        "tensor": { "dtype": "DT_INT64", "tensorShape": {} }
                    }
                }
            },
            {
                "name": "PartitionedCall/ExpandDims_4",
                "op": "Const",
                "attr": {
                    "value": {
                        "tensor": {
                            "dtype": "DT_INT64",
                            "tensorShape": {
                                "dim": [{ "size": "1" }, { "size": "1" }]
                            }
                        }
                    },
                    "dtype": { "type": "DT_INT64" }
                }
            },
            {
                "name": "PartitionedCall/Cast_10",
                "op": "Const",
                "attr": {
                    "dtype": { "type": "DT_INT64" },
                    "value": {
                        "tensor": {
                            "dtype": "DT_INT64",
                            "tensorShape": { "dim": [{ "size": "1" }] }
                        }
                    }
                }
            },
            {
                "name": "PartitionedCall/Const_45",
                "op": "Const",
                "attr": {
                    "value": {
                        "tensor": { "dtype": "DT_INT64", "tensorShape": {} }
                    },
                    "dtype": { "type": "DT_INT64" }
                }
            },
            {
                "name": "PartitionedCall/conv2d_transpose_3/input_sizes",
                "op": "Const",
                "attr": {
                    "value": {
                        "tensor": {
                            "dtype": "DT_INT32",
                            "tensorShape": { "dim": [{ "size": "4" }] }
                        }
                    },
                    "dtype": { "type": "DT_INT32" }
                }
            },
            {
                "name": "PartitionedCall/split_42",
                "op": "Const",
                "attr": {
                    "dtype": { "type": "DT_FLOAT" },
                    "value": {
                        "tensor": {
                            "dtype": "DT_FLOAT",
                            "tensorShape": {
                                "dim": [
                                    { "size": "4" },
                                    { "size": "4" },
                                    { "size": "20" },
                                    { "size": "20" }
                                ]
                            }
                        }
                    }
                }
            },
            {
                "name": "PartitionedCall/onnx_tf_prefix_/_net/decoder/convGRU4/gru_cell/Concat/axis",
                "op": "Const",
                "attr": {
                    "value": {
                        "tensor": { "dtype": "DT_INT32", "tensorShape": {} }
                    },
                    "dtype": { "type": "DT_INT32" }
                }
            },
            {
                "name": "PartitionedCall/Const_34",
                "op": "Const",
                "attr": {
                    "dtype": { "type": "DT_INT32" },
                    "value": {
                        "tensor": {
                            "dtype": "DT_INT32",
                            "tensorShape": {
                                "dim": [{ "size": "4" }, { "size": "2" }]
                            }
                        }
                    }
                }
            },
            {
                "name": "PartitionedCall/transpose_141/perm",
                "op": "Const",
                "attr": {
                    "value": {
                        "tensor": {
                            "dtype": "DT_INT32",
                            "tensorShape": { "dim": [{ "size": "4" }] }
                        }
                    },
                    "dtype": { "type": "DT_INT32" }
                }
            },
            {
                "name": "PartitionedCall/split_40",
                "op": "Const",
                "attr": {
                    "dtype": { "type": "DT_FLOAT" },
                    "value": {
                        "tensor": {
                            "dtype": "DT_FLOAT",
                            "tensorShape": {
                                "dim": [
                                    { "size": "3" },
                                    { "size": "3" },
                                    { "size": "20" },
                                    { "size": "20" }
                                ]
                            }
                        }
                    }
                }
            },
            {
                "name": "unknown_112",
                "op": "Const",
                "attr": {
                    "value": {
                        "tensor": {
                            "dtype": "DT_FLOAT",
                            "tensorShape": { "dim": [{ "size": "20" }] }
                        }
                    },
                    "dtype": { "type": "DT_FLOAT" }
                }
            },
            {
                "name": "PartitionedCall/transpose_142/perm",
                "op": "Const",
                "attr": {
                    "dtype": { "type": "DT_INT32" },
                    "value": {
                        "tensor": {
                            "dtype": "DT_INT32",
                            "tensorShape": { "dim": [{ "size": "4" }] }
                        }
                    }
                }
            },
            {
                "name": "PartitionedCall/Const_35",
                "op": "Const",
                "attr": {
                    "value": {
                        "tensor": {
                            "dtype": "DT_INT32",
                            "tensorShape": { "dim": [{ "size": "2" }] }
                        }
                    },
                    "dtype": { "type": "DT_INT32" }
                }
            },
            {
                "name": "PartitionedCall/onnx_tf_prefix_/_net/decoder/convGRU4/gru_cell/Split/split_dim",
                "op": "Const",
                "attr": {
                    "dtype": { "type": "DT_INT32" },
                    "value": {
                        "tensor": { "dtype": "DT_INT32", "tensorShape": {} }
                    }
                }
            },
            {
                "name": "PartitionedCall/onnx_tf_prefix_/_net/decoder/convGRU4/gru_cell/Concat_1/axis",
                "op": "Const",
                "attr": {
                    "dtype": { "type": "DT_INT32" },
                    "value": {
                        "tensor": { "dtype": "DT_INT32", "tensorShape": {} }
                    }
                }
            },
            {
                "name": "PartitionedCall/Const_36",
                "op": "Const",
                "attr": {
                    "dtype": { "type": "DT_INT32" },
                    "value": {
                        "tensor": {
                            "dtype": "DT_INT32",
                            "tensorShape": {
                                "dim": [{ "size": "4" }, { "size": "2" }]
                            }
                        }
                    }
                }
            },
            {
                "name": "PartitionedCall/transpose_144/perm",
                "op": "Const",
                "attr": {
                    "value": {
                        "tensor": {
                            "dtype": "DT_INT32",
                            "tensorShape": { "dim": [{ "size": "4" }] }
                        }
                    },
                    "dtype": { "type": "DT_INT32" }
                }
            },
            {
                "name": "PartitionedCall/split_41",
                "op": "Const",
                "attr": {
                    "value": {
                        "tensor": {
                            "dtype": "DT_FLOAT",
                            "tensorShape": {
                                "dim": [
                                    { "size": "3" },
                                    { "size": "3" },
                                    { "size": "20" },
                                    { "size": "10" }
                                ]
                            }
                        }
                    },
                    "dtype": { "type": "DT_FLOAT" }
                }
            },
            {
                "name": "unknown_114",
                "op": "Const",
                "attr": {
                    "dtype": { "type": "DT_FLOAT" },
                    "value": {
                        "tensor": {
                            "dtype": "DT_FLOAT",
                            "tensorShape": { "dim": [{ "size": "10" }] }
                        }
                    }
                }
            },
            {
                "name": "PartitionedCall/transpose_145/perm",
                "op": "Const",
                "attr": {
                    "dtype": { "type": "DT_INT32" },
                    "value": {
                        "tensor": {
                            "dtype": "DT_INT32",
                            "tensorShape": { "dim": [{ "size": "4" }] }
                        }
                    }
                }
            },
            {
                "name": "PartitionedCall/transpose_6/perm",
                "op": "Const",
                "attr": {
                    "value": {
                        "tensor": {
                            "dtype": "DT_INT32",
                            "tensorShape": { "dim": [{ "size": "4" }] }
                        }
                    },
                    "dtype": { "type": "DT_INT32" }
                }
            },
            {
                "name": "PartitionedCall/conv2d_transpose_2/input_sizes",
                "op": "Const",
                "attr": {
                    "value": {
                        "tensor": {
                            "dtype": "DT_INT32",
                            "tensorShape": { "dim": [{ "size": "4" }] }
                        }
                    },
                    "dtype": { "type": "DT_INT32" }
                }
            },
            {
                "name": "PartitionedCall/split_38",
                "op": "Const",
                "attr": {
                    "dtype": { "type": "DT_FLOAT" },
                    "value": {
                        "tensor": {
                            "dtype": "DT_FLOAT",
                            "tensorShape": {
                                "dim": [
                                    { "size": "4" },
                                    { "size": "4" },
                                    { "size": "24" },
                                    { "size": "24" }
                                ]
                            }
                        }
                    }
                }
            },
            {
                "name": "PartitionedCall/onnx_tf_prefix_/_net/decoder/convGRU3/gru_cell/Concat/axis",
                "op": "Const",
                "attr": {
                    "value": {
                        "tensor": { "dtype": "DT_INT32", "tensorShape": {} }
                    },
                    "dtype": { "type": "DT_INT32" }
                }
            },
            {
                "name": "PartitionedCall/Const_26",
                "op": "Const",
                "attr": {
                    "dtype": { "type": "DT_INT32" },
                    "value": {
                        "tensor": {
                            "dtype": "DT_INT32",
                            "tensorShape": {
                                "dim": [{ "size": "4" }, { "size": "2" }]
                            }
                        }
                    }
                }
            },
            {
                "name": "PartitionedCall/transpose_129/perm",
                "op": "Const",
                "attr": {
                    "value": {
                        "tensor": {
                            "dtype": "DT_INT32",
                            "tensorShape": { "dim": [{ "size": "4" }] }
                        }
                    },
                    "dtype": { "type": "DT_INT32" }
                }
            },
            {
                "name": "PartitionedCall/split_36",
                "op": "Const",
                "attr": {
                    "dtype": { "type": "DT_FLOAT" },
                    "value": {
                        "tensor": {
                            "dtype": "DT_FLOAT",
                            "tensorShape": {
                                "dim": [
                                    { "size": "3" },
                                    { "size": "3" },
                                    { "size": "24" },
                                    { "size": "24" }
                                ]
                            }
                        }
                    }
                }
            },
            {
                "name": "unknown_99",
                "op": "Const",
                "attr": {
                    "dtype": { "type": "DT_FLOAT" },
                    "value": {
                        "tensor": {
                            "dtype": "DT_FLOAT",
                            "tensorShape": { "dim": [{ "size": "24" }] }
                        }
                    }
                }
            },
            {
                "name": "PartitionedCall/transpose_130/perm",
                "op": "Const",
                "attr": {
                    "dtype": { "type": "DT_INT32" },
                    "value": {
                        "tensor": {
                            "dtype": "DT_INT32",
                            "tensorShape": { "dim": [{ "size": "4" }] }
                        }
                    }
                }
            },
            {
                "name": "PartitionedCall/Const_27",
                "op": "Const",
                "attr": {
                    "value": {
                        "tensor": {
                            "dtype": "DT_INT32",
                            "tensorShape": { "dim": [{ "size": "2" }] }
                        }
                    },
                    "dtype": { "type": "DT_INT32" }
                }
            },
            {
                "name": "PartitionedCall/onnx_tf_prefix_/_net/decoder/convGRU3/gru_cell/Split/split_dim",
                "op": "Const",
                "attr": {
                    "dtype": { "type": "DT_INT32" },
                    "value": {
                        "tensor": { "dtype": "DT_INT32", "tensorShape": {} }
                    }
                }
            },
            {
                "name": "PartitionedCall/onnx_tf_prefix_/_net/decoder/convGRU3/gru_cell/Concat_1/axis",
                "op": "Const",
                "attr": {
                    "dtype": { "type": "DT_INT32" },
                    "value": {
                        "tensor": { "dtype": "DT_INT32", "tensorShape": {} }
                    }
                }
            },
            {
                "name": "PartitionedCall/Const_28",
                "op": "Const",
                "attr": {
                    "dtype": { "type": "DT_INT32" },
                    "value": {
                        "tensor": {
                            "dtype": "DT_INT32",
                            "tensorShape": {
                                "dim": [{ "size": "4" }, { "size": "2" }]
                            }
                        }
                    }
                }
            },
            {
                "name": "PartitionedCall/transpose_132/perm",
                "op": "Const",
                "attr": {
                    "value": {
                        "tensor": {
                            "dtype": "DT_INT32",
                            "tensorShape": { "dim": [{ "size": "4" }] }
                        }
                    },
                    "dtype": { "type": "DT_INT32" }
                }
            },
            {
                "name": "PartitionedCall/split_37",
                "op": "Const",
                "attr": {
                    "value": {
                        "tensor": {
                            "dtype": "DT_FLOAT",
                            "tensorShape": {
                                "dim": [
                                    { "size": "3" },
                                    { "size": "3" },
                                    { "size": "24" },
                                    { "size": "12" }
                                ]
                            }
                        }
                    },
                    "dtype": { "type": "DT_FLOAT" }
                }
            },
            {
                "name": "unknown_101",
                "op": "Const",
                "attr": {
                    "dtype": { "type": "DT_FLOAT" },
                    "value": {
                        "tensor": {
                            "dtype": "DT_FLOAT",
                            "tensorShape": { "dim": [{ "size": "12" }] }
                        }
                    }
                }
            },
            {
                "name": "PartitionedCall/transpose_133/perm",
                "op": "Const",
                "attr": {
                    "dtype": { "type": "DT_INT32" },
                    "value": {
                        "tensor": {
                            "dtype": "DT_INT32",
                            "tensorShape": { "dim": [{ "size": "4" }] }
                        }
                    }
                }
            },
            {
                "name": "PartitionedCall/transpose_8/perm",
                "op": "Const",
                "attr": {
                    "value": {
                        "tensor": {
                            "dtype": "DT_INT32",
                            "tensorShape": { "dim": [{ "size": "4" }] }
                        }
                    },
                    "dtype": { "type": "DT_INT32" }
                }
            },
            {
                "name": "PartitionedCall/conv2d_transpose_1/input_sizes",
                "op": "Const",
                "attr": {
                    "dtype": { "type": "DT_INT32" },
                    "value": {
                        "tensor": {
                            "dtype": "DT_INT32",
                            "tensorShape": { "dim": [{ "size": "4" }] }
                        }
                    }
                }
            },
            {
                "name": "PartitionedCall/split_34",
                "op": "Const",
                "attr": {
                    "value": {
                        "tensor": {
                            "dtype": "DT_FLOAT",
                            "tensorShape": {
                                "dim": [
                                    { "size": "4" },
                                    { "size": "4" },
                                    { "size": "32" },
                                    { "size": "32" }
                                ]
                            }
                        }
                    },
                    "dtype": { "type": "DT_FLOAT" }
                }
            },
            {
                "name": "PartitionedCall/onnx_tf_prefix_/_net/decoder/convGRU2/gru_cell/Concat/axis",
                "op": "Const",
                "attr": {
                    "value": {
                        "tensor": { "dtype": "DT_INT32", "tensorShape": {} }
                    },
                    "dtype": { "type": "DT_INT32" }
                }
            },
            {
                "name": "PartitionedCall/Const_18",
                "op": "Const",
                "attr": {
                    "value": {
                        "tensor": {
                            "dtype": "DT_INT32",
                            "tensorShape": {
                                "dim": [{ "size": "4" }, { "size": "2" }]
                            }
                        }
                    },
                    "dtype": { "type": "DT_INT32" }
                }
            },
            {
                "name": "PartitionedCall/transpose_117/perm",
                "op": "Const",
                "attr": {
                    "dtype": { "type": "DT_INT32" },
                    "value": {
                        "tensor": {
                            "dtype": "DT_INT32",
                            "tensorShape": { "dim": [{ "size": "4" }] }
                        }
                    }
                }
            },
            {
                "name": "PartitionedCall/split_32",
                "op": "Const",
                "attr": {
                    "dtype": { "type": "DT_FLOAT" },
                    "value": {
                        "tensor": {
                            "dtype": "DT_FLOAT",
                            "tensorShape": {
                                "dim": [
                                    { "size": "3" },
                                    { "size": "3" },
                                    { "size": "32" },
                                    { "size": "32" }
                                ]
                            }
                        }
                    }
                }
            },
            {
                "name": "unknown_86",
                "op": "Const",
                "attr": {
                    "value": {
                        "tensor": {
                            "dtype": "DT_FLOAT",
                            "tensorShape": { "dim": [{ "size": "32" }] }
                        }
                    },
                    "dtype": { "type": "DT_FLOAT" }
                }
            },
            {
                "name": "PartitionedCall/transpose_118/perm",
                "op": "Const",
                "attr": {
                    "value": {
                        "tensor": {
                            "dtype": "DT_INT32",
                            "tensorShape": { "dim": [{ "size": "4" }] }
                        }
                    },
                    "dtype": { "type": "DT_INT32" }
                }
            },
            {
                "name": "PartitionedCall/Const_19",
                "op": "Const",
                "attr": {
                    "value": {
                        "tensor": {
                            "dtype": "DT_INT32",
                            "tensorShape": { "dim": [{ "size": "2" }] }
                        }
                    },
                    "dtype": { "type": "DT_INT32" }
                }
            },
            {
                "name": "PartitionedCall/onnx_tf_prefix_/_net/decoder/convGRU2/gru_cell/Split/split_dim",
                "op": "Const",
                "attr": {
                    "dtype": { "type": "DT_INT32" },
                    "value": {
                        "tensor": { "dtype": "DT_INT32", "tensorShape": {} }
                    }
                }
            },
            {
                "name": "PartitionedCall/onnx_tf_prefix_/_net/decoder/convGRU2/gru_cell/Concat_1/axis",
                "op": "Const",
                "attr": {
                    "value": {
                        "tensor": { "dtype": "DT_INT32", "tensorShape": {} }
                    },
                    "dtype": { "type": "DT_INT32" }
                }
            },
            {
                "name": "PartitionedCall/Const_20",
                "op": "Const",
                "attr": {
                    "value": {
                        "tensor": {
                            "dtype": "DT_INT32",
                            "tensorShape": {
                                "dim": [{ "size": "4" }, { "size": "2" }]
                            }
                        }
                    },
                    "dtype": { "type": "DT_INT32" }
                }
            },
            {
                "name": "PartitionedCall/transpose_120/perm",
                "op": "Const",
                "attr": {
                    "dtype": { "type": "DT_INT32" },
                    "value": {
                        "tensor": {
                            "dtype": "DT_INT32",
                            "tensorShape": { "dim": [{ "size": "4" }] }
                        }
                    }
                }
            },
            {
                "name": "PartitionedCall/split_33",
                "op": "Const",
                "attr": {
                    "value": {
                        "tensor": {
                            "dtype": "DT_FLOAT",
                            "tensorShape": {
                                "dim": [
                                    { "size": "3" },
                                    { "size": "3" },
                                    { "size": "32" },
                                    { "size": "16" }
                                ]
                            }
                        }
                    },
                    "dtype": { "type": "DT_FLOAT" }
                }
            },
            {
                "name": "unknown_88",
                "op": "Const",
                "attr": {
                    "dtype": { "type": "DT_FLOAT" },
                    "value": {
                        "tensor": {
                            "dtype": "DT_FLOAT",
                            "tensorShape": { "dim": [{ "size": "16" }] }
                        }
                    }
                }
            },
            {
                "name": "PartitionedCall/transpose_121/perm",
                "op": "Const",
                "attr": {
                    "dtype": { "type": "DT_INT32" },
                    "value": {
                        "tensor": {
                            "dtype": "DT_INT32",
                            "tensorShape": { "dim": [{ "size": "4" }] }
                        }
                    }
                }
            },
            {
                "name": "PartitionedCall/transpose_10/perm",
                "op": "Const",
                "attr": {
                    "value": {
                        "tensor": {
                            "dtype": "DT_INT32",
                            "tensorShape": { "dim": [{ "size": "4" }] }
                        }
                    },
                    "dtype": { "type": "DT_INT32" }
                }
            },
            {
                "name": "PartitionedCall/conv2d_transpose/input_sizes",
                "op": "Const",
                "attr": {
                    "dtype": { "type": "DT_INT32" },
                    "value": {
                        "tensor": {
                            "dtype": "DT_INT32",
                            "tensorShape": { "dim": [{ "size": "4" }] }
                        }
                    }
                }
            },
            {
                "name": "PartitionedCall/split_30",
                "op": "Const",
                "attr": {
                    "value": {
                        "tensor": {
                            "dtype": "DT_FLOAT",
                            "tensorShape": {
                                "dim": [
                                    { "size": "4" },
                                    { "size": "4" },
                                    { "size": "40" },
                                    { "size": "40" }
                                ]
                            }
                        }
                    },
                    "dtype": { "type": "DT_FLOAT" }
                }
            },
            {
                "name": "unknown_70",
                "op": "Const",
                "attr": {
                    "value": {
                        "tensor": { "dtype": "DT_FLOAT", "tensorShape": {} }
                    },
                    "dtype": { "type": "DT_FLOAT" }
                }
            },
            {
                "name": "PartitionedCall/onnx_tf_prefix_/_net/decoder/convGRU1/gru_cell/Concat/axis",
                "op": "Const",
                "attr": {
                    "value": {
                        "tensor": { "dtype": "DT_INT32", "tensorShape": {} }
                    },
                    "dtype": { "type": "DT_INT32" }
                }
            },
            {
                "name": "PartitionedCall/Const_10",
                "op": "Const",
                "attr": {
                    "value": {
                        "tensor": {
                            "dtype": "DT_INT32",
                            "tensorShape": {
                                "dim": [{ "size": "4" }, { "size": "2" }]
                            }
                        }
                    },
                    "dtype": { "type": "DT_INT32" }
                }
            },
            {
                "name": "PartitionedCall/transpose_105/perm",
                "op": "Const",
                "attr": {
                    "value": {
                        "tensor": {
                            "dtype": "DT_INT32",
                            "tensorShape": { "dim": [{ "size": "4" }] }
                        }
                    },
                    "dtype": { "type": "DT_INT32" }
                }
            },
            {
                "name": "PartitionedCall/split_28",
                "op": "Const",
                "attr": {
                    "dtype": { "type": "DT_FLOAT" },
                    "value": {
                        "tensor": {
                            "dtype": "DT_FLOAT",
                            "tensorShape": {
                                "dim": [
                                    { "size": "3" },
                                    { "size": "3" },
                                    { "size": "40" },
                                    { "size": "40" }
                                ]
                            }
                        }
                    }
                }
            },
            {
                "name": "unknown_69",
                "op": "Const",
                "attr": {
                    "dtype": { "type": "DT_FLOAT" },
                    "value": {
                        "tensor": {
                            "dtype": "DT_FLOAT",
                            "tensorShape": { "dim": [{ "size": "40" }] }
                        }
                    }
                }
            },
            {
                "name": "PartitionedCall/transpose_106/perm",
                "op": "Const",
                "attr": {
                    "dtype": { "type": "DT_INT32" },
                    "value": {
                        "tensor": {
                            "dtype": "DT_INT32",
                            "tensorShape": { "dim": [{ "size": "4" }] }
                        }
                    }
                }
            },
            {
                "name": "PartitionedCall/Const_11",
                "op": "Const",
                "attr": {
                    "dtype": { "type": "DT_INT32" },
                    "value": {
                        "tensor": {
                            "dtype": "DT_INT32",
                            "tensorShape": { "dim": [{ "size": "2" }] }
                        }
                    }
                }
            },
            {
                "name": "PartitionedCall/onnx_tf_prefix_/_net/decoder/convGRU1/gru_cell/Split/split_dim",
                "op": "Const",
                "attr": {
                    "dtype": { "type": "DT_INT32" },
                    "value": {
                        "tensor": { "dtype": "DT_INT32", "tensorShape": {} }
                    }
                }
            },
            {
                "name": "PartitionedCall/onnx_tf_prefix_/_net/decoder/convGRU1/gru_cell/Concat_1/axis",
                "op": "Const",
                "attr": {
                    "dtype": { "type": "DT_INT32" },
                    "value": {
                        "tensor": { "dtype": "DT_INT32", "tensorShape": {} }
                    }
                }
            },
            {
                "name": "PartitionedCall/Const_12",
                "op": "Const",
                "attr": {
                    "dtype": { "type": "DT_INT32" },
                    "value": {
                        "tensor": {
                            "dtype": "DT_INT32",
                            "tensorShape": {
                                "dim": [{ "size": "4" }, { "size": "2" }]
                            }
                        }
                    }
                }
            },
            {
                "name": "PartitionedCall/transpose_108/perm",
                "op": "Const",
                "attr": {
                    "value": {
                        "tensor": {
                            "dtype": "DT_INT32",
                            "tensorShape": { "dim": [{ "size": "4" }] }
                        }
                    },
                    "dtype": { "type": "DT_INT32" }
                }
            },
            {
                "name": "PartitionedCall/split_29",
                "op": "Const",
                "attr": {
                    "value": {
                        "tensor": {
                            "dtype": "DT_FLOAT",
                            "tensorShape": {
                                "dim": [
                                    { "size": "3" },
                                    { "size": "3" },
                                    { "size": "40" },
                                    { "size": "20" }
                                ]
                            }
                        }
                    },
                    "dtype": { "type": "DT_FLOAT" }
                }
            },
            {
                "name": "unknown_72",
                "op": "Const",
                "attr": {
                    "dtype": { "type": "DT_FLOAT" },
                    "value": {
                        "tensor": {
                            "dtype": "DT_FLOAT",
                            "tensorShape": { "dim": [{ "size": "20" }] }
                        }
                    }
                }
            },
            {
                "name": "PartitionedCall/transpose_109/perm",
                "op": "Const",
                "attr": {
                    "value": {
                        "tensor": {
                            "dtype": "DT_INT32",
                            "tensorShape": { "dim": [{ "size": "4" }] }
                        }
                    },
                    "dtype": { "type": "DT_INT32" }
                }
            },
            {
                "name": "PartitionedCall/transpose_99/perm",
                "op": "Const",
                "attr": {
                    "value": {
                        "tensor": {
                            "dtype": "DT_INT32",
                            "tensorShape": { "dim": [{ "size": "4" }] }
                        }
                    },
                    "dtype": { "type": "DT_INT32" }
                }
            },
            {
                "name": "PartitionedCall/split_25",
                "op": "Const",
                "attr": {
                    "dtype": { "type": "DT_FLOAT" },
                    "value": {
                        "tensor": {
                            "dtype": "DT_FLOAT",
                            "tensorShape": {
                                "dim": [
                                    { "size": "1" },
                                    { "size": "1" },
                                    { "size": "80" },
                                    { "size": "40" }
                                ]
                            }
                        }
                    }
                }
            },
            {
                "name": "unknown_66",
                "op": "Const",
                "attr": {
                    "value": {
                        "tensor": {
                            "dtype": "DT_FLOAT",
                            "tensorShape": { "dim": [{ "size": "40" }] }
                        }
                    },
                    "dtype": { "type": "DT_FLOAT" }
                }
            },
            {
                "name": "PartitionedCall/transpose_100/perm",
                "op": "Const",
                "attr": {
                    "value": {
                        "tensor": {
                            "dtype": "DT_INT32",
                            "tensorShape": { "dim": [{ "size": "4" }] }
                        }
                    },
                    "dtype": { "type": "DT_INT32" }
                }
            },
            {
                "name": "ConstantFolding/PartitionedCall/onnx_tf_prefix_/_net/encoder/8/block/1/2/Div_recip",
                "op": "Const",
                "attr": {
                    "value": {
                        "tensor": { "dtype": "DT_FLOAT", "tensorShape": {} }
                    },
                    "dtype": { "type": "DT_FLOAT" }
                }
            },
            {
                "name": "ConstantFolding/PartitionedCall/onnx_tf_prefix_/_net/encoder/8/block/0/2/Div_recip",
                "op": "Const",
                "attr": {
                    "dtype": { "type": "DT_FLOAT" },
                    "value": {
                        "tensor": { "dtype": "DT_FLOAT", "tensorShape": {} }
                    }
                }
            },
            {
                "name": "PartitionedCall/split_23",
                "op": "Const",
                "attr": {
                    "value": {
                        "tensor": {
                            "dtype": "DT_FLOAT",
                            "tensorShape": {
                                "dim": [
                                    { "size": "1" },
                                    { "size": "1" },
                                    { "size": "80" },
                                    { "size": "200" }
                                ]
                            }
                        }
                    },
                    "dtype": { "type": "DT_FLOAT" }
                }
            },
            {
                "name": "unknown_60",
                "op": "Const",
                "attr": {
                    "value": {
                        "tensor": {
                            "dtype": "DT_FLOAT",
                            "tensorShape": { "dim": [{ "size": "200" }] }
                        }
                    },
                    "dtype": { "type": "DT_FLOAT" }
                }
            },
            {
                "name": "PartitionedCall/transpose_91/perm",
                "op": "Const",
                "attr": {
                    "dtype": { "type": "DT_INT32" },
                    "value": {
                        "tensor": {
                            "dtype": "DT_INT32",
                            "tensorShape": { "dim": [{ "size": "4" }] }
                        }
                    }
                }
            },
            {
                "name": "PartitionedCall/Const_8",
                "op": "Const",
                "attr": {
                    "value": {
                        "tensor": {
                            "dtype": "DT_INT32",
                            "tensorShape": {
                                "dim": [{ "size": "4" }, { "size": "2" }]
                            }
                        }
                    },
                    "dtype": { "type": "DT_INT32" }
                }
            },
            {
                "name": "PartitionedCall/transpose_93/perm",
                "op": "Const",
                "attr": {
                    "value": {
                        "tensor": {
                            "dtype": "DT_INT32",
                            "tensorShape": { "dim": [{ "size": "4" }] }
                        }
                    },
                    "dtype": { "type": "DT_INT32" }
                }
            },
            {
                "name": "PartitionedCall/Reshape_7",
                "op": "Const",
                "attr": {
                    "value": {
                        "tensor": {
                            "dtype": "DT_FLOAT",
                            "tensorShape": {
                                "dim": [
                                    { "size": "3" },
                                    { "size": "3" },
                                    { "size": "200" },
                                    { "size": "1" }
                                ]
                            }
                        }
                    },
                    "dtype": { "type": "DT_FLOAT" }
                }
            },
            {
                "name": "unknown_62",
                "op": "Const",
                "attr": {
                    "value": {
                        "tensor": {
                            "dtype": "DT_FLOAT",
                            "tensorShape": { "dim": [{ "size": "200" }] }
                        }
                    },
                    "dtype": { "type": "DT_FLOAT" }
                }
            },
            {
                "name": "PartitionedCall/transpose_94/perm",
                "op": "Const",
                "attr": {
                    "dtype": { "type": "DT_INT32" },
                    "value": {
                        "tensor": {
                            "dtype": "DT_INT32",
                            "tensorShape": { "dim": [{ "size": "4" }] }
                        }
                    }
                }
            },
            {
                "name": "PartitionedCall/transpose_96/perm",
                "op": "Const",
                "attr": {
                    "dtype": { "type": "DT_INT32" },
                    "value": {
                        "tensor": {
                            "dtype": "DT_INT32",
                            "tensorShape": { "dim": [{ "size": "4" }] }
                        }
                    }
                }
            },
            {
                "name": "PartitionedCall/split_24",
                "op": "Const",
                "attr": {
                    "value": {
                        "tensor": {
                            "dtype": "DT_FLOAT",
                            "tensorShape": {
                                "dim": [
                                    { "size": "1" },
                                    { "size": "1" },
                                    { "size": "200" },
                                    { "size": "80" }
                                ]
                            }
                        }
                    },
                    "dtype": { "type": "DT_FLOAT" }
                }
            },
            {
                "name": "unknown_64",
                "op": "Const",
                "attr": {
                    "dtype": { "type": "DT_FLOAT" },
                    "value": {
                        "tensor": {
                            "dtype": "DT_FLOAT",
                            "tensorShape": { "dim": [{ "size": "80" }] }
                        }
                    }
                }
            },
            {
                "name": "PartitionedCall/transpose_97/perm",
                "op": "Const",
                "attr": {
                    "dtype": { "type": "DT_INT32" },
                    "value": {
                        "tensor": {
                            "dtype": "DT_INT32",
                            "tensorShape": { "dim": [{ "size": "4" }] }
                        }
                    }
                }
            },
            {
                "name": "ConstantFolding/PartitionedCall/onnx_tf_prefix_/_net/encoder/7/block/1/2/Div_recip",
                "op": "Const",
                "attr": {
                    "value": {
                        "tensor": { "dtype": "DT_FLOAT", "tensorShape": {} }
                    },
                    "dtype": { "type": "DT_FLOAT" }
                }
            },
            {
                "name": "ConstantFolding/PartitionedCall/onnx_tf_prefix_/_net/encoder/7/block/0/2/Div_recip",
                "op": "Const",
                "attr": {
                    "value": {
                        "tensor": { "dtype": "DT_FLOAT", "tensorShape": {} }
                    },
                    "dtype": { "type": "DT_FLOAT" }
                }
            },
            {
                "name": "ConstantFolding/PartitionedCall/onnx_tf_prefix_/_net/encoder/6/Div_recip",
                "op": "Const",
                "attr": {
                    "value": {
                        "tensor": { "dtype": "DT_FLOAT", "tensorShape": {} }
                    },
                    "dtype": { "type": "DT_FLOAT" }
                }
            },
            {
                "name": "ConstantFolding/PartitionedCall/split_17-folded-1",
                "op": "Const",
                "attr": {
                    "dtype": { "type": "DT_INT32" },
                    "value": {
                        "tensor": {
                            "dtype": "DT_INT32",
                            "tensorShape": { "dim": [{ "size": "2" }] }
                        }
                    }
                }
            },
            {
                "name": "PartitionedCall/transpose_72/perm",
                "op": "Const",
                "attr": {
                    "dtype": { "type": "DT_INT32" },
                    "value": {
                        "tensor": {
                            "dtype": "DT_INT32",
                            "tensorShape": { "dim": [{ "size": "4" }] }
                        }
                    }
                }
            },
            {
                "name": "PartitionedCall/split_18",
                "op": "Const",
                "attr": {
                    "value": {
                        "tensor": {
                            "dtype": "DT_FLOAT",
                            "tensorShape": {
                                "dim": [
                                    { "size": "1" },
                                    { "size": "1" },
                                    { "size": "120" },
                                    { "size": "32" }
                                ]
                            }
                        }
                    },
                    "dtype": { "type": "DT_FLOAT" }
                }
            },
            {
                "name": "unknown_48",
                "op": "Const",
                "attr": {
                    "value": {
                        "tensor": {
                            "dtype": "DT_FLOAT",
                            "tensorShape": { "dim": [{ "size": "32" }] }
                        }
                    },
                    "dtype": { "type": "DT_FLOAT" }
                }
            },
            {
                "name": "PartitionedCall/transpose_73/perm",
                "op": "Const",
                "attr": {
                    "value": {
                        "tensor": {
                            "dtype": "DT_INT32",
                            "tensorShape": { "dim": [{ "size": "4" }] }
                        }
                    },
                    "dtype": { "type": "DT_INT32" }
                }
            },
            {
                "name": "PartitionedCall/transpose_75/perm",
                "op": "Const",
                "attr": {
                    "dtype": { "type": "DT_INT32" },
                    "value": {
                        "tensor": {
                            "dtype": "DT_INT32",
                            "tensorShape": { "dim": [{ "size": "4" }] }
                        }
                    }
                }
            },
            {
                "name": "PartitionedCall/split_19",
                "op": "Const",
                "attr": {
                    "value": {
                        "tensor": {
                            "dtype": "DT_FLOAT",
                            "tensorShape": {
                                "dim": [
                                    { "size": "1" },
                                    { "size": "1" },
                                    { "size": "32" },
                                    { "size": "120" }
                                ]
                            }
                        }
                    },
                    "dtype": { "type": "DT_FLOAT" }
                }
            },
            {
                "name": "unknown_50",
                "op": "Const",
                "attr": {
                    "value": {
                        "tensor": {
                            "dtype": "DT_FLOAT",
                            "tensorShape": { "dim": [{ "size": "120" }] }
                        }
                    },
                    "dtype": { "type": "DT_FLOAT" }
                }
            },
            {
                "name": "PartitionedCall/transpose_76/perm",
                "op": "Const",
                "attr": {
                    "dtype": { "type": "DT_INT32" },
                    "value": {
                        "tensor": {
                            "dtype": "DT_INT32",
                            "tensorShape": { "dim": [{ "size": "4" }] }
                        }
                    }
                }
            },
            {
                "name": "PartitionedCall/transpose_66/perm",
                "op": "Const",
                "attr": {
                    "value": {
                        "tensor": {
                            "dtype": "DT_INT32",
                            "tensorShape": { "dim": [{ "size": "4" }] }
                        }
                    },
                    "dtype": { "type": "DT_INT32" }
                }
            },
            {
                "name": "PartitionedCall/split_16",
                "op": "Const",
                "attr": {
                    "dtype": { "type": "DT_FLOAT" },
                    "value": {
                        "tensor": {
                            "dtype": "DT_FLOAT",
                            "tensorShape": {
                                "dim": [
                                    { "size": "1" },
                                    { "size": "1" },
                                    { "size": "40" },
                                    { "size": "120" }
                                ]
                            }
                        }
                    }
                }
            },
            {
                "name": "unknown_44",
                "op": "Const",
                "attr": {
                    "dtype": { "type": "DT_FLOAT" },
                    "value": {
                        "tensor": {
                            "dtype": "DT_FLOAT",
                            "tensorShape": { "dim": [{ "size": "120" }] }
                        }
                    }
                }
            },
            {
                "name": "PartitionedCall/transpose_67/perm",
                "op": "Const",
                "attr": {
                    "dtype": { "type": "DT_INT32" },
                    "value": {
                        "tensor": {
                            "dtype": "DT_INT32",
                            "tensorShape": { "dim": [{ "size": "4" }] }
                        }
                    }
                }
            },
            {
                "name": "PartitionedCall/Const_6",
                "op": "Const",
                "attr": {
                    "dtype": { "type": "DT_INT32" },
                    "value": {
                        "tensor": {
                            "dtype": "DT_INT32",
                            "tensorShape": {
                                "dim": [{ "size": "4" }, { "size": "2" }]
                            }
                        }
                    }
                }
            },
            {
                "name": "PartitionedCall/transpose_69/perm",
                "op": "Const",
                "attr": {
                    "dtype": { "type": "DT_INT32" },
                    "value": {
                        "tensor": {
                            "dtype": "DT_INT32",
                            "tensorShape": { "dim": [{ "size": "4" }] }
                        }
                    }
                }
            },
            {
                "name": "PartitionedCall/Reshape_5",
                "op": "Const",
                "attr": {
                    "value": {
                        "tensor": {
                            "dtype": "DT_FLOAT",
                            "tensorShape": {
                                "dim": [
                                    { "size": "5" },
                                    { "size": "5" },
                                    { "size": "120" },
                                    { "size": "1" }
                                ]
                            }
                        }
                    },
                    "dtype": { "type": "DT_FLOAT" }
                }
            },
            {
                "name": "unknown_46",
                "op": "Const",
                "attr": {
                    "dtype": { "type": "DT_FLOAT" },
                    "value": {
                        "tensor": {
                            "dtype": "DT_FLOAT",
                            "tensorShape": { "dim": [{ "size": "120" }] }
                        }
                    }
                }
            },
            {
                "name": "PartitionedCall/transpose_70/perm",
                "op": "Const",
                "attr": {
                    "dtype": { "type": "DT_INT32" },
                    "value": {
                        "tensor": {
                            "dtype": "DT_INT32",
                            "tensorShape": { "dim": [{ "size": "4" }] }
                        }
                    }
                }
            },
            {
                "name": "PartitionedCall/transpose_78/perm",
                "op": "Const",
                "attr": {
                    "value": {
                        "tensor": {
                            "dtype": "DT_INT32",
                            "tensorShape": { "dim": [{ "size": "4" }] }
                        }
                    },
                    "dtype": { "type": "DT_INT32" }
                }
            },
            {
                "name": "PartitionedCall/split_20",
                "op": "Const",
                "attr": {
                    "dtype": { "type": "DT_FLOAT" },
                    "value": {
                        "tensor": {
                            "dtype": "DT_FLOAT",
                            "tensorShape": {
                                "dim": [
                                    { "size": "1" },
                                    { "size": "1" },
                                    { "size": "120" },
                                    { "size": "40" }
                                ]
                            }
                        }
                    }
                }
            },
            {
                "name": "unknown_52",
                "op": "Const",
                "attr": {
                    "value": {
                        "tensor": {
                            "dtype": "DT_FLOAT",
                            "tensorShape": { "dim": [{ "size": "40" }] }
                        }
                    },
                    "dtype": { "type": "DT_FLOAT" }
                }
            },
            {
                "name": "PartitionedCall/transpose_79/perm",
                "op": "Const",
                "attr": {
                    "dtype": { "type": "DT_INT32" },
                    "value": {
                        "tensor": {
                            "dtype": "DT_INT32",
                            "tensorShape": { "dim": [{ "size": "4" }] }
                        }
                    }
                }
            },
            {
                "name": "ConstantFolding/PartitionedCall/onnx_tf_prefix_/_net/encoder/5/block/2/scale_activation/Div_recip",
                "op": "Const",
                "attr": {
                    "dtype": { "type": "DT_FLOAT" },
                    "value": {
                        "tensor": { "dtype": "DT_FLOAT", "tensorShape": {} }
                    }
                }
            },
            {
                "name": "ConstantFolding/PartitionedCall/split_12-folded-1",
                "op": "Const",
                "attr": {
                    "value": {
                        "tensor": {
                            "dtype": "DT_INT32",
                            "tensorShape": { "dim": [{ "size": "2" }] }
                        }
                    },
                    "dtype": { "type": "DT_INT32" }
                }
            },
            {
                "name": "PartitionedCall/transpose_57/perm",
                "op": "Const",
                "attr": {
                    "value": {
                        "tensor": {
                            "dtype": "DT_INT32",
                            "tensorShape": { "dim": [{ "size": "4" }] }
                        }
                    },
                    "dtype": { "type": "DT_INT32" }
                }
            },
            {
                "name": "PartitionedCall/split_13",
                "op": "Const",
                "attr": {
                    "dtype": { "type": "DT_FLOAT" },
                    "value": {
                        "tensor": {
                            "dtype": "DT_FLOAT",
                            "tensorShape": {
                                "dim": [
                                    { "size": "1" },
                                    { "size": "1" },
                                    { "size": "120" },
                                    { "size": "32" }
                                ]
                            }
                        }
                    }
                }
            },
            {
                "name": "unknown_38",
                "op": "Const",
                "attr": {
                    "dtype": { "type": "DT_FLOAT" },
                    "value": {
                        "tensor": {
                            "dtype": "DT_FLOAT",
                            "tensorShape": { "dim": [{ "size": "32" }] }
                        }
                    }
                }
            },
            {
                "name": "PartitionedCall/transpose_58/perm",
                "op": "Const",
                "attr": {
                    "value": {
                        "tensor": {
                            "dtype": "DT_INT32",
                            "tensorShape": { "dim": [{ "size": "4" }] }
                        }
                    },
                    "dtype": { "type": "DT_INT32" }
                }
            },
            {
                "name": "PartitionedCall/transpose_60/perm",
                "op": "Const",
                "attr": {
                    "value": {
                        "tensor": {
                            "dtype": "DT_INT32",
                            "tensorShape": { "dim": [{ "size": "4" }] }
                        }
                    },
                    "dtype": { "type": "DT_INT32" }
                }
            },
            {
                "name": "PartitionedCall/split_14",
                "op": "Const",
                "attr": {
                    "dtype": { "type": "DT_FLOAT" },
                    "value": {
                        "tensor": {
                            "dtype": "DT_FLOAT",
                            "tensorShape": {
                                "dim": [
                                    { "size": "1" },
                                    { "size": "1" },
                                    { "size": "32" },
                                    { "size": "120" }
                                ]
                            }
                        }
                    }
                }
            },
            {
                "name": "unknown_40",
                "op": "Const",
                "attr": {
                    "value": {
                        "tensor": {
                            "dtype": "DT_FLOAT",
                            "tensorShape": { "dim": [{ "size": "120" }] }
                        }
                    },
                    "dtype": { "type": "DT_FLOAT" }
                }
            },
            {
                "name": "PartitionedCall/transpose_61/perm",
                "op": "Const",
                "attr": {
                    "value": {
                        "tensor": {
                            "dtype": "DT_INT32",
                            "tensorShape": { "dim": [{ "size": "4" }] }
                        }
                    },
                    "dtype": { "type": "DT_INT32" }
                }
            },
            {
                "name": "PartitionedCall/split_11",
                "op": "Const",
                "attr": {
                    "dtype": { "type": "DT_FLOAT" },
                    "value": {
                        "tensor": {
                            "dtype": "DT_FLOAT",
                            "tensorShape": {
                                "dim": [
                                    { "size": "1" },
                                    { "size": "1" },
                                    { "size": "40" },
                                    { "size": "120" }
                                ]
                            }
                        }
                    }
                }
            },
            {
                "name": "unknown_34",
                "op": "Const",
                "attr": {
                    "dtype": { "type": "DT_FLOAT" },
                    "value": {
                        "tensor": {
                            "dtype": "DT_FLOAT",
                            "tensorShape": { "dim": [{ "size": "120" }] }
                        }
                    }
                }
            },
            {
                "name": "PartitionedCall/transpose_52/perm",
                "op": "Const",
                "attr": {
                    "value": {
                        "tensor": {
                            "dtype": "DT_INT32",
                            "tensorShape": { "dim": [{ "size": "4" }] }
                        }
                    },
                    "dtype": { "type": "DT_INT32" }
                }
            },
            {
                "name": "PartitionedCall/Const_5",
                "op": "Const",
                "attr": {
                    "dtype": { "type": "DT_INT32" },
                    "value": {
                        "tensor": {
                            "dtype": "DT_INT32",
                            "tensorShape": {
                                "dim": [{ "size": "4" }, { "size": "2" }]
                            }
                        }
                    }
                }
            },
            {
                "name": "PartitionedCall/transpose_54/perm",
                "op": "Const",
                "attr": {
                    "value": {
                        "tensor": {
                            "dtype": "DT_INT32",
                            "tensorShape": { "dim": [{ "size": "4" }] }
                        }
                    },
                    "dtype": { "type": "DT_INT32" }
                }
            },
            {
                "name": "PartitionedCall/Reshape_4",
                "op": "Const",
                "attr": {
                    "dtype": { "type": "DT_FLOAT" },
                    "value": {
                        "tensor": {
                            "dtype": "DT_FLOAT",
                            "tensorShape": {
                                "dim": [
                                    { "size": "5" },
                                    { "size": "5" },
                                    { "size": "120" },
                                    { "size": "1" }
                                ]
                            }
                        }
                    }
                }
            },
            {
                "name": "unknown_36",
                "op": "Const",
                "attr": {
                    "dtype": { "type": "DT_FLOAT" },
                    "value": {
                        "tensor": {
                            "dtype": "DT_FLOAT",
                            "tensorShape": { "dim": [{ "size": "120" }] }
                        }
                    }
                }
            },
            {
                "name": "PartitionedCall/transpose_55/perm",
                "op": "Const",
                "attr": {
                    "value": {
                        "tensor": {
                            "dtype": "DT_INT32",
                            "tensorShape": { "dim": [{ "size": "4" }] }
                        }
                    },
                    "dtype": { "type": "DT_INT32" }
                }
            },
            {
                "name": "PartitionedCall/transpose_63/perm",
                "op": "Const",
                "attr": {
                    "dtype": { "type": "DT_INT32" },
                    "value": {
                        "tensor": {
                            "dtype": "DT_INT32",
                            "tensorShape": { "dim": [{ "size": "4" }] }
                        }
                    }
                }
            },
            {
                "name": "PartitionedCall/split_15",
                "op": "Const",
                "attr": {
                    "value": {
                        "tensor": {
                            "dtype": "DT_FLOAT",
                            "tensorShape": {
                                "dim": [
                                    { "size": "1" },
                                    { "size": "1" },
                                    { "size": "120" },
                                    { "size": "40" }
                                ]
                            }
                        }
                    },
                    "dtype": { "type": "DT_FLOAT" }
                }
            },
            {
                "name": "unknown_42",
                "op": "Const",
                "attr": {
                    "dtype": { "type": "DT_FLOAT" },
                    "value": {
                        "tensor": {
                            "dtype": "DT_FLOAT",
                            "tensorShape": { "dim": [{ "size": "40" }] }
                        }
                    }
                }
            },
            {
                "name": "PartitionedCall/transpose_64/perm",
                "op": "Const",
                "attr": {
                    "dtype": { "type": "DT_INT32" },
                    "value": {
                        "tensor": {
                            "dtype": "DT_INT32",
                            "tensorShape": { "dim": [{ "size": "4" }] }
                        }
                    }
                }
            },
            {
                "name": "ConstantFolding/PartitionedCall/onnx_tf_prefix_/_net/encoder/4/block/2/scale_activation/Div_recip",
                "op": "Const",
                "attr": {
                    "value": {
                        "tensor": { "dtype": "DT_FLOAT", "tensorShape": {} }
                    },
                    "dtype": { "type": "DT_FLOAT" }
                }
            },
            {
                "name": "ConstantFolding/PartitionedCall/split_7-folded-1",
                "op": "Const",
                "attr": {
                    "dtype": { "type": "DT_INT32" },
                    "value": {
                        "tensor": {
                            "dtype": "DT_INT32",
                            "tensorShape": { "dim": [{ "size": "2" }] }
                        }
                    }
                }
            },
            {
                "name": "PartitionedCall/transpose_42/perm",
                "op": "Const",
                "attr": {
                    "dtype": { "type": "DT_INT32" },
                    "value": {
                        "tensor": {
                            "dtype": "DT_INT32",
                            "tensorShape": { "dim": [{ "size": "4" }] }
                        }
                    }
                }
            },
            {
                "name": "PartitionedCall/split_8",
                "op": "Const",
                "attr": {
                    "dtype": { "type": "DT_FLOAT" },
                    "value": {
                        "tensor": {
                            "dtype": "DT_FLOAT",
                            "tensorShape": {
                                "dim": [
                                    { "size": "1" },
                                    { "size": "1" },
                                    { "size": "72" },
                                    { "size": "24" }
                                ]
                            }
                        }
                    }
                }
            },
            {
                "name": "unknown_28",
                "op": "Const",
                "attr": {
                    "dtype": { "type": "DT_FLOAT" },
                    "value": {
                        "tensor": {
                            "dtype": "DT_FLOAT",
                            "tensorShape": { "dim": [{ "size": "24" }] }
                        }
                    }
                }
            },
            {
                "name": "PartitionedCall/transpose_43/perm",
                "op": "Const",
                "attr": {
                    "value": {
                        "tensor": {
                            "dtype": "DT_INT32",
                            "tensorShape": { "dim": [{ "size": "4" }] }
                        }
                    },
                    "dtype": { "type": "DT_INT32" }
                }
            },
            {
                "name": "PartitionedCall/transpose_45/perm",
                "op": "Const",
                "attr": {
                    "dtype": { "type": "DT_INT32" },
                    "value": {
                        "tensor": {
                            "dtype": "DT_INT32",
                            "tensorShape": { "dim": [{ "size": "4" }] }
                        }
                    }
                }
            },
            {
                "name": "PartitionedCall/split_9",
                "op": "Const",
                "attr": {
                    "dtype": { "type": "DT_FLOAT" },
                    "value": {
                        "tensor": {
                            "dtype": "DT_FLOAT",
                            "tensorShape": {
                                "dim": [
                                    { "size": "1" },
                                    { "size": "1" },
                                    { "size": "24" },
                                    { "size": "72" }
                                ]
                            }
                        }
                    }
                }
            },
            {
                "name": "unknown_30",
                "op": "Const",
                "attr": {
                    "dtype": { "type": "DT_FLOAT" },
                    "value": {
                        "tensor": {
                            "dtype": "DT_FLOAT",
                            "tensorShape": { "dim": [{ "size": "72" }] }
                        }
                    }
                }
            },
            {
                "name": "PartitionedCall/transpose_46/perm",
                "op": "Const",
                "attr": {
                    "value": {
                        "tensor": {
                            "dtype": "DT_INT32",
                            "tensorShape": { "dim": [{ "size": "4" }] }
                        }
                    },
                    "dtype": { "type": "DT_INT32" }
                }
            },
            {
                "name": "PartitionedCall/split_4",
                "op": "Const",
                "attr": {
                    "value": {
                        "tensor": {
                            "dtype": "DT_FLOAT",
                            "tensorShape": {
                                "dim": [
                                    { "size": "1" },
                                    { "size": "1" },
                                    { "size": "24" },
                                    { "size": "72" }
                                ]
                            }
                        }
                    },
                    "dtype": { "type": "DT_FLOAT" }
                }
            },
            {
                "name": "unknown_18",
                "op": "Const",
                "attr": {
                    "value": {
                        "tensor": {
                            "dtype": "DT_FLOAT",
                            "tensorShape": { "dim": [{ "size": "72" }] }
                        }
                    },
                    "dtype": { "type": "DT_FLOAT" }
                }
            },
            {
                "name": "PartitionedCall/transpose_28/perm",
                "op": "Const",
                "attr": {
                    "value": {
                        "tensor": {
                            "dtype": "DT_INT32",
                            "tensorShape": { "dim": [{ "size": "4" }] }
                        }
                    },
                    "dtype": { "type": "DT_INT32" }
                }
            },
            {
                "name": "PartitionedCall/Const_3",
                "op": "Const",
                "attr": {
                    "value": {
                        "tensor": {
                            "dtype": "DT_INT32",
                            "tensorShape": {
                                "dim": [{ "size": "4" }, { "size": "2" }]
                            }
                        }
                    },
                    "dtype": { "type": "DT_INT32" }
                }
            },
            {
                "name": "PartitionedCall/transpose_30/perm",
                "op": "Const",
                "attr": {
                    "value": {
                        "tensor": {
                            "dtype": "DT_INT32",
                            "tensorShape": { "dim": [{ "size": "4" }] }
                        }
                    },
                    "dtype": { "type": "DT_INT32" }
                }
            },
            {
                "name": "PartitionedCall/Reshape_2",
                "op": "Const",
                "attr": {
                    "dtype": { "type": "DT_FLOAT" },
                    "value": {
                        "tensor": {
                            "dtype": "DT_FLOAT",
                            "tensorShape": {
                                "dim": [
                                    { "size": "3" },
                                    { "size": "3" },
                                    { "size": "72" },
                                    { "size": "1" }
                                ]
                            }
                        }
                    }
                }
            },
            {
                "name": "unknown_20",
                "op": "Const",
                "attr": {
                    "dtype": { "type": "DT_FLOAT" },
                    "value": {
                        "tensor": {
                            "dtype": "DT_FLOAT",
                            "tensorShape": { "dim": [{ "size": "72" }] }
                        }
                    }
                }
            },
            {
                "name": "PartitionedCall/transpose_31/perm",
                "op": "Const",
                "attr": {
                    "value": {
                        "tensor": {
                            "dtype": "DT_INT32",
                            "tensorShape": { "dim": [{ "size": "4" }] }
                        }
                    },
                    "dtype": { "type": "DT_INT32" }
                }
            },
            {
                "name": "PartitionedCall/transpose_33/perm",
                "op": "Const",
                "attr": {
                    "value": {
                        "tensor": {
                            "dtype": "DT_INT32",
                            "tensorShape": { "dim": [{ "size": "4" }] }
                        }
                    },
                    "dtype": { "type": "DT_INT32" }
                }
            },
            {
                "name": "PartitionedCall/split_5",
                "op": "Const",
                "attr": {
                    "dtype": { "type": "DT_FLOAT" },
                    "value": {
                        "tensor": {
                            "dtype": "DT_FLOAT",
                            "tensorShape": {
                                "dim": [
                                    { "size": "1" },
                                    { "size": "1" },
                                    { "size": "72" },
                                    { "size": "24" }
                                ]
                            }
                        }
                    }
                }
            },
            {
                "name": "unknown_22",
                "op": "Const",
                "attr": {
                    "dtype": { "type": "DT_FLOAT" },
                    "value": {
                        "tensor": {
                            "dtype": "DT_FLOAT",
                            "tensorShape": { "dim": [{ "size": "24" }] }
                        }
                    }
                }
            },
            {
                "name": "PartitionedCall/transpose_34/perm",
                "op": "Const",
                "attr": {
                    "value": {
                        "tensor": {
                            "dtype": "DT_INT32",
                            "tensorShape": { "dim": [{ "size": "4" }] }
                        }
                    },
                    "dtype": { "type": "DT_INT32" }
                }
            },
            {
                "name": "PartitionedCall/Const_1",
                "op": "Const",
                "attr": {
                    "value": {
                        "tensor": {
                            "dtype": "DT_INT32",
                            "tensorShape": {
                                "dim": [{ "size": "4" }, { "size": "2" }]
                            }
                        }
                    },
                    "dtype": { "type": "DT_INT32" }
                }
            },
            {
                "name": "PartitionedCall/transpose_12/perm",
                "op": "Const",
                "attr": {
                    "dtype": { "type": "DT_INT32" },
                    "value": {
                        "tensor": {
                            "dtype": "DT_INT32",
                            "tensorShape": { "dim": [{ "size": "4" }] }
                        }
                    }
                }
            },
            {
                "name": "PartitionedCall/Reshape",
                "op": "Const",
                "attr": {
                    "dtype": { "type": "DT_FLOAT" },
                    "value": {
                        "tensor": {
                            "dtype": "DT_FLOAT",
                            "tensorShape": {
                                "dim": [
                                    { "size": "3" },
                                    { "size": "3" },
                                    { "size": "16" },
                                    { "size": "1" }
                                ]
                            }
                        }
                    }
                }
            },
            {
                "name": "unknown_8",
                "op": "Const",
                "attr": {
                    "value": {
                        "tensor": {
                            "dtype": "DT_FLOAT",
                            "tensorShape": { "dim": [{ "size": "16" }] }
                        }
                    },
                    "dtype": { "type": "DT_FLOAT" }
                }
            },
            {
                "name": "PartitionedCall/transpose_13/perm",
                "op": "Const",
                "attr": {
                    "value": {
                        "tensor": {
                            "dtype": "DT_INT32",
                            "tensorShape": { "dim": [{ "size": "4" }] }
                        }
                    },
                    "dtype": { "type": "DT_INT32" }
                }
            },
            {
                "name": "PartitionedCall/transpose_15/perm",
                "op": "Const",
                "attr": {
                    "dtype": { "type": "DT_INT32" },
                    "value": {
                        "tensor": {
                            "dtype": "DT_INT32",
                            "tensorShape": { "dim": [{ "size": "4" }] }
                        }
                    }
                }
            },
            {
                "name": "PartitionedCall/split_1",
                "op": "Const",
                "attr": {
                    "value": {
                        "tensor": {
                            "dtype": "DT_FLOAT",
                            "tensorShape": {
                                "dim": [
                                    { "size": "1" },
                                    { "size": "1" },
                                    { "size": "16" },
                                    { "size": "16" }
                                ]
                            }
                        }
                    },
                    "dtype": { "type": "DT_FLOAT" }
                }
            },
            {
                "name": "unknown_10",
                "op": "Const",
                "attr": {
                    "value": {
                        "tensor": {
                            "dtype": "DT_FLOAT",
                            "tensorShape": { "dim": [{ "size": "16" }] }
                        }
                    },
                    "dtype": { "type": "DT_FLOAT" }
                }
            },
            {
                "name": "PartitionedCall/transpose_16/perm",
                "op": "Const",
                "attr": {
                    "dtype": { "type": "DT_INT32" },
                    "value": {
                        "tensor": {
                            "dtype": "DT_INT32",
                            "tensorShape": { "dim": [{ "size": "4" }] }
                        }
                    }
                }
            },
            {
                "name": "ConstantFolding/PartitionedCall/onnx_tf_prefix_/_net/encoder/0/2/Div_recip",
                "op": "Const",
                "attr": {
                    "value": {
                        "tensor": { "dtype": "DT_FLOAT", "tensorShape": {} }
                    },
                    "dtype": { "type": "DT_FLOAT" }
                }
            },
            {
                "name": "PartitionedCall/onnx_tf_prefix_input_order_convert_transpose_0/perm",
                "op": "Const",
                "attr": {
                    "dtype": { "type": "DT_INT32" },
                    "value": {
                        "tensor": {
                            "dtype": "DT_INT32",
                            "tensorShape": { "dim": [{ "size": "4" }] }
                        }
                    }
                }
            },
            {
                "name": "unknown",
                "op": "Const",
                "attr": {
                    "dtype": { "type": "DT_FLOAT" },
                    "value": {
                        "tensor": {
                            "dtype": "DT_FLOAT",
                            "tensorShape": {
                                "dim": [
                                    { "size": "1" },
                                    { "size": "3" },
                                    { "size": "1" },
                                    { "size": "1" }
                                ]
                            }
                        }
                    }
                }
            },
            {
                "name": "ConstantFolding/PartitionedCall/onnx_tf_prefix_/Div_recip",
                "op": "Const",
                "attr": {
                    "dtype": { "type": "DT_FLOAT" },
                    "value": {
                        "tensor": {
                            "dtype": "DT_FLOAT",
                            "tensorShape": {
                                "dim": [
                                    { "size": "1" },
                                    { "size": "3" },
                                    { "size": "1" },
                                    { "size": "1" }
                                ]
                            }
                        }
                    }
                }
            },
            {
                "name": "PartitionedCall/transpose/perm",
                "op": "Const",
                "attr": {
                    "dtype": { "type": "DT_INT32" },
                    "value": {
                        "tensor": {
                            "dtype": "DT_INT32",
                            "tensorShape": { "dim": [{ "size": "4" }] }
                        }
                    }
                }
            },
            {
                "name": "PartitionedCall/Cast",
                "op": "Const",
                "attr": {
                    "value": {
                        "tensor": {
                            "dtype": "DT_INT32",
                            "tensorShape": { "dim": [{ "size": "2" }] }
                        }
                    },
                    "dtype": { "type": "DT_INT32" }
                }
            },
            {
                "name": "PartitionedCall/transpose_1/perm",
                "op": "Const",
                "attr": {
                    "value": {
                        "tensor": {
                            "dtype": "DT_INT32",
                            "tensorShape": { "dim": [{ "size": "4" }] }
                        }
                    },
                    "dtype": { "type": "DT_INT32" }
                }
            },
            {
                "name": "PartitionedCall/Const",
                "op": "Const",
                "attr": {
                    "value": {
                        "tensor": {
                            "dtype": "DT_INT32",
                            "tensorShape": {
                                "dim": [{ "size": "4" }, { "size": "2" }]
                            }
                        }
                    },
                    "dtype": { "type": "DT_INT32" }
                }
            },
            {
                "name": "PartitionedCall/transpose_3/perm",
                "op": "Const",
                "attr": {
                    "dtype": { "type": "DT_INT32" },
                    "value": {
                        "tensor": {
                            "dtype": "DT_INT32",
                            "tensorShape": { "dim": [{ "size": "4" }] }
                        }
                    }
                }
            },
            {
                "name": "PartitionedCall/split",
                "op": "Const",
                "attr": {
                    "value": {
                        "tensor": {
                            "dtype": "DT_FLOAT",
                            "tensorShape": {
                                "dim": [
                                    { "size": "3" },
                                    { "size": "3" },
                                    { "size": "3" },
                                    { "size": "16" }
                                ]
                            }
                        }
                    },
                    "dtype": { "type": "DT_FLOAT" }
                }
            },
            {
                "name": "unknown_3",
                "op": "Const",
                "attr": {
                    "dtype": { "type": "DT_FLOAT" },
                    "value": {
                        "tensor": {
                            "dtype": "DT_FLOAT",
                            "tensorShape": { "dim": [{ "size": "16" }] }
                        }
                    }
                }
            },
            {
                "name": "PartitionedCall/transpose_4/perm",
                "op": "Const",
                "attr": {
                    "dtype": { "type": "DT_INT32" },
                    "value": {
                        "tensor": {
                            "dtype": "DT_INT32",
                            "tensorShape": { "dim": [{ "size": "4" }] }
                        }
                    }
                }
            },
            {
                "name": "PartitionedCall/transpose_18/perm",
                "op": "Const",
                "attr": {
                    "value": {
                        "tensor": {
                            "dtype": "DT_INT32",
                            "tensorShape": { "dim": [{ "size": "4" }] }
                        }
                    },
                    "dtype": { "type": "DT_INT32" }
                }
            },
            {
                "name": "PartitionedCall/split_2",
                "op": "Const",
                "attr": {
                    "value": {
                        "tensor": {
                            "dtype": "DT_FLOAT",
                            "tensorShape": {
                                "dim": [
                                    { "size": "1" },
                                    { "size": "1" },
                                    { "size": "16" },
                                    { "size": "64" }
                                ]
                            }
                        }
                    },
                    "dtype": { "type": "DT_FLOAT" }
                }
            },
            {
                "name": "unknown_12",
                "op": "Const",
                "attr": {
                    "dtype": { "type": "DT_FLOAT" },
                    "value": {
                        "tensor": {
                            "dtype": "DT_FLOAT",
                            "tensorShape": { "dim": [{ "size": "64" }] }
                        }
                    }
                }
            },
            {
                "name": "PartitionedCall/transpose_19/perm",
                "op": "Const",
                "attr": {
                    "dtype": { "type": "DT_INT32" },
                    "value": {
                        "tensor": {
                            "dtype": "DT_INT32",
                            "tensorShape": { "dim": [{ "size": "4" }] }
                        }
                    }
                }
            },
            {
                "name": "PartitionedCall/Const_2",
                "op": "Const",
                "attr": {
                    "value": {
                        "tensor": {
                            "dtype": "DT_INT32",
                            "tensorShape": {
                                "dim": [{ "size": "4" }, { "size": "2" }]
                            }
                        }
                    },
                    "dtype": { "type": "DT_INT32" }
                }
            },
            {
                "name": "PartitionedCall/transpose_21/perm",
                "op": "Const",
                "attr": {
                    "dtype": { "type": "DT_INT32" },
                    "value": {
                        "tensor": {
                            "dtype": "DT_INT32",
                            "tensorShape": { "dim": [{ "size": "4" }] }
                        }
                    }
                }
            },
            {
                "name": "PartitionedCall/Reshape_1",
                "op": "Const",
                "attr": {
                    "value": {
                        "tensor": {
                            "dtype": "DT_FLOAT",
                            "tensorShape": {
                                "dim": [
                                    { "size": "3" },
                                    { "size": "3" },
                                    { "size": "64" },
                                    { "size": "1" }
                                ]
                            }
                        }
                    },
                    "dtype": { "type": "DT_FLOAT" }
                }
            },
            {
                "name": "unknown_14",
                "op": "Const",
                "attr": {
                    "dtype": { "type": "DT_FLOAT" },
                    "value": {
                        "tensor": {
                            "dtype": "DT_FLOAT",
                            "tensorShape": { "dim": [{ "size": "64" }] }
                        }
                    }
                }
            },
            {
                "name": "PartitionedCall/transpose_22/perm",
                "op": "Const",
                "attr": {
                    "dtype": { "type": "DT_INT32" },
                    "value": {
                        "tensor": {
                            "dtype": "DT_INT32",
                            "tensorShape": { "dim": [{ "size": "4" }] }
                        }
                    }
                }
            },
            {
                "name": "PartitionedCall/transpose_24/perm",
                "op": "Const",
                "attr": {
                    "dtype": { "type": "DT_INT32" },
                    "value": {
                        "tensor": {
                            "dtype": "DT_INT32",
                            "tensorShape": { "dim": [{ "size": "4" }] }
                        }
                    }
                }
            },
            {
                "name": "PartitionedCall/split_3",
                "op": "Const",
                "attr": {
                    "value": {
                        "tensor": {
                            "dtype": "DT_FLOAT",
                            "tensorShape": {
                                "dim": [
                                    { "size": "1" },
                                    { "size": "1" },
                                    { "size": "64" },
                                    { "size": "24" }
                                ]
                            }
                        }
                    },
                    "dtype": { "type": "DT_FLOAT" }
                }
            },
            {
                "name": "unknown_16",
                "op": "Const",
                "attr": {
                    "dtype": { "type": "DT_FLOAT" },
                    "value": {
                        "tensor": {
                            "dtype": "DT_FLOAT",
                            "tensorShape": { "dim": [{ "size": "24" }] }
                        }
                    }
                }
            },
            {
                "name": "PartitionedCall/transpose_25/perm",
                "op": "Const",
                "attr": {
                    "value": {
                        "tensor": {
                            "dtype": "DT_INT32",
                            "tensorShape": { "dim": [{ "size": "4" }] }
                        }
                    },
                    "dtype": { "type": "DT_INT32" }
                }
            },
            {
                "name": "PartitionedCall/transpose_36/perm",
                "op": "Const",
                "attr": {
                    "value": {
                        "tensor": {
                            "dtype": "DT_INT32",
                            "tensorShape": { "dim": [{ "size": "4" }] }
                        }
                    },
                    "dtype": { "type": "DT_INT32" }
                }
            },
            {
                "name": "PartitionedCall/split_6",
                "op": "Const",
                "attr": {
                    "dtype": { "type": "DT_FLOAT" },
                    "value": {
                        "tensor": {
                            "dtype": "DT_FLOAT",
                            "tensorShape": {
                                "dim": [
                                    { "size": "1" },
                                    { "size": "1" },
                                    { "size": "24" },
                                    { "size": "72" }
                                ]
                            }
                        }
                    }
                }
            },
            {
                "name": "unknown_24",
                "op": "Const",
                "attr": {
                    "dtype": { "type": "DT_FLOAT" },
                    "value": {
                        "tensor": {
                            "dtype": "DT_FLOAT",
                            "tensorShape": { "dim": [{ "size": "72" }] }
                        }
                    }
                }
            },
            {
                "name": "PartitionedCall/transpose_37/perm",
                "op": "Const",
                "attr": {
                    "value": {
                        "tensor": {
                            "dtype": "DT_INT32",
                            "tensorShape": { "dim": [{ "size": "4" }] }
                        }
                    },
                    "dtype": { "type": "DT_INT32" }
                }
            },
            {
                "name": "PartitionedCall/Const_4",
                "op": "Const",
                "attr": {
                    "value": {
                        "tensor": {
                            "dtype": "DT_INT32",
                            "tensorShape": {
                                "dim": [{ "size": "4" }, { "size": "2" }]
                            }
                        }
                    },
                    "dtype": { "type": "DT_INT32" }
                }
            },
            {
                "name": "PartitionedCall/transpose_39/perm",
                "op": "Const",
                "attr": {
                    "dtype": { "type": "DT_INT32" },
                    "value": {
                        "tensor": {
                            "dtype": "DT_INT32",
                            "tensorShape": { "dim": [{ "size": "4" }] }
                        }
                    }
                }
            },
            {
                "name": "PartitionedCall/Reshape_3",
                "op": "Const",
                "attr": {
                    "value": {
                        "tensor": {
                            "dtype": "DT_FLOAT",
                            "tensorShape": {
                                "dim": [
                                    { "size": "5" },
                                    { "size": "5" },
                                    { "size": "72" },
                                    { "size": "1" }
                                ]
                            }
                        }
                    },
                    "dtype": { "type": "DT_FLOAT" }
                }
            },
            {
                "name": "unknown_26",
                "op": "Const",
                "attr": {
                    "dtype": { "type": "DT_FLOAT" },
                    "value": {
                        "tensor": {
                            "dtype": "DT_FLOAT",
                            "tensorShape": { "dim": [{ "size": "72" }] }
                        }
                    }
                }
            },
            {
                "name": "PartitionedCall/transpose_40/perm",
                "op": "Const",
                "attr": {
                    "value": {
                        "tensor": {
                            "dtype": "DT_INT32",
                            "tensorShape": { "dim": [{ "size": "4" }] }
                        }
                    },
                    "dtype": { "type": "DT_INT32" }
                }
            },
            {
                "name": "PartitionedCall/transpose_48/perm",
                "op": "Const",
                "attr": {
                    "value": {
                        "tensor": {
                            "dtype": "DT_INT32",
                            "tensorShape": { "dim": [{ "size": "4" }] }
                        }
                    },
                    "dtype": { "type": "DT_INT32" }
                }
            },
            {
                "name": "PartitionedCall/split_10",
                "op": "Const",
                "attr": {
                    "dtype": { "type": "DT_FLOAT" },
                    "value": {
                        "tensor": {
                            "dtype": "DT_FLOAT",
                            "tensorShape": {
                                "dim": [
                                    { "size": "1" },
                                    { "size": "1" },
                                    { "size": "72" },
                                    { "size": "40" }
                                ]
                            }
                        }
                    }
                }
            },
            {
                "name": "unknown_32",
                "op": "Const",
                "attr": {
                    "dtype": { "type": "DT_FLOAT" },
                    "value": {
                        "tensor": {
                            "dtype": "DT_FLOAT",
                            "tensorShape": { "dim": [{ "size": "40" }] }
                        }
                    }
                }
            },
            {
                "name": "PartitionedCall/transpose_49/perm",
                "op": "Const",
                "attr": {
                    "value": {
                        "tensor": {
                            "dtype": "DT_INT32",
                            "tensorShape": { "dim": [{ "size": "4" }] }
                        }
                    },
                    "dtype": { "type": "DT_INT32" }
                }
            },
            {
                "name": "PartitionedCall/transpose_81/perm",
                "op": "Const",
                "attr": {
                    "dtype": { "type": "DT_INT32" },
                    "value": {
                        "tensor": {
                            "dtype": "DT_INT32",
                            "tensorShape": { "dim": [{ "size": "4" }] }
                        }
                    }
                }
            },
            {
                "name": "PartitionedCall/split_21",
                "op": "Const",
                "attr": {
                    "dtype": { "type": "DT_FLOAT" },
                    "value": {
                        "tensor": {
                            "dtype": "DT_FLOAT",
                            "tensorShape": {
                                "dim": [
                                    { "size": "1" },
                                    { "size": "1" },
                                    { "size": "40" },
                                    { "size": "240" }
                                ]
                            }
                        }
                    }
                }
            },
            {
                "name": "unknown_54",
                "op": "Const",
                "attr": {
                    "value": {
                        "tensor": {
                            "dtype": "DT_FLOAT",
                            "tensorShape": { "dim": [{ "size": "240" }] }
                        }
                    },
                    "dtype": { "type": "DT_FLOAT" }
                }
            },
            {
                "name": "PartitionedCall/transpose_82/perm",
                "op": "Const",
                "attr": {
                    "value": {
                        "tensor": {
                            "dtype": "DT_INT32",
                            "tensorShape": { "dim": [{ "size": "4" }] }
                        }
                    },
                    "dtype": { "type": "DT_INT32" }
                }
            },
            {
                "name": "PartitionedCall/Const_7",
                "op": "Const",
                "attr": {
                    "dtype": { "type": "DT_INT32" },
                    "value": {
                        "tensor": {
                            "dtype": "DT_INT32",
                            "tensorShape": {
                                "dim": [{ "size": "4" }, { "size": "2" }]
                            }
                        }
                    }
                }
            },
            {
                "name": "PartitionedCall/transpose_84/perm",
                "op": "Const",
                "attr": {
                    "dtype": { "type": "DT_INT32" },
                    "value": {
                        "tensor": {
                            "dtype": "DT_INT32",
                            "tensorShape": { "dim": [{ "size": "4" }] }
                        }
                    }
                }
            },
            {
                "name": "PartitionedCall/Reshape_6",
                "op": "Const",
                "attr": {
                    "value": {
                        "tensor": {
                            "dtype": "DT_FLOAT",
                            "tensorShape": {
                                "dim": [
                                    { "size": "3" },
                                    { "size": "3" },
                                    { "size": "240" },
                                    { "size": "1" }
                                ]
                            }
                        }
                    },
                    "dtype": { "type": "DT_FLOAT" }
                }
            },
            {
                "name": "unknown_56",
                "op": "Const",
                "attr": {
                    "value": {
                        "tensor": {
                            "dtype": "DT_FLOAT",
                            "tensorShape": { "dim": [{ "size": "240" }] }
                        }
                    },
                    "dtype": { "type": "DT_FLOAT" }
                }
            },
            {
                "name": "PartitionedCall/transpose_85/perm",
                "op": "Const",
                "attr": {
                    "value": {
                        "tensor": {
                            "dtype": "DT_INT32",
                            "tensorShape": { "dim": [{ "size": "4" }] }
                        }
                    },
                    "dtype": { "type": "DT_INT32" }
                }
            },
            {
                "name": "unknown_4",
                "op": "Const",
                "attr": {
                    "value": {
                        "tensor": { "dtype": "DT_FLOAT", "tensorShape": {} }
                    },
                    "dtype": { "type": "DT_FLOAT" }
                }
            },
            {
                "name": "unknown_5",
                "op": "Const",
                "attr": {
                    "value": {
                        "tensor": { "dtype": "DT_FLOAT", "tensorShape": {} }
                    },
                    "dtype": { "type": "DT_FLOAT" }
                }
            },
            {
                "name": "unknown_6",
                "op": "Const",
                "attr": {
                    "value": {
                        "tensor": { "dtype": "DT_FLOAT", "tensorShape": {} }
                    },
                    "dtype": { "type": "DT_FLOAT" }
                }
            },
            {
                "name": "PartitionedCall/transpose_87/perm",
                "op": "Const",
                "attr": {
                    "value": {
                        "tensor": {
                            "dtype": "DT_INT32",
                            "tensorShape": { "dim": [{ "size": "4" }] }
                        }
                    },
                    "dtype": { "type": "DT_INT32" }
                }
            },
            {
                "name": "PartitionedCall/split_22",
                "op": "Const",
                "attr": {
                    "value": {
                        "tensor": {
                            "dtype": "DT_FLOAT",
                            "tensorShape": {
                                "dim": [
                                    { "size": "1" },
                                    { "size": "1" },
                                    { "size": "240" },
                                    { "size": "80" }
                                ]
                            }
                        }
                    },
                    "dtype": { "type": "DT_FLOAT" }
                }
            },
            {
                "name": "unknown_58",
                "op": "Const",
                "attr": {
                    "value": {
                        "tensor": {
                            "dtype": "DT_FLOAT",
                            "tensorShape": { "dim": [{ "size": "80" }] }
                        }
                    },
                    "dtype": { "type": "DT_FLOAT" }
                }
            },
            {
                "name": "PartitionedCall/transpose_88/perm",
                "op": "Const",
                "attr": {
                    "dtype": { "type": "DT_INT32" },
                    "value": {
                        "tensor": {
                            "dtype": "DT_INT32",
                            "tensorShape": { "dim": [{ "size": "4" }] }
                        }
                    }
                }
            },
            {
                "name": "ConstantFolding/PartitionedCall/split_26-folded-1",
                "op": "Const",
                "attr": {
                    "dtype": { "type": "DT_INT32" },
                    "value": {
                        "tensor": {
                            "dtype": "DT_INT32",
                            "tensorShape": { "dim": [{ "size": "2" }] }
                        }
                    }
                }
            },
            {
                "name": "PartitionedCall/transpose_102/perm",
                "op": "Const",
                "attr": {
                    "value": {
                        "tensor": {
                            "dtype": "DT_INT32",
                            "tensorShape": { "dim": [{ "size": "4" }] }
                        }
                    },
                    "dtype": { "type": "DT_INT32" }
                }
            },
            {
                "name": "PartitionedCall/split_27",
                "op": "Const",
                "attr": {
                    "dtype": { "type": "DT_FLOAT" },
                    "value": {
                        "tensor": {
                            "dtype": "DT_FLOAT",
                            "tensorShape": {
                                "dim": [
                                    { "size": "1" },
                                    { "size": "1" },
                                    { "size": "80" },
                                    { "size": "40" }
                                ]
                            }
                        }
                    }
                }
            },
            {
                "name": "PartitionedCall/transpose_103/perm",
                "op": "Const",
                "attr": {
                    "dtype": { "type": "DT_INT32" },
                    "value": {
                        "tensor": {
                            "dtype": "DT_INT32",
                            "tensorShape": { "dim": [{ "size": "4" }] }
                        }
                    }
                }
            },
            {
                "name": "PartitionedCall/Const_9",
                "op": "Const",
                "attr": {
                    "value": {
                        "tensor": {
                            "dtype": "DT_INT32",
                            "tensorShape": { "dim": [{ "size": "2" }] }
                        }
                    },
                    "dtype": { "type": "DT_INT32" }
                }
            },
            {
                "name": "PartitionedCall/onnx_tf_prefix_/_net/decoder/Split/split_dim",
                "op": "Const",
                "attr": {
                    "dtype": { "type": "DT_INT32" },
                    "value": {
                        "tensor": { "dtype": "DT_INT32", "tensorShape": {} }
                    }
                }
            },
            {
                "name": "PartitionedCall/onnx_tf_prefix_/_net/decoder/Concat/axis",
                "op": "Const",
                "attr": {
                    "value": {
                        "tensor": { "dtype": "DT_INT32", "tensorShape": {} }
                    },
                    "dtype": { "type": "DT_INT32" }
                }
            },
            {
                "name": "PartitionedCall/transpose_111/perm",
                "op": "Const",
                "attr": {
                    "value": {
                        "tensor": {
                            "dtype": "DT_INT32",
                            "tensorShape": { "dim": [{ "size": "4" }] }
                        }
                    },
                    "dtype": { "type": "DT_INT32" }
                }
            },
            {
                "name": "PartitionedCall/Slice/begin",
                "op": "Const",
                "attr": {
                    "value": {
                        "tensor": {
                            "dtype": "DT_INT32",
                            "tensorShape": { "dim": [{ "size": "4" }] }
                        }
                    },
                    "dtype": { "type": "DT_INT32" }
                }
            },
            {
                "name": "PartitionedCall/Slice/size",
                "op": "Const",
                "attr": {
                    "dtype": { "type": "DT_INT32" },
                    "value": {
                        "tensor": {
                            "dtype": "DT_INT32",
                            "tensorShape": { "dim": [{ "size": "4" }] }
                        }
                    }
                }
            },
            {
                "name": "unknown_74",
                "op": "Const",
                "attr": {
                    "dtype": { "type": "DT_FLOAT" },
                    "value": {
                        "tensor": {
                            "dtype": "DT_FLOAT",
                            "tensorShape": { "dim": [{ "size": "40" }] }
                        }
                    }
                }
            },
            {
                "name": "PartitionedCall/transpose_112/perm",
                "op": "Const",
                "attr": {
                    "value": {
                        "tensor": {
                            "dtype": "DT_INT32",
                            "tensorShape": { "dim": [{ "size": "4" }] }
                        }
                    },
                    "dtype": { "type": "DT_INT32" }
                }
            },
            {
                "name": "PartitionedCall/onnx_tf_prefix_/_net/decoder/_tbcna1/BatchNormalization/mul",
                "op": "Const",
                "attr": {
                    "dtype": { "type": "DT_FLOAT" },
                    "value": {
                        "tensor": {
                            "dtype": "DT_FLOAT",
                            "tensorShape": {
                                "dim": [
                                    { "size": "1" },
                                    { "size": "40" },
                                    { "size": "1" },
                                    { "size": "1" }
                                ]
                            }
                        }
                    }
                }
            },
            {
                "name": "PartitionedCall/onnx_tf_prefix_/_net/decoder/_tbcna1/BatchNormalization/sub",
                "op": "Const",
                "attr": {
                    "dtype": { "type": "DT_FLOAT" },
                    "value": {
                        "tensor": {
                            "dtype": "DT_FLOAT",
                            "tensorShape": {
                                "dim": [
                                    { "size": "1" },
                                    { "size": "40" },
                                    { "size": "1" },
                                    { "size": "1" }
                                ]
                            }
                        }
                    }
                }
            },
            {
                "name": "PartitionedCall/SelectV2_1",
                "op": "Const",
                "attr": {
                    "dtype": { "type": "DT_INT64" },
                    "value": {
                        "tensor": {
                            "dtype": "DT_INT64",
                            "tensorShape": { "dim": [{ "size": "2" }] }
                        }
                    }
                }
            },
            {
                "name": "PartitionedCall/zeros",
                "op": "Const",
                "attr": {
                    "dtype": { "type": "DT_INT64" },
                    "value": {
                        "tensor": { "dtype": "DT_INT64", "tensorShape": {} }
                    }
                }
            },
            {
                "name": "PartitionedCall/Const_14",
                "op": "Const",
                "attr": {
                    "dtype": { "type": "DT_INT64" },
                    "value": {
                        "tensor": { "dtype": "DT_INT64", "tensorShape": {} }
                    }
                }
            },
            {
                "name": "PartitionedCall/Shape",
                "op": "Const",
                "attr": {
                    "dtype": { "type": "DT_INT64" },
                    "value": {
                        "tensor": {
                            "dtype": "DT_INT64",
                            "tensorShape": { "dim": [{ "size": "4" }] }
                        }
                    }
                }
            },
            {
                "name": "PartitionedCall/SelectV2_2",
                "op": "Const",
                "attr": {
                    "dtype": { "type": "DT_INT64" },
                    "value": {
                        "tensor": {
                            "dtype": "DT_INT64",
                            "tensorShape": { "dim": [{ "size": "2" }] }
                        }
                    }
                }
            },
            {
                "name": "PartitionedCall/Const_13",
                "op": "Const",
                "attr": {
                    "value": {
                        "tensor": { "dtype": "DT_INT64", "tensorShape": {} }
                    },
                    "dtype": { "type": "DT_INT64" }
                }
            },
            {
                "name": "PartitionedCall/ExpandDims",
                "op": "Const",
                "attr": {
                    "dtype": { "type": "DT_INT64" },
                    "value": {
                        "tensor": {
                            "dtype": "DT_INT64",
                            "tensorShape": {
                                "dim": [{ "size": "2" }, { "size": "1" }]
                            }
                        }
                    }
                }
            },
            {
                "name": "PartitionedCall/Cast_2",
                "op": "Const",
                "attr": {
                    "value": {
                        "tensor": {
                            "dtype": "DT_INT64",
                            "tensorShape": { "dim": [{ "size": "1" }] }
                        }
                    },
                    "dtype": { "type": "DT_INT64" }
                }
            },
            {
                "name": "PartitionedCall/Const_15",
                "op": "Const",
                "attr": {
                    "value": {
                        "tensor": { "dtype": "DT_INT64", "tensorShape": {} }
                    },
                    "dtype": { "type": "DT_INT64" }
                }
            },
            {
                "name": "PartitionedCall/onnx_tf_prefix_/_net/decoder/Concat_1/axis",
                "op": "Const",
                "attr": {
                    "value": {
                        "tensor": { "dtype": "DT_INT32", "tensorShape": {} }
                    },
                    "dtype": { "type": "DT_INT32" }
                }
            },
            {
                "name": "PartitionedCall/Const_16",
                "op": "Const",
                "attr": {
                    "dtype": { "type": "DT_INT32" },
                    "value": {
                        "tensor": {
                            "dtype": "DT_INT32",
                            "tensorShape": {
                                "dim": [{ "size": "4" }, { "size": "2" }]
                            }
                        }
                    }
                }
            },
            {
                "name": "PartitionedCall/transpose_114/perm",
                "op": "Const",
                "attr": {
                    "dtype": { "type": "DT_INT32" },
                    "value": {
                        "tensor": {
                            "dtype": "DT_INT32",
                            "tensorShape": { "dim": [{ "size": "4" }] }
                        }
                    }
                }
            },
            {
                "name": "PartitionedCall/split_31",
                "op": "Const",
                "attr": {
                    "dtype": { "type": "DT_FLOAT" },
                    "value": {
                        "tensor": {
                            "dtype": "DT_FLOAT",
                            "tensorShape": {
                                "dim": [
                                    { "size": "3" },
                                    { "size": "3" },
                                    { "size": "83" },
                                    { "size": "32" }
                                ]
                            }
                        }
                    }
                }
            },
            {
                "name": "unknown_84",
                "op": "Const",
                "attr": {
                    "value": {
                        "tensor": {
                            "dtype": "DT_FLOAT",
                            "tensorShape": { "dim": [{ "size": "32" }] }
                        }
                    },
                    "dtype": { "type": "DT_FLOAT" }
                }
            },
            {
                "name": "PartitionedCall/transpose_115/perm",
                "op": "Const",
                "attr": {
                    "value": {
                        "tensor": {
                            "dtype": "DT_INT32",
                            "tensorShape": { "dim": [{ "size": "4" }] }
                        }
                    },
                    "dtype": { "type": "DT_INT32" }
                }
            },
            {
                "name": "PartitionedCall/Const_17",
                "op": "Const",
                "attr": {
                    "value": {
                        "tensor": {
                            "dtype": "DT_INT32",
                            "tensorShape": { "dim": [{ "size": "2" }] }
                        }
                    },
                    "dtype": { "type": "DT_INT32" }
                }
            },
            {
                "name": "PartitionedCall/onnx_tf_prefix_/_net/decoder/Split_1/split_dim",
                "op": "Const",
                "attr": {
                    "value": {
                        "tensor": { "dtype": "DT_INT32", "tensorShape": {} }
                    },
                    "dtype": { "type": "DT_INT32" }
                }
            },
            {
                "name": "PartitionedCall/onnx_tf_prefix_/_net/decoder/Concat_2/axis",
                "op": "Const",
                "attr": {
                    "value": {
                        "tensor": { "dtype": "DT_INT32", "tensorShape": {} }
                    },
                    "dtype": { "type": "DT_INT32" }
                }
            },
            {
                "name": "PartitionedCall/transpose_123/perm",
                "op": "Const",
                "attr": {
                    "dtype": { "type": "DT_INT32" },
                    "value": {
                        "tensor": {
                            "dtype": "DT_INT32",
                            "tensorShape": { "dim": [{ "size": "4" }] }
                        }
                    }
                }
            },
            {
                "name": "PartitionedCall/Slice_1/begin",
                "op": "Const",
                "attr": {
                    "value": {
                        "tensor": {
                            "dtype": "DT_INT32",
                            "tensorShape": { "dim": [{ "size": "4" }] }
                        }
                    },
                    "dtype": { "type": "DT_INT32" }
                }
            },
            {
                "name": "PartitionedCall/Slice_1/size",
                "op": "Const",
                "attr": {
                    "dtype": { "type": "DT_INT32" },
                    "value": {
                        "tensor": {
                            "dtype": "DT_INT32",
                            "tensorShape": { "dim": [{ "size": "4" }] }
                        }
                    }
                }
            },
            {
                "name": "unknown_90",
                "op": "Const",
                "attr": {
                    "value": {
                        "tensor": {
                            "dtype": "DT_FLOAT",
                            "tensorShape": { "dim": [{ "size": "32" }] }
                        }
                    },
                    "dtype": { "type": "DT_FLOAT" }
                }
            },
            {
                "name": "PartitionedCall/transpose_124/perm",
                "op": "Const",
                "attr": {
                    "dtype": { "type": "DT_INT32" },
                    "value": {
                        "tensor": {
                            "dtype": "DT_INT32",
                            "tensorShape": { "dim": [{ "size": "4" }] }
                        }
                    }
                }
            },
            {
                "name": "PartitionedCall/onnx_tf_prefix_/_net/decoder/_tbcna2/BatchNormalization/mul",
                "op": "Const",
                "attr": {
                    "value": {
                        "tensor": {
                            "dtype": "DT_FLOAT",
                            "tensorShape": {
                                "dim": [
                                    { "size": "1" },
                                    { "size": "32" },
                                    { "size": "1" },
                                    { "size": "1" }
                                ]
                            }
                        }
                    },
                    "dtype": { "type": "DT_FLOAT" }
                }
            },
            {
                "name": "PartitionedCall/onnx_tf_prefix_/_net/decoder/_tbcna2/BatchNormalization/sub",
                "op": "Const",
                "attr": {
                    "dtype": { "type": "DT_FLOAT" },
                    "value": {
                        "tensor": {
                            "dtype": "DT_FLOAT",
                            "tensorShape": {
                                "dim": [
                                    { "size": "1" },
                                    { "size": "32" },
                                    { "size": "1" },
                                    { "size": "1" }
                                ]
                            }
                        }
                    }
                }
            },
            {
                "name": "PartitionedCall/SelectV2_5",
                "op": "Const",
                "attr": {
                    "dtype": { "type": "DT_INT64" },
                    "value": {
                        "tensor": {
                            "dtype": "DT_INT64",
                            "tensorShape": { "dim": [{ "size": "2" }] }
                        }
                    }
                }
            },
            {
                "name": "PartitionedCall/zeros_1",
                "op": "Const",
                "attr": {
                    "dtype": { "type": "DT_INT64" },
                    "value": {
                        "tensor": { "dtype": "DT_INT64", "tensorShape": {} }
                    }
                }
            },
            {
                "name": "PartitionedCall/Const_22",
                "op": "Const",
                "attr": {
                    "dtype": { "type": "DT_INT64" },
                    "value": {
                        "tensor": { "dtype": "DT_INT64", "tensorShape": {} }
                    }
                }
            },
            {
                "name": "PartitionedCall/Shape_1",
                "op": "Const",
                "attr": {
                    "value": {
                        "tensor": {
                            "dtype": "DT_INT64",
                            "tensorShape": { "dim": [{ "size": "4" }] }
                        }
                    },
                    "dtype": { "type": "DT_INT64" }
                }
            },
            {
                "name": "PartitionedCall/SelectV2_6",
                "op": "Const",
                "attr": {
                    "dtype": { "type": "DT_INT64" },
                    "value": {
                        "tensor": {
                            "dtype": "DT_INT64",
                            "tensorShape": { "dim": [{ "size": "2" }] }
                        }
                    }
                }
            },
            {
                "name": "PartitionedCall/Const_21",
                "op": "Const",
                "attr": {
                    "dtype": { "type": "DT_INT64" },
                    "value": {
                        "tensor": { "dtype": "DT_INT64", "tensorShape": {} }
                    }
                }
            },
            {
                "name": "PartitionedCall/ExpandDims_1",
                "op": "Const",
                "attr": {
                    "value": {
                        "tensor": {
                            "dtype": "DT_INT64",
                            "tensorShape": {
                                "dim": [{ "size": "2" }, { "size": "1" }]
                            }
                        }
                    },
                    "dtype": { "type": "DT_INT64" }
                }
            },
            {
                "name": "PartitionedCall/Cast_4",
                "op": "Const",
                "attr": {
                    "dtype": { "type": "DT_INT64" },
                    "value": {
                        "tensor": {
                            "dtype": "DT_INT64",
                            "tensorShape": { "dim": [{ "size": "1" }] }
                        }
                    }
                }
            },
            {
                "name": "PartitionedCall/Const_23",
                "op": "Const",
                "attr": {
                    "dtype": { "type": "DT_INT64" },
                    "value": {
                        "tensor": { "dtype": "DT_INT64", "tensorShape": {} }
                    }
                }
            },
            {
                "name": "PartitionedCall/onnx_tf_prefix_/_net/decoder/Concat_3/axis",
                "op": "Const",
                "attr": {
                    "value": {
                        "tensor": { "dtype": "DT_INT32", "tensorShape": {} }
                    },
                    "dtype": { "type": "DT_INT32" }
                }
            },
            {
                "name": "PartitionedCall/Const_24",
                "op": "Const",
                "attr": {
                    "dtype": { "type": "DT_INT32" },
                    "value": {
                        "tensor": {
                            "dtype": "DT_INT32",
                            "tensorShape": {
                                "dim": [{ "size": "4" }, { "size": "2" }]
                            }
                        }
                    }
                }
            },
            {
                "name": "PartitionedCall/transpose_126/perm",
                "op": "Const",
                "attr": {
                    "dtype": { "type": "DT_INT32" },
                    "value": {
                        "tensor": {
                            "dtype": "DT_INT32",
                            "tensorShape": { "dim": [{ "size": "4" }] }
                        }
                    }
                }
            },
            {
                "name": "PartitionedCall/split_35",
                "op": "Const",
                "attr": {
                    "value": {
                        "tensor": {
                            "dtype": "DT_FLOAT",
                            "tensorShape": {
                                "dim": [
                                    { "size": "3" },
                                    { "size": "3" },
                                    { "size": "59" },
                                    { "size": "24" }
                                ]
                            }
                        }
                    },
                    "dtype": { "type": "DT_FLOAT" }
                }
            },
            {
                "name": "unknown_97",
                "op": "Const",
                "attr": {
                    "dtype": { "type": "DT_FLOAT" },
                    "value": {
                        "tensor": {
                            "dtype": "DT_FLOAT",
                            "tensorShape": { "dim": [{ "size": "24" }] }
                        }
                    }
                }
            },
            {
                "name": "PartitionedCall/transpose_127/perm",
                "op": "Const",
                "attr": {
                    "value": {
                        "tensor": {
                            "dtype": "DT_INT32",
                            "tensorShape": { "dim": [{ "size": "4" }] }
                        }
                    },
                    "dtype": { "type": "DT_INT32" }
                }
            },
            {
                "name": "PartitionedCall/Const_25",
                "op": "Const",
                "attr": {
                    "dtype": { "type": "DT_INT32" },
                    "value": {
                        "tensor": {
                            "dtype": "DT_INT32",
                            "tensorShape": { "dim": [{ "size": "2" }] }
                        }
                    }
                }
            },
            {
                "name": "PartitionedCall/onnx_tf_prefix_/_net/decoder/Split_2/split_dim",
                "op": "Const",
                "attr": {
                    "dtype": { "type": "DT_INT32" },
                    "value": {
                        "tensor": { "dtype": "DT_INT32", "tensorShape": {} }
                    }
                }
            },
            {
                "name": "PartitionedCall/onnx_tf_prefix_/_net/decoder/Concat_4/axis",
                "op": "Const",
                "attr": {
                    "dtype": { "type": "DT_INT32" },
                    "value": {
                        "tensor": { "dtype": "DT_INT32", "tensorShape": {} }
                    }
                }
            },
            {
                "name": "PartitionedCall/transpose_135/perm",
                "op": "Const",
                "attr": {
                    "value": {
                        "tensor": {
                            "dtype": "DT_INT32",
                            "tensorShape": { "dim": [{ "size": "4" }] }
                        }
                    },
                    "dtype": { "type": "DT_INT32" }
                }
            },
            {
                "name": "PartitionedCall/Slice_2/begin",
                "op": "Const",
                "attr": {
                    "value": {
                        "tensor": {
                            "dtype": "DT_INT32",
                            "tensorShape": { "dim": [{ "size": "4" }] }
                        }
                    },
                    "dtype": { "type": "DT_INT32" }
                }
            },
            {
                "name": "PartitionedCall/Slice_2/size",
                "op": "Const",
                "attr": {
                    "dtype": { "type": "DT_INT32" },
                    "value": {
                        "tensor": {
                            "dtype": "DT_INT32",
                            "tensorShape": { "dim": [{ "size": "4" }] }
                        }
                    }
                }
            },
            {
                "name": "unknown_103",
                "op": "Const",
                "attr": {
                    "dtype": { "type": "DT_FLOAT" },
                    "value": {
                        "tensor": {
                            "dtype": "DT_FLOAT",
                            "tensorShape": { "dim": [{ "size": "24" }] }
                        }
                    }
                }
            },
            {
                "name": "PartitionedCall/transpose_136/perm",
                "op": "Const",
                "attr": {
                    "value": {
                        "tensor": {
                            "dtype": "DT_INT32",
                            "tensorShape": { "dim": [{ "size": "4" }] }
                        }
                    },
                    "dtype": { "type": "DT_INT32" }
                }
            },
            {
                "name": "PartitionedCall/onnx_tf_prefix_/_net/decoder/_tbcna3/BatchNormalization/mul",
                "op": "Const",
                "attr": {
                    "value": {
                        "tensor": {
                            "dtype": "DT_FLOAT",
                            "tensorShape": {
                                "dim": [
                                    { "size": "1" },
                                    { "size": "24" },
                                    { "size": "1" },
                                    { "size": "1" }
                                ]
                            }
                        }
                    },
                    "dtype": { "type": "DT_FLOAT" }
                }
            },
            {
                "name": "PartitionedCall/onnx_tf_prefix_/_net/decoder/_tbcna3/BatchNormalization/sub",
                "op": "Const",
                "attr": {
                    "dtype": { "type": "DT_FLOAT" },
                    "value": {
                        "tensor": {
                            "dtype": "DT_FLOAT",
                            "tensorShape": {
                                "dim": [
                                    { "size": "1" },
                                    { "size": "24" },
                                    { "size": "1" },
                                    { "size": "1" }
                                ]
                            }
                        }
                    }
                }
            },
            {
                "name": "PartitionedCall/SelectV2_9",
                "op": "Const",
                "attr": {
                    "value": {
                        "tensor": {
                            "dtype": "DT_INT64",
                            "tensorShape": { "dim": [{ "size": "2" }] }
                        }
                    },
                    "dtype": { "type": "DT_INT64" }
                }
            },
            {
                "name": "PartitionedCall/zeros_2",
                "op": "Const",
                "attr": {
                    "dtype": { "type": "DT_INT64" },
                    "value": {
                        "tensor": { "dtype": "DT_INT64", "tensorShape": {} }
                    }
                }
            },
            {
                "name": "PartitionedCall/Const_30",
                "op": "Const",
                "attr": {
                    "dtype": { "type": "DT_INT64" },
                    "value": {
                        "tensor": { "dtype": "DT_INT64", "tensorShape": {} }
                    }
                }
            },
            {
                "name": "PartitionedCall/Shape_2",
                "op": "Const",
                "attr": {
                    "value": {
                        "tensor": {
                            "dtype": "DT_INT64",
                            "tensorShape": { "dim": [{ "size": "4" }] }
                        }
                    },
                    "dtype": { "type": "DT_INT64" }
                }
…
                    }
                },
                {
                    "name": "unknown_20",
                    "shape": [72],
                    "dtype": "float32",
                    "quantization": {
                        "dtype": "uint8",
                        "min": -1.2863702811446844,
                        "scale": 0.020099535642885694,
                        "original_dtype": "float32"
                    }
                },
                {
                    "name": "PartitionedCall/transpose_31/perm",
                    "shape": [4],
                    "dtype": "int32"
                },
                {
                    "name": "PartitionedCall/transpose_33/perm",
                    "shape": [4],
                    "dtype": "int32"
                },
                {
                    "name": "PartitionedCall/split_5",
                    "shape": [1, 1, 72, 24],
                    "dtype": "float32",
                    "quantization": {
                        "dtype": "uint8",
                        "min": -1.4834010273802514,
                        "scale": 0.015292794096703623,
                        "original_dtype": "float32"
                    }
                },
                {
                    "name": "unknown_22",
                    "shape": [24],
                    "dtype": "float32",
                    "quantization": {
                        "dtype": "uint8",
                        "min": -2.5441200172199925,
                        "scale": 0.024229714449714213,
                        "original_dtype": "float32"
                    }
                },
                {
                    "name": "PartitionedCall/transpose_34/perm",
                    "shape": [4],
                    "dtype": "int32"
                },
                {
                    "name": "PartitionedCall/Const_1",
                    "shape": [4, 2],
                    "dtype": "int32"
                },
                {
                    "name": "PartitionedCall/transpose_12/perm",
                    "shape": [4],
                    "dtype": "int32"
                },
                {
                    "name": "PartitionedCall/Reshape",
                    "shape": [3, 3, 16, 1],
                    "dtype": "float32",
                    "quantization": {
                        "dtype": "uint8",
                        "min": -5.161223198385799,
                        "scale": 0.04162276772891774,
                        "original_dtype": "float32"
                    }
                },
                {
                    "name": "unknown_8",
                    "shape": [16],
                    "dtype": "float32",
                    "quantization": {
                        "dtype": "uint8",
                        "min": -4.477778275807698,
                        "scale": 0.02633987221063352,
                        "original_dtype": "float32"
                    }
                },
                {
                    "name": "PartitionedCall/transpose_13/perm",
                    "shape": [4],
                    "dtype": "int32"
                },
                {
                    "name": "PartitionedCall/transpose_15/perm",
                    "shape": [4],
                    "dtype": "int32"
                },
                {
                    "name": "PartitionedCall/split_1",
                    "shape": [1, 1, 16, 16],
                    "dtype": "float32",
                    "quantization": {
                        "dtype": "uint8",
                        "min": -3.696788375517901,
                        "scale": 0.026218357273176604,
                        "original_dtype": "float32"
                    }
                },
                {
                    "name": "unknown_10",
                    "shape": [16],
                    "dtype": "float32",
                    "quantization": {
                        "dtype": "uint8",
                        "min": -6.270879143359615,
                        "scale": 0.04577284046247894,
                        "original_dtype": "float32"
                    }
                },
                {
                    "name": "PartitionedCall/transpose_16/perm",
                    "shape": [4],
                    "dtype": "int32"
                },
                {
                    "name": "ConstantFolding/PartitionedCall/onnx_tf_prefix_/_net/encoder/0/2/Div_recip",
                    "shape": [],
                    "dtype": "float32",
                    "quantization": {
                        "dtype": "uint8",
                        "min": 0.1666666716337204,
                        "scale": 1.0,
                        "original_dtype": "float32"
                    }
                },
                {
                    "name": "PartitionedCall/onnx_tf_prefix_input_order_convert_transpose_0/perm",
                    "shape": [4],
                    "dtype": "int32"
                },
                {
                    "name": "unknown",
                    "shape": [1, 3, 1, 1],
                    "dtype": "float32",
                    "quantization": {
                        "dtype": "uint8",
                        "min": 0.4059999883174896,
                        "scale": 0.0003098040234808828,
                        "original_dtype": "float32"
                    }
                },
                {
                    "name": "ConstantFolding/PartitionedCall/onnx_tf_prefix_/Div_recip",
                    "shape": [1, 3, 1, 1],
                    "dtype": "float32",
                    "quantization": {
                        "dtype": "uint8",
                        "min": 4.366812229156494,
                        "scale": 0.0003822476256127451,
                        "original_dtype": "float32"
                    }
                },
                {
                    "name": "PartitionedCall/transpose/perm",
                    "shape": [4],
                    "dtype": "int32"
                },
                {
                    "name": "PartitionedCall/Cast",
                    "shape": [2],
                    "dtype": "int32"
                },
                {
                    "name": "PartitionedCall/transpose_1/perm",
                    "shape": [4],
                    "dtype": "int32"
                },
                {
                    "name": "PartitionedCall/Const",
                    "shape": [4, 2],
                    "dtype": "int32"
                },
                {
                    "name": "PartitionedCall/transpose_3/perm",
                    "shape": [4],
                    "dtype": "int32"
                },
                {
                    "name": "PartitionedCall/split",
                    "shape": [3, 3, 3, 16],
                    "dtype": "float32",
                    "quantization": {
                        "dtype": "uint8",
                        "min": -5.606139586953556,
                        "scale": 0.049176663043452244,
                        "original_dtype": "float32"
                    }
                },
                {
                    "name": "unknown_3",
                    "shape": [16],
                    "dtype": "float32",
                    "quantization": {
                        "dtype": "uint8",
                        "min": -4.077748104170257,
                        "scale": 0.034557187323476755,
                        "original_dtype": "float32"
                    }
                },
                {
                    "name": "PartitionedCall/transpose_4/perm",
                    "shape": [4],
                    "dtype": "int32"
                },
                {
                    "name": "PartitionedCall/transpose_18/perm",
                    "shape": [4],
                    "dtype": "int32"
                },
                {
                    "name": "PartitionedCall/split_2",
                    "shape": [1, 1, 16, 64],
                    "dtype": "float32",
                    "quantization": {
                        "dtype": "uint8",
                        "min": -0.7804069916407267,
                        "scale": 0.006558041946560729,
                        "original_dtype": "float32"
                    }
                },
                {
                    "name": "unknown_12",
                    "shape": [64],
                    "dtype": "float32",
                    "quantization": {
                        "dtype": "uint8",
                        "min": -2.8240220668269136,
                        "scale": 0.026641717611574658,
                        "original_dtype": "float32"
                    }
                },
                {
                    "name": "PartitionedCall/transpose_19/perm",
                    "shape": [4],
                    "dtype": "int32"
                },
                {
                    "name": "PartitionedCall/Const_2",
                    "shape": [4, 2],
                    "dtype": "int32"
                },
                {
                    "name": "PartitionedCall/transpose_21/perm",
                    "shape": [4],
                    "dtype": "int32"
                },
                {
                    "name": "PartitionedCall/Reshape_1",
                    "shape": [3, 3, 64, 1],
                    "dtype": "float32",
                    "quantization": {
                        "dtype": "uint8",
                        "min": -4.644757149266262,
                        "scale": 0.04110404556872798,
                        "original_dtype": "float32"
                    }
                },
                {
                    "name": "unknown_14",
                    "shape": [64],
                    "dtype": "float32",
                    "quantization": {
                        "dtype": "uint8",
                        "min": -8.796191084618663,
                        "scale": 0.04941680384617226,
                        "original_dtype": "float32"
                    }
                },
                {
                    "name": "PartitionedCall/transpose_22/perm",
                    "shape": [4],
                    "dtype": "int32"
                },
                {
                    "name": "PartitionedCall/transpose_24/perm",
                    "shape": [4],
                    "dtype": "int32"
                },
                {
                    "name": "PartitionedCall/split_3",
                    "shape": [1, 1, 64, 24],
                    "dtype": "float32",
                    "quantization": {
                        "dtype": "uint8",
                        "min": -1.1451278251760146,
                        "scale": 0.009309982318504184,
                        "original_dtype": "float32"
                    }
                },
                {
                    "name": "unknown_16",
                    "shape": [24],
                    "dtype": "float32",
                    "quantization": {
                        "dtype": "uint8",
                        "min": -3.098001900841208,
                        "scale": 0.024784015206729664,
                        "original_dtype": "float32"
                    }
                },
                {
                    "name": "PartitionedCall/transpose_25/perm",
                    "shape": [4],
                    "dtype": "int32"
                },
                {
                    "name": "PartitionedCall/transpose_36/perm",
                    "shape": [4],
                    "dtype": "int32"
                },
                {
                    "name": "PartitionedCall/split_6",
                    "shape": [1, 1, 24, 72],
                    "dtype": "float32",
                    "quantization": {
                        "dtype": "uint8",
                        "min": -0.6652196089426676,
                        "scale": 0.005590080747417375,
                        "original_dtype": "float32"
                    }
                },
                {
                    "name": "unknown_24",
                    "shape": [72],
                    "dtype": "float32",
                    "quantization": {
                        "dtype": "uint8",
                        "min": -0.5913729197838727,
                        "scale": 0.0066446395481334014,
                        "original_dtype": "float32"
                    }
                },
                {
                    "name": "PartitionedCall/transpose_37/perm",
                    "shape": [4],
                    "dtype": "int32"
                },
                {
                    "name": "PartitionedCall/Const_4",
                    "shape": [4, 2],
                    "dtype": "int32"
                },
                {
                    "name": "PartitionedCall/transpose_39/perm",
                    "shape": [4],
                    "dtype": "int32"
                },
                {
                    "name": "PartitionedCall/Reshape_3",
                    "shape": [5, 5, 72, 1],
                    "dtype": "float32",
                    "quantization": {
                        "dtype": "uint8",
                        "min": -1.4354944079530005,
                        "scale": 0.01237495179269828,
                        "original_dtype": "float32"
                    }
                },
                {
                    "name": "unknown_26",
                    "shape": [72],
                    "dtype": "float32",
                    "quantization": {
                        "dtype": "uint8",
                        "min": -0.9390049205106847,
                        "scale": 0.014671951882979449,
                        "original_dtype": "float32"
                    }
                },
                {
                    "name": "PartitionedCall/transpose_40/perm",
                    "shape": [4],
                    "dtype": "int32"
                },
                {
                    "name": "PartitionedCall/transpose_48/perm",
                    "shape": [4],
                    "dtype": "int32"
                },
                {
                    "name": "PartitionedCall/split_10",
                    "shape": [1, 1, 72, 40],
                    "dtype": "float32",
                    "quantization": {
                        "dtype": "uint8",
                        "min": -1.6282877127329507,
                        "scale": 0.013683090022965973,
                        "original_dtype": "float32"
                    }
                },
                {
                    "name": "unknown_32",
                    "shape": [40],
                    "dtype": "float32",
                    "quantization": {
                        "dtype": "uint8",
                        "min": -6.9638046638638365,
                        "scale": 0.05708036609724456,
                        "original_dtype": "float32"
                    }
                },
                {
                    "name": "PartitionedCall/transpose_49/perm",
                    "shape": [4],
                    "dtype": "int32"
                },
                {
                    "name": "PartitionedCall/transpose_81/perm",
                    "shape": [4],
                    "dtype": "int32"
                },
                {
                    "name": "PartitionedCall/split_21",
                    "shape": [1, 1, 40, 240],
                    "dtype": "float32",
                    "quantization": {
                        "dtype": "uint8",
                        "min": -0.78143263798134,
                        "scale": 0.005503046746347465,
                        "original_dtype": "float32"
                    }
                },
                {
                    "name": "unknown_54",
                    "shape": [240],
                    "dtype": "float32",
                    "quantization": {
                        "dtype": "uint8",
                        "min": -2.046598019319422,
                        "scale": 0.01346446065341725,
                        "original_dtype": "float32"
                    }
                },
                {
                    "name": "PartitionedCall/transpose_82/perm",
                    "shape": [4],
                    "dtype": "int32"
                },
                {
                    "name": "PartitionedCall/Const_7",
                    "shape": [4, 2],
                    "dtype": "int32"
                },
                {
                    "name": "PartitionedCall/transpose_84/perm",
                    "shape": [4],
                    "dtype": "int32"
                },
                {
                    "name": "PartitionedCall/Reshape_6",
                    "shape": [3, 3, 240, 1],
                    "dtype": "float32",
                    "quantization": {
                        "dtype": "uint8",
                        "min": -9.440579687380323,
                        "scale": 0.0646615047080844,
                        "original_dtype": "float32"
                    }
                },
                {
                    "name": "unknown_56",
                    "shape": [240],
                    "dtype": "float32",
                    "quantization": {
                        "dtype": "uint8",
                        "min": -3.926750136356728,
                        "scale": 0.03569772851233389,
                        "original_dtype": "float32"
                    }
                },
                {
                    "name": "PartitionedCall/transpose_85/perm",
                    "shape": [4],
                    "dtype": "int32"
                },
                {
                    "name": "unknown_4",
                    "shape": [],
                    "dtype": "float32",
                    "quantization": {
                        "dtype": "uint8",
                        "min": 3.0,
                        "scale": 1.0,
                        "original_dtype": "float32"
                    }
                },
                {
                    "name": "unknown_5",
                    "shape": [],
                    "dtype": "float32",
                    "quantization": {
                        "dtype": "uint8",
                        "min": 6.0,
                        "scale": 1.0,
                        "original_dtype": "float32"
                    }
                },
                {
                    "name": "unknown_6",
                    "shape": [],
                    "dtype": "float32",
                    "quantization": {
                        "dtype": "uint8",
                        "min": 0.0,
                        "scale": 1.0,
                        "original_dtype": "float32"
                    }
                },
                {
                    "name": "PartitionedCall/transpose_87/perm",
                    "shape": [4],
                    "dtype": "int32"
                },
                {
                    "name": "PartitionedCall/split_22",
                    "shape": [1, 1, 240, 80],
                    "dtype": "float32",
                    "quantization": {
                        "dtype": "uint8",
                        "min": -0.5693941513697307,
                        "scale": 0.004784824801426308,
                        "original_dtype": "float32"
                    }
                },
                {
                    "name": "unknown_58",
                    "shape": [80],
                    "dtype": "float32",
                    "quantization": {
                        "dtype": "uint8",
                        "min": -3.156847078659955,
                        "scale": 0.027936699811150045,
                        "original_dtype": "float32"
                    }
                },
                {
                    "name": "PartitionedCall/transpose_88/perm",
                    "shape": [4],
                    "dtype": "int32"
                },
                {
                    "name": "ConstantFolding/PartitionedCall/split_26-folded-1",
                    "shape": [2],
                    "dtype": "int32"
                },
                {
                    "name": "PartitionedCall/transpose_102/perm",
                    "shape": [4],
                    "dtype": "int32"
                },
                {
                    "name": "PartitionedCall/split_27",
                    "shape": [1, 1, 80, 40],
                    "dtype": "float32",
                    "quantization": {
                        "dtype": "uint8",
                        "min": -0.5009908676147461,
                        "scale": 0.005060513814290364,
                        "original_dtype": "float32"
                    }
                },
                {
                    "name": "PartitionedCall/transpose_103/perm",
                    "shape": [4],
                    "dtype": "int32"
                },
                {
                    "name": "PartitionedCall/Const_9",
                    "shape": [2],
                    "dtype": "int32"
                },
                {
                    "name": "PartitionedCall/onnx_tf_prefix_/_net/decoder/Split/split_dim",
                    "shape": [],
                    "dtype": "int32"
                },
                {
                    "name": "PartitionedCall/onnx_tf_prefix_/_net/decoder/Concat/axis",
                    "shape": [],
                    "dtype": "int32"
                },
                {
                    "name": "PartitionedCall/transpose_111/perm",
                    "shape": [4],
                    "dtype": "int32"
                },
                {
                    "name": "PartitionedCall/Slice/begin",
                    "shape": [4],
                    "dtype": "int32"
                },
                {
                    "name": "PartitionedCall/Slice/size",
                    "shape": [4],
                    "dtype": "int32"
                },
                {
                    "name": "unknown_74",
                    "shape": [40],
                    "dtype": "float32",
                    "quantization": {
                        "dtype": "uint8",
                        "min": -0.11385037758771112,
                        "scale": 0.0009648337083704332,
                        "original_dtype": "float32"
                    }
                },
                {
                    "name": "PartitionedCall/transpose_112/perm",
                    "shape": [4],
                    "dtype": "int32"
                },
                {
                    "name": "PartitionedCall/onnx_tf_prefix_/_net/decoder/_tbcna1/BatchNormalization/mul",
                    "shape": [1, 40, 1, 1],
                    "dtype": "float32",
                    "quantization": {
                        "dtype": "uint8",
                        "min": 1.4420844316482544,
                        "scale": 0.01166089890049953,
                        "original_dtype": "float32"
                    }
                },
                {
                    "name": "PartitionedCall/onnx_tf_prefix_/_net/decoder/_tbcna1/BatchNormalization/sub",
                    "shape": [1, 40, 1, 1],
                    "dtype": "float32",
                    "quantization": {
                        "dtype": "uint8",
                        "min": -0.9770982952678905,
                        "scale": 0.009869679750180712,
                        "original_dtype": "float32"
                    }
                },
                {
                    "name": "PartitionedCall/SelectV2_1",
                    "shape": [2],
                    "dtype": "int32"
                },
                {
                    "name": "PartitionedCall/zeros",
                    "shape": [],
                    "dtype": "int32"
                },
                {
                    "name": "PartitionedCall/Const_14",
                    "shape": [],
                    "dtype": "int32"
                },
                {
                    "name": "PartitionedCall/Shape",
                    "shape": [4],
                    "dtype": "int32"
                },
                {
                    "name": "PartitionedCall/SelectV2_2",
                    "shape": [2],
                    "dtype": "int32"
                },
                {
                    "name": "PartitionedCall/Const_13",
                    "shape": [],
                    "dtype": "int32"
                },
                {
                    "name": "PartitionedCall/ExpandDims",
                    "shape": [2, 1],
                    "dtype": "int32"
                },
                {
                    "name": "PartitionedCall/Cast_2",
                    "shape": [1],
                    "dtype": "int32"
                },
                {
                    "name": "PartitionedCall/Const_15",
                    "shape": [],
                    "dtype": "int32"
                },
                {
                    "name": "PartitionedCall/onnx_tf_prefix_/_net/decoder/Concat_1/axis",
                    "shape": [],
                    "dtype": "int32"
                },
                {
                    "name": "PartitionedCall/Const_16",
                    "shape": [4, 2],
                    "dtype": "int32"
                },
                {
                    "name": "PartitionedCall/transpose_114/perm",
                    "shape": [4],
                    "dtype": "int32"
                },
                {
                    "name": "PartitionedCall/split_31",
                    "shape": [3, 3, 83, 32],
                    "dtype": "float32",
                    "quantization": {
                        "dtype": "uint8",
                        "min": -0.24159038744720757,
                        "scale": 0.0020826757538552378,
                        "original_dtype": "float32"
                    }
                },
                {
                    "name": "unknown_84",
                    "shape": [32],
                    "dtype": "float32",
                    "quantization": {
                        "dtype": "uint8",
                        "min": -1.237694549560547,
                        "scale": 0.009822972615559896,
                        "original_dtype": "float32"
                    }
                },
                {
                    "name": "PartitionedCall/transpose_115/perm",
                    "shape": [4],
                    "dtype": "int32"
                },
                {
                    "name": "PartitionedCall/Const_17",
                    "shape": [2],
                    "dtype": "int32"
                },
                {
                    "name": "PartitionedCall/onnx_tf_prefix_/_net/decoder/Split_1/split_dim",
                    "shape": [],
                    "dtype": "int32"
                },
                {
                    "name": "PartitionedCall/onnx_tf_prefix_/_net/decoder/Concat_2/axis",
                    "shape": [],
                    "dtype": "int32"
                },
                {
                    "name": "PartitionedCall/transpose_123/perm",
                    "shape": [4],
                    "dtype": "int32"
                },
                {
                    "name": "PartitionedCall/Slice_1/begin",
                    "shape": [4],
                    "dtype": "int32"
                },
                {
                    "name": "PartitionedCall/Slice_1/size",
                    "shape": [4],
                    "dtype": "int32"
                },
                {
                    "name": "unknown_90",
                    "shape": [32],
                    "dtype": "float32",
                    "quantization": {
                        "dtype": "uint8",
                        "min": -0.1398549129565557,
                        "scale": 0.0009081487854321798,
                        "original_dtype": "float32"
                    }
                },
                {
                    "name": "PartitionedCall/transpose_124/perm",
                    "shape": [4],
                    "dtype": "int32"
                },
                {
                    "name": "PartitionedCall/onnx_tf_prefix_/_net/decoder/_tbcna2/BatchNormalization/mul",
                    "shape": [1, 32, 1, 1],
                    "dtype": "float32",
                    "quantization": {
                        "dtype": "uint8",
                        "min": 1.1853333711624146,
                        "scale": 0.00932305046156341,
                        "original_dtype": "float32"
                    }
                },
                {
                    "name": "PartitionedCall/onnx_tf_prefix_/_net/decoder/_tbcna2/BatchNormalization/sub",
                    "shape": [1, 32, 1, 1],
                    "dtype": "float32",
                    "quantization": {
                        "dtype": "uint8",
                        "min": -0.39830095627728634,
                        "scale": 0.005310679417030484,
                        "original_dtype": "float32"
                    }
                },
                {
                    "name": "PartitionedCall/SelectV2_5",
                    "shape": [2],
                    "dtype": "int32"
                },
                {
                    "name": "PartitionedCall/zeros_1",
                    "shape": [],
                    "dtype": "int32"
                },
                {
                    "name": "PartitionedCall/Const_22",
                    "shape": [],
                    "dtype": "int32"
                },
                {
                    "name": "PartitionedCall/Shape_1",
                    "shape": [4],
                    "dtype": "int32"
                },
                {
                    "name": "PartitionedCall/SelectV2_6",
                    "shape": [2],
                    "dtype": "int32"
                },
                {
                    "name": "PartitionedCall/Const_21",
                    "shape": [],
                    "dtype": "int32"
                },
                {
                    "name": "PartitionedCall/ExpandDims_1",
                    "shape": [2, 1],
                    "dtype": "int32"
                },
                {
                    "name": "PartitionedCall/Cast_4",
                    "shape": [1],
                    "dtype": "int32"
                },
                {
                    "name": "PartitionedCall/Const_23",
                    "shape": [],
                    "dtype": "int32"
                },
                {
                    "name": "PartitionedCall/onnx_tf_prefix_/_net/decoder/Concat_3/axis",
                    "shape": [],
                    "dtype": "int32"
                },
                {
                    "name": "PartitionedCall/Const_24",
                    "shape": [4, 2],
                    "dtype": "int32"
                },
                {
                    "name": "PartitionedCall/transpose_126/perm",
                    "shape": [4],
                    "dtype": "int32"
                },
                {
                    "name": "PartitionedCall/split_35",
                    "shape": [3, 3, 59, 24],
                    "dtype": "float32",
                    "quantization": {
                        "dtype": "uint8",
                        "min": -0.32806865607990937,
                        "scale": 0.002310342648450066,
                        "original_dtype": "float32"
                    }
                },
                {
                    "name": "unknown_97",
                    "shape": [24],
                    "dtype": "float32",
                    "quantization": {
                        "dtype": "uint8",
                        "min": -1.1831471527324005,
                        "scale": 0.0075842766200794895,
                        "original_dtype": "float32"
                    }
                },
                {
                    "name": "PartitionedCall/transpose_127/perm",
                    "shape": [4],
                    "dtype": "int32"
                },
                {
                    "name": "PartitionedCall/Const_25",
                    "shape": [2],
                    "dtype": "int32"
                },
                {
                    "name": "PartitionedCall/onnx_tf_prefix_/_net/decoder/Split_2/split_dim",
                    "shape": [],
                    "dtype": "int32"
                },
                {
                    "name": "PartitionedCall/onnx_tf_prefix_/_net/decoder/Concat_4/axis",
                    "shape": [],
                    "dtype": "int32"
                },
                {
                    "name": "PartitionedCall/transpose_135/perm",
                    "shape": [4],
                    "dtype": "int32"
                },
                {
                    "name": "PartitionedCall/Slice_2/begin",
                    "shape": [4],
                    "dtype": "int32"
                },
                {
                    "name": "PartitionedCall/Slice_2/size",
                    "shape": [4],
                    "dtype": "int32"
                },
                {
                    "name": "unknown_103",
                    "shape": [24],
                    "dtype": "float32",
                    "quantization": {
                        "dtype": "uint8",
                        "min": -0.13576772399977144,
                        "scale": 0.0010443671076905494,
                        "original_dtype": "float32"
                    }
                },
                {
                    "name": "PartitionedCall/transpose_136/perm",
                    "shape": [4],
                    "dtype": "int32"
                },
                {
                    "name": "PartitionedCall/onnx_tf_prefix_/_net/decoder/_tbcna3/BatchNormalization/mul",
                    "shape": [1, 24, 1, 1],
                    "dtype": "float32",
                    "quantization": {
                        "dtype": "uint8",
                        "min": 1.6526662111282349,
                        "scale": 0.011809180297103582,
                        "original_dtype": "float32"
                    }
                },
                {
                    "name": "PartitionedCall/onnx_tf_prefix_/_net/decoder/_tbcna3/BatchNormalization/sub",
                    "shape": [1, 24, 1, 1],
                    "dtype": "float32",
                    "quantization": {
                        "dtype": "uint8",
                        "min": -0.38652667111041494,
                        "scale": 0.005521809587291642,
                        "original_dtype": "float32"
                    }
                },
                {
                    "name": "PartitionedCall/SelectV2_9",
                    "shape": [2],
                    "dtype": "int32"
                },
                {
                    "name": "PartitionedCall/zeros_2",
                    "shape": [],
                    "dtype": "int32"
                },
                {
                    "name": "PartitionedCall/Const_30",
                    "shape": [],
                    "dtype": "int32"
                },
                {
                    "name": "PartitionedCall/Shape_2",
                    "shape": [4],
                    "dtype": "int32"
                },
                {
                    "name": "PartitionedCall/SelectV2_10",
                    "shape": [2],
                    "dtype": "int32"
                },
                {
                    "name": "PartitionedCall/Const_29",
                    "shape": [],
                    "dtype": "int32"
                },
                {
                    "name": "PartitionedCall/ExpandDims_2",
                    "shape": [2, 1],
                    "dtype": "int32"
                },
                {
                    "name": "PartitionedCall/Cast_6",
                    "shape": [1],
                    "dtype": "int32"
                },
                {
                    "name": "PartitionedCall/Const_31",
                    "shape": [],
                    "dtype": "int32"
                },
                {
                    "name": "PartitionedCall/onnx_tf_prefix_/_net/decoder/Concat_5/axis",
                    "shape": [],
                    "dtype": "int32"
                },
                {
                    "name": "PartitionedCall/Const_32",
                    "shape": [4, 2],
                    "dtype": "int32"
                },
                {
                    "name": "PartitionedCall/transpose_138/perm",
                    "shape": [4],
                    "dtype": "int32"
                },
                {
                    "name": "PartitionedCall/split_39",
                    "shape": [3, 3, 43, 20],
                    "dtype": "float32",
                    "quantization": {
                        "dtype": "uint8",
                        "min": -0.39179368580088897,
                        "scale": 0.0032649473816740745,
                        "original_dtype": "float32"
                    }
                },
                {
                    "name": "unknown_110",
                    "shape": [20],
                    "dtype": "float32",
                    "quantization": {
                        "dtype": "uint8",
                        "min": -3.9864242525661693,
                        "scale": 0.035913732005100625,
                        "original_dtype": "float32"
                    }
                },
                {
                    "name": "PartitionedCall/transpose_139/perm",
                    "shape": [4],
                    "dtype": "int32"
                },
                {
                    "name": "PartitionedCall/Const_33",
                    "shape": [2],
                    "dtype": "int32"
                },
                {
                    "name": "PartitionedCall/onnx_tf_prefix_/_net/decoder/Split_3/split_dim",
                    "shape": [],
                    "dtype": "int32"
                },
                {
                    "name": "PartitionedCall/onnx_tf_prefix_/_net/decoder/Concat_6/axis",
                    "shape": [],
                    "dtype": "int32"
                },
                {
                    "name": "PartitionedCall/transpose_147/perm",
                    "shape": [4],
                    "dtype": "int32"
                },
                {
                    "name": "PartitionedCall/Slice_3/begin",
                    "shape": [4],
                    "dtype": "int32"
                },
                {
                    "name": "PartitionedCall/Slice_3/size",
                    "shape": [4],
                    "dtype": "int32"
                },
                {
                    "name": "unknown_116",
                    "shape": [20],
                    "dtype": "float32",
                    "quantization": {
                        "dtype": "uint8",
                        "min": -0.18028772508396823,
                        "scale": 0.0014308549609838748,
                        "original_dtype": "float32"
                    }
                },
                {
                    "name": "PartitionedCall/transpose_148/perm",
                    "shape": [4],
                    "dtype": "int32"
                },
                {
                    "name": "PartitionedCall/onnx_tf_prefix_/_net/decoder/_tbcna4/BatchNormalization/mul",
                    "shape": [1, 20, 1, 1],
                    "dtype": "float32",
                    "quantization": {
                        "dtype": "uint8",
                        "min": 1.3471122980117798,
                        "scale": 0.00538328909406475,
                        "original_dtype": "float32"
                    }
                },
                {
                    "name": "PartitionedCall/onnx_tf_prefix_/_net/decoder/_tbcna4/BatchNormalization/sub",
                    "shape": [1, 20, 1, 1],
                    "dtype": "float32",
                    "quantization": {
                        "dtype": "uint8",
                        "min": -0.6200336979884727,
                        "scale": 0.005124245437921262,
                        "original_dtype": "float32"
                    }
                },
                {
                    "name": "PartitionedCall/SelectV2_13",
                    "shape": [2],
                    "dtype": "int32"
                },
                {
                    "name": "PartitionedCall/zeros_3",
                    "shape": [],
                    "dtype": "int32"
                },
                {
                    "name": "PartitionedCall/Const_38",
                    "shape": [],
                    "dtype": "int32"
                },
                {
                    "name": "PartitionedCall/Shape_3",
                    "shape": [4],
                    "dtype": "int32"
                },
                {
                    "name": "PartitionedCall/SelectV2_14",
                    "shape": [2],
                    "dtype": "int32"
                },
                {
                    "name": "PartitionedCall/Const_37",
                    "shape": [],
                    "dtype": "int32"
                },
                {
                    "name": "PartitionedCall/ExpandDims_3",
                    "shape": [2, 1],
                    "dtype": "int32"
                },
                {
                    "name": "PartitionedCall/Cast_8",
                    "shape": [1],
                    "dtype": "int32"
                },
                { "name": "unknown_82", "shape": [2], "dtype": "int32" },
                {
                    "name": "PartitionedCall/Const_39",
                    "shape": [],
                    "dtype": "int32"
                },
                {
                    "name": "PartitionedCall/onnx_tf_prefix_/_net/decoder/Concat_7/axis",
                    "shape": [],
                    "dtype": "int32"
                },
                {
                    "name": "PartitionedCall/Const_40",
                    "shape": [4, 2],
                    "dtype": "int32"
                },
                {
                    "name": "PartitionedCall/transpose_150/perm",
                    "shape": [4],
                    "dtype": "int32"
                },
                {
                    "name": "PartitionedCall/split_43",
                    "shape": [3, 3, 23, 16],
                    "dtype": "float32",
                    "quantization": {
                        "dtype": "uint8",
                        "min": -0.45922724125432035,
                        "scale": 0.002906501526926078,
                        "original_dtype": "float32"
                    }
                },
                {
                    "name": "unknown_123",
                    "shape": [16],
                    "dtype": "float32",
                    "quantization": {
                        "dtype": "uint8",
                        "min": -0.3671128560515011,
                        "scale": 0.004532257482117298,
                        "original_dtype": "float32"
                    }
                },
                {
                    "name": "PartitionedCall/transpose_151/perm",
                    "shape": [4],
                    "dtype": "int32"
                },
                {
                    "name": "PartitionedCall/Const_41",
                    "shape": [4, 2],
                    "dtype": "int32"
                },
                {
                    "name": "PartitionedCall/transpose_153/perm",
                    "shape": [4],
                    "dtype": "int32"
                },
                {
                    "name": "PartitionedCall/split_44",
                    "shape": [3, 3, 16, 16],
                    "dtype": "float32",
                    "quantization": {
                        "dtype": "uint8",
                        "min": -0.36405099665417395,
                        "scale": 0.002619071918375352,
                        "original_dtype": "float32"
                    }
                },
                {
                    "name": "unknown_125",
                    "shape": [16],
                    "dtype": "float32",
                    "quantization": {
                        "dtype": "uint8",
                        "min": -0.7678728374780394,
                        "scale": 0.00634605650808297,
                        "original_dtype": "float32"
                    }
                },
                {
                    "name": "PartitionedCall/transpose_154/perm",
                    "shape": [4],
                    "dtype": "int32"
                },
                {
                    "name": "PartitionedCall/Const_42",
                    "shape": [4, 2],
                    "dtype": "int32"
                },
                {
                    "name": "PartitionedCall/transpose_156/perm",
                    "shape": [4],
                    "dtype": "int32"
                },
                {
                    "name": "PartitionedCall/split_45",
                    "shape": [3, 3, 16, 5],
                    "dtype": "float32",
                    "quantization": {
                        "dtype": "uint8",
                        "min": -0.907427178177179,
                        "scale": 0.0057432099884631585,
                        "original_dtype": "float32"
                    }
                },
                {
                    "name": "unknown_127",
                    "shape": [5],
                    "dtype": "float32",
                    "quantization": {
                        "dtype": "uint8",
                        "min": -0.1030778227483525,
                        "scale": 0.0008380310792548984,
                        "original_dtype": "float32"
                    }
                },
                {
                    "name": "PartitionedCall/transpose_157/perm",
                    "shape": [4],
                    "dtype": "int32"
                },
                {
                    "name": "PartitionedCall/SelectV2_21",
                    "shape": [1],
                    "dtype": "int32"
                },
                {
                    "name": "PartitionedCall/zeros_5",
                    "shape": [],
                    "dtype": "int32"
                },
                {
                    "name": "PartitionedCall/Const_47",
                    "shape": [],
                    "dtype": "int32"
                },
                {
                    "name": "PartitionedCall/Shape_5",
                    "shape": [4],
                    "dtype": "int32"
                },
                {
                    "name": "PartitionedCall/SelectV2_22",
                    "shape": [1],
                    "dtype": "int32"
                },
                {
                    "name": "PartitionedCall/Const_46",
                    "shape": [],
                    "dtype": "int32"
                },
                {
                    "name": "PartitionedCall/ExpandDims_5",
                    "shape": [1, 1],
                    "dtype": "int32"
                },
                {
                    "name": "PartitionedCall/Cast_12",
                    "shape": [1],
                    "dtype": "int32"
                },
                {
                    "name": "PartitionedCall/Const_48",
                    "shape": [],
                    "dtype": "int32"
                },
                {
                    "name": "PartitionedCall/onnx_tf_prefix_/_net/decoder/Concat_8/axis",
                    "shape": [],
                    "dtype": "int32"
                },
                {
                    "name": "PartitionedCall/SelectV2_25",
                    "shape": [1],
                    "dtype": "int32"
                },
                {
                    "name": "PartitionedCall/zeros_6",
                    "shape": [],
                    "dtype": "int32"
                },
                {
                    "name": "PartitionedCall/Const_50",
                    "shape": [],
                    "dtype": "int32"
                },
                {
                    "name": "PartitionedCall/Shape_6",
                    "shape": [4],
                    "dtype": "int32"
                },
                {
                    "name": "PartitionedCall/SelectV2_26",
                    "shape": [1],
                    "dtype": "int32"
                },
                {
                    "name": "PartitionedCall/Const_49",
                    "shape": [],
                    "dtype": "int32"
                },
                {
                    "name": "PartitionedCall/ExpandDims_6",
                    "shape": [1, 1],
                    "dtype": "int32"
                },
                {
                    "name": "PartitionedCall/Cast_14",
                    "shape": [1],
                    "dtype": "int32"
                },
                { "name": "unknown_128", "shape": [1], "dtype": "int32" },
                {
                    "name": "PartitionedCall/Const_51",
                    "shape": [],
                    "dtype": "int32"
                }
            ]
        }
    ]
}
